models/amz_movie_tv_distilgpt2_5k_longest/adapter_model.bin (torch, 594261 bytes, 12 tensors)

base_model.model.transformer.h.0.attn.c_attn.lora_A.weight f4 [8, 768]
000000 3f 73 34 bc bd c5 45 3d b1 b6 5a bc 71 ec 25 3c
       -0.011013805 0.04828428 -0.013349221 0.010127173
000010 4b af 2b bd 5e 48 ba bc 4c e0 eb 3c c2 7b 02 3d
       -0.04191522 -0.022739585 0.028793477 0.031856306
000020 a1 b7 97 bc fc e0 19 bd b6 52 fb bc a8 76 48 3d
       -0.018520178 -0.037568077 -0.030679088 0.048941284
000030 f4 18 90 3d d2 52 9b 3d fe 23 ac 3b 05 03 c7 3c
       0.070360094 0.07584156 0.005253314 0.024293432
000040 7b 4f 9a bd bf 7e 93 bc e0 a1 0a bd 1e 2b e1 bc
       -0.07534691 -0.018004773 -0.033845782 -0.02748638
000050 f3 8a 89 bd 31 fa 8a bc da e5 dd ba bf 5e 1f bd
       -0.067159556 -0.016965004 -0.0016929463 -0.038908716
000060 cb cc 10 b8 d8 a2 21 3d 44 66 ad 3d 86 9c 1a 3d
       -3.4523004e-05 0.03946194 0.08466771 0.03774693
000070 09 51 28 3c 17 6d 21 bc b9 05 ff bc a3 23 35 3d
       0.010273227 -0.009852669 -0.031130658 0.04422344
000080 5c ea 0f bd a8 f0 00 bd d1 fe 61 bd f7 cc 19 be
       -0.035135612 -0.031479508 -0.055174652 -0.15019594
000090 57 8a a4 bd e7 99 6e bd 27 ed 49 bd 29 5f 0d 3d
       -0.08034199 -0.05825224 -0.04929843 0.03451458
0000a0 fd 99 90 bc ed a7 3a 3d b2 e7 1c 3c b9 6d 10 bc
       -0.017651552 0.045570303 0.009576725 -0.008815222
0000b0 2d d9 1c 3d 78 36 89 3d f9 42 ae 3c 6b 17 0e 3d
       0.038293052 0.06699842 0.02127217 0.034690302
0000c0 05 81 c4 bc c6 2b c0 bc 20 3b 49 bd b6 2d 6c bc
       -0.023987303 -0.023458373 -0.04912865 -0.014415195
0000d0 8b 1c 85 3d 2d 13 bd 3c 3c 80 9b 3c 4a 78 6b 3e
       0.06499585 0.023080433 0.018982045 0.22995105
0000e0 f2 b3 a4 bc d5 2f d8 bc fa 37 e8 bc 01 0d 60 bc
       -0.020105336 -0.026389996 -0.028347004 -0.013674975
0000f0 b7 e4 23 3d 17 c9 2e bc 76 e4 69 bd d4 55 fb bb
       0.04001304 -0.010668061 -0.057102643 -0.0076701436
000100 eb 01 d7 3b 57 7a b4 bc 56 ea 16 ba 96 ce 06 bc
       0.006561508 -0.022030992 -0.00057569647 -0.008227965
000110 51 01 84 bd 1d a5 7b bd 49 16 b3 bd 2f d6 06 bd
       -0.064455636 -0.06143676 -0.08744485 -0.032919105
000120 74 86 10 3d 68 c5 15 3c a1 38 23 bc 15 08 98 3d
       0.035284474 0.009141304 -0.009962232 0.074234165
000130 8d c3 6a 3c f0 ac 62 bc c4 5f 70 bd 7e 81 46 bd
       0.0143288495 -0.013835177 -0.05868508 -0.048463337
000140 7a b0 89 3d ec c1 a4 bd 3c b3 cb 3c b4 1b db bc
       0.06723113 -0.080448 0.024865739 -0.026746608
000150 75 94 19 3d 4d f7 b7 bc d9 52 b1 bc de 9d aa bc
       0.037495095 -0.02245679 -0.02164595 -0.02082723
000160 ea 79 18 3d 70 0c 28 bd 02 77 77 3d e2 13 88 3c
       0.03722564 -0.041027486 0.06041623 0.016611043
000170 05 d3 95 bc 07 08 96 bc 57 0a 8a 3d d8 27 42 bd
       -0.018289099 -0.018314375 0.067402534 -0.04740128
000180 c9 68 1d bd c6 a0 87 3c e9 a9 92 bd 5a 78 ae 3c
       -0.03843001 0.016556155 -0.07161314 0.021297622
000190 91 57 88 bc 8a f9 33 bc 86 56 83 3d 51 9d b4 bd
       -0.016643317 -0.010984788 0.064129874 -0.08819068
0001a0 b8 95 36 3d 34 ef 57 3d ad 52 21 bd eb c5 e0 3d
       0.044576377 0.052718356 -0.039385486 0.1097525
0001b0 aa 41 06 3c a5 aa 76 bc 58 06 d2 3c ea 5d 7b bc
       0.0081943665 -0.015055333 0.02563779 -0.015342215
0001c0 a7 f5 a2 3d 71 1a 03 3d fe ac 61 bc 00 00 10 3d
       0.07957011 0.03200764 -0.013774155 0.03515625
0001d0 69 8e 54 bd 9a c0 a7 bd 85 35 cc 3b b4 97 6a bd
       -0.051893625 -0.08191033 0.006231966 -0.05727358
0001e0 7d be 56 ba 0d 44 41 bd 97 bf bf bc b1 13 8e bd
       -0.0008191837 -0.04718404 -0.023406787 -0.069373496
0001f0 59 07 6e bc 23 6b 8a bd 18 d1 89 3d 59 f9 e9 3c
       -0.014528119 -0.06758716 0.067293346 0.028561281
000200 48 a2 98 bd dc 0e 41 bd df 40 92 3d ab a0 f6 3b
       -0.07452828 -0.04713331 0.071412794 0.0075264773
000210 3a 37 ff 3c f6 5b a7 3d 6b 2b 84 bd 55 27 83 bc
       0.031154264 0.08171837 -0.06453594 -0.016009966
000220 3c 86 5f 3c c8 72 da bd 40 5b 6f 3c a5 1d e8 bd
       0.013642844 -0.10666424 0.014609158 -0.11333779
000230 65 b6 2f bc d8 d9 9c bd 9c 51 dc bd 35 61 bd bd
       -0.010724639 -0.07658738 -0.10757753 -0.092470564
000240 df 6c f9 3c 60 21 d8 3c 11 12 5a bd 99 8b 15 3d
       0.030447422 0.026383102 -0.053239886 0.036510084
000250 ee a3 88 bc e8 6b 97 bd 29 b9 74 3d cb 10 bb bd
       -0.01667973 -0.07393628 0.059746895 -0.091340624
000260 04 62 76 3c 02 52 bc 3d e2 fd 1c 3e 7a f2 7d 3c
       0.015038017 0.09195329 0.15331224 0.015499705
000270 d7 0c 21 bd 7b 11 8d 3b eb 52 80 3c 07 2c 2e 3c
       -0.039318886 0.0043050623 0.015664538 0.010630614
000280 63 04 7a bc 18 2c 90 3d 70 aa 71 bb d5 0d a1 bc
       -0.015259835 0.0703966 -0.003687527 -0.019659916
000290 a4 7f df bb 61 1b 12 3c 91 4d da 3b 71 45 47 3c
       -0.006820636 0.00891766 0.0066620787 0.012162552
0002a0 11 3a fc 3c 76 13 7e bb 6d 08 9e bc 84 c2 1a bd
       0.030789407 -0.0038768924 -0.019291127 -0.03778316
0002b0 d1 2d a0 bd 52 0a 72 3d 38 db de bc 21 42 98 bd
       -0.07821239 0.059091873 -0.027204141 -0.07434488
0002c0 90 0d d4 bd 7b 40 af bc 16 7d 63 bb 26 26 82 bc
       -0.10354149 -0.021393051 -0.0034712008 -0.015887331
0002d0 8e 8a 1a 3d e7 69 7e bc f1 b5 e7 3c 5f 13 4b 3d
       0.037729792 -0.015528179 0.028284999 0.04957902
0002e0 ef 4c aa 3d 0a ef 8f bd f3 ba 80 bd 48 ec 6a bd
       0.08315455 -0.07028015 -0.06285658 -0.05735424
0002f0 8d be 39 bd 2d 40 07 3c b8 e1 ed bd 42 22 5c 3c
       -0.04534774 0.008255047 -0.11615318 0.013435902
000300 f8 85 4d bd fd c3 a9 3b aa 2b c9 bd eb ee a8 ba
       -0.05017659 0.0051808343 -0.098227814 -0.0012888586
000310 53 23 54 3c 61 97 74 3d ac 82 5e bd 02 0a 35 bd
       0.012947875 0.05971468 -0.054323837 -0.044198997
000320 f7 2d eb bc 0f 3a 02 be 19 20 3b 3c d9 f1 06 bd
       -0.028708441 -0.1271746 0.011421227 -0.032945488
000330 1b 73 99 3c 3f b0 98 bc c7 b3 61 3d eb d3 c3 bd
       0.018731644 -0.018638728 0.05510309 -0.095619045
000340 dc 45 2e 3d a0 b1 8d bc ba 25 17 3c 4d 5d 25 bd
       0.04254709 -0.017296612 0.009225303 -0.04037218
000350 cd 12 5c 3d ec 9f 30 bd 00 6c a8 bd 45 f2 08 bd
       0.053728867 -0.043121263 -0.08223724 -0.03343417
000360 52 50 6e 3a 60 fa be bb ff 8c f0 3b ed 89 70 bd
       0.0009090948 -0.005828187 0.007341027 -0.058725286
000370 8d 24 46 bd 41 82 cd bd 55 90 0a 3d 23 e3 6d bd
       -0.0483747 -0.100346096 0.033829052 -0.058077943
000380 1e 38 d4 3b 6c 50 f7 3b 1a 59 39 bc eb cd 4d 3d
       0.0064764163 0.007547429 -0.011312747 0.050245207
000390 84 8f 72 3d c2 38 2d bd dd 4f 74 bd d5 d7 d3 bc
       0.0592189 -0.042290457 -0.059646476 -0.025859753
0003a0 cd 10 61 3d f0 80 29 bd 83 68 3a bd 37 7c 15 3b
       0.054947663 -0.04138273 -0.045509826 0.0022809634
0003b0 6c 90 2f bd bc 83 f7 bc c0 84 b1 bd 05 c4 c3 3c
       -0.04286234 -0.030214183 -0.08667898 0.02389718
0003c0 7c 07 16 bb ca 6e 36 3d 1d 36 87 3d 03 82 92 3d
       -0.0022892645 0.04453925 0.06602118 0.07153704
0003d0 60 30 34 3d 2f 14 56 3c b1 b6 70 bd 6d 7c d9 bd
       0.043991446 0.013066336 -0.058767978 -0.106194355
0003e0 92 97 6d bd 38 81 26 3c 15 4f a2 bc c4 6f 63 3c
       -0.058005877 0.010162644 -0.0198131 0.0138816275
0003f0 b2 e7 ee 3c 09 e3 67 3d 73 c0 93 bd c9 09 23 3d
       0.029163215 0.056613002 -0.07214441 0.039804254

base_model.model.transformer.h.0.attn.c_attn.lora_B.weight f4 [2304, 8]
000000 62 3b 4b b8 aa 67 39 bc 4e 4e 89 3b a7 38 d6 bb
       -4.8454276e-05 -0.011316219 0.004190243 -0.006537515
000010 71 48 26 3b b2 e1 71 ba 9a cd 94 3b ae 2a 5e 3c
       0.0025372768 -0.00092270516 0.004541111 0.01355998
000020 ff 24 85 3b ca 7f 69 ba ca 79 0a 3c 76 c6 49 3b
       0.004063248 -0.00089072867 0.008451888 0.0030788458
000030 d1 16 e3 bb f2 53 f3 bb 5c b2 5c bc 05 54 01 bc
       -0.00693021 -0.0074257785 -0.013470259 -0.007893567
000040 6f be a4 3b 26 67 d9 bb c3 09 a8 bb 59 0e dd bb
       0.0050275843 -0.0066346107 -0.005128117 -0.006746095
000050 b5 99 20 3c 5a c8 74 3c c8 b5 5c 3c 5e 8d d2 3b
       0.009802272 0.014940346 0.013471074 0.0064255437
000060 4c 29 a5 bc c8 3e ba bc d6 0e 2b ba 8f 65 d9 bc
       -0.020161293 -0.022735015 -0.0006525343 -0.026537685
000070 a2 a7 cd 3c c1 98 9a 3c b6 ea 80 3c 9c ad ac 3c
       0.025104348 0.018871667 0.015736919 0.021078877
000080 53 d6 b6 bc db 78 1d bc 30 dd 07 3c ec 6b ac 3b
       -0.022318995 -0.009611334 0.008292481 0.0052618887
000090 71 3f b4 3c 72 31 57 3b e6 e6 3e bc de ce 2b 3b
       0.022002907 0.0032835868 -0.01165173 0.0026215832
0000a0 2e b1 a4 3c 0a 1b 42 3c 1c 46 ab bc 46 29 ac bb
       0.020104017 0.011847267 -0.020907454 -0.0052539436
0000b0 99 31 15 bb 60 74 ba 3b cb 96 c4 3c 96 16 30 bc
       -0.0022765158 0.0056901425 0.023997685 -0.010747572
0000c0 ab 57 29 3c d0 53 c7 3b 90 c7 c2 3b 27 f9 98 3b
       0.010335843 0.0060829893 0.0059442 0.004668373
0000d0 ed e6 37 bc c0 b1 3d bc 12 aa 02 bc 3b 41 16 bc
       -0.011224491 -0.011578023 -0.007975118 -0.009170826
0000e0 64 67 6c 3c 4c a6 d9 3c 7f 63 a7 bc 3a 0c dc bb
       0.014428947 0.026568554 -0.020433186 -0.0067153247
0000f0 92 d1 1b bc 95 8b 8b 3c 2e 98 79 3c eb 09 03 bd
       -0.009510415 0.017034331 0.015234036 -0.03199188
000100 5e 06 28 bc 45 e8 2f ba c8 6a 1f 3c 2c c2 a9 bb
       -0.010255424 -0.0006710331 0.0097300485 -0.005180618
000110 cb 10 ce bb 0c ef 14 bb 99 33 0f bc 08 15 a3 3b
       -0.006288623 -0.002272549 -0.008740329 0.0049768724
000120 d5 31 aa 3c 3b 63 df 3c 0f 78 f5 bb e3 c3 c2 3b
       0.020775715 0.027268996 -0.0074911187 0.0059437617
000130 80 60 12 bd 7d ad cc bc 1d 18 8f 3a ed 8f 0d bd
       -0.03573656 -0.02498507 0.001091722 -0.034561086
000140 21 b8 01 3c d7 2c 7c b9 07 69 98 bc 2d bb 8d bb
       0.007917435 -0.00024049297 -0.018604768 -0.0043252916
000150 cb c0 68 b9 fe 44 82 3b 5c d8 a5 3c 86 55 bf 3b
       -0.00022197065 0.0039755097 0.02024477 0.0058390526
000160 ef 3a 2e 3c fa 64 ae ba 65 c9 9e ba ad 41 b0 3c
       0.010634168 -0.001330524 -0.0012114464 0.021515692
000170 50 b7 7f bc 82 01 9a bc 5c 9d 8a bb d7 f0 60 bb
       -0.01560767 -0.018799547 -0.0042301845 -0.003432324
000180 e2 d5 31 3c 2d 7d 8c 3c 85 b4 4e bc 5a 17 93 3b
       0.010854216 0.017149532 -0.012616281 0.0044888677
000190 22 14 f3 bb a3 91 b6 bb f3 97 71 3b 79 67 cc bc
       -0.0074181715 -0.0055715605 0.003686425 -0.024951683
0001a0 35 fa 85 bc 32 37 52 bc 27 db 17 3c de a8 80 3c
       -0.01635466 -0.012830542 0.009268559 0.015705522
0001b0 23 b3 5c 3c e7 34 09 bc 9e 0e 16 bc 7e f3 18 3b
       0.013470444 -0.008374429 -0.009158758 0.0023338492
0001c0 49 6e 8a bc f9 35 62 bc e0 d4 dc 3c ce 8e 7d 3b
       -0.016898291 -0.013806813 0.026956975 0.0038689855
0001d0 d9 e6 4a 3c 89 ad 13 bc f2 10 e0 bc 0a 73 1c 3c
       0.01238414 -0.009013542 -0.02735183 0.009548912
0001e0 c5 d2 3c bb 61 04 6b bc b5 6c 07 3c c2 fd a3 3b
       -0.0028812152 -0.014344306 0.008265664 0.0050046155
0001f0 65 75 05 3c 1f f6 55 bb 4f ad fc bb 7e ca 4e 3c
       0.008145665 -0.003264792 -0.0077110897 0.01262152
000200 e6 3d e0 bb d0 ba 91 bc 8f ab 05 3c b5 bb c9 3b
       -0.0068433164 -0.017789274 0.008158579 0.0061564096
000210 89 08 46 3c fe 13 10 3b f1 ae 92 bb 0e 2b 93 3c
       0.012086996 0.0021984573 -0.004476421 0.017964866
000220 d2 8c c3 bb 8d af c4 3b 6e a9 a3 3a b6 5e 93 3b
       -0.005967715 0.0060023726 0.0012486407 0.0044973744
000230 40 06 c3 bb b1 80 2b bb 95 42 ef bb 64 5e d3 bb
       -0.005951673 -0.0026169235 -0.0073016384 -0.006450461
000240 1e 9c 94 3b 70 07 2d 3c 07 b0 a0 bb 13 14 c3 bb
       0.004535212 0.010560855 -0.0049037966 -0.005953321
000250 6c 67 eb bb 23 c3 c3 3a 03 24 97 3b 4b 5b 39 bc
       -0.0071839597 0.0014935475 0.004612447 -0.01131327
000260 a5 fd 2d 3d e6 34 ce 3c 44 35 aa bc 44 29 04 3d
       0.042478222 0.025171708 -0.020777352 0.032265916
000270 53 47 0e bd a4 f2 f2 bc 09 49 ea 3b 75 80 e4 bc
       -0.03473599 -0.029656716 0.0071498198 -0.027893284
000280 34 7e 80 3b 99 8a 50 bb 8a be 56 bc af c5 ed bb
       0.0039212946 -0.0031820892 -0.0131069515 -0.0072562317
000290 23 aa 76 3b a8 fb a2 3a af fe d9 3c 13 54 72 3c
       0.003763803 0.0012434619 0.0266107 0.014790553
0002a0 74 b5 99 3b a3 6f 9c bb 11 2b bd 3b f1 cc 88 ba
       0.0046908204 -0.0047740503 0.005772956 -0.0010437054
0002b0 85 33 97 bb 67 15 a3 3b 20 05 de ba 1c d6 cd 3b
       -0.004614296 0.0049769166 -0.0016938783 0.0062816273
0002c0 b2 70 98 bc f9 4c d5 bb a4 b0 ce 3c c1 11 17 bb
       -0.018608425 -0.00650942 0.025230713 -0.0023051354
0002d0 a0 f7 89 3a d3 60 82 bb 4e f4 7f bc 3e d5 57 3c
       0.0010526069 -0.0039788275 -0.015622212 0.0131733995
0002e0 bf 34 1f bc 8f c6 81 bc cd 2c 5a bb fa a5 78 bc
       -0.0097171655 -0.01584175 -0.0033290864 -0.015176291
0002f0 5c 03 a7 3c ff 53 51 3c 80 80 b3 3c c3 17 9f 3c
       0.020387344 0.012776374 0.02191186 0.01942051
000300 4f 62 7b bc 9f 0e b1 bc 2c 0f c7 3c 7a c7 59 bb
       -0.015343263 -0.021613417 0.024299227 -0.003323047
000310 52 9e dc 3c 2b ad b3 3b 17 24 30 bc 79 79 a8 3c
       0.026930962 0.0054832897 -0.010750792 0.020565735
000320 60 29 6c 3c a1 30 7d 3b 11 dd 44 bc af aa 61 3c
       0.014414161 0.0038633721 -0.012015597 0.013773604
000330 eb da 0f bc ed 0f ce bb c7 d7 99 3b 4b a8 5b bb
       -0.008780221 -0.0062885196 0.004694912 -0.0033517058
000340 66 72 5f 3c fc bc 42 3c d8 66 bb bc 4d ec 3c 3b
       0.013638115 0.011885878 -0.022876188 0.002882737
000350 c4 f0 9e bb 0b 0d ad 3a d5 7e a0 3c 40 d7 44 bc
       -0.004850479 0.001320274 0.019591728 -0.01201421
000360 c8 7e 69 bc ad 6a 7d bc 28 fa 97 bc 67 c0 20 bd
       -0.014251418 -0.015467328 -0.018551901 -0.03924599
000370 18 be c9 3c e2 84 2c 3d 19 88 36 3d 93 1d d9 3c
       0.024626777 0.042118914 0.044563387 0.02650336
000380 b1 b4 c0 3c d8 bd c1 3c fd bc ff bc 52 74 40 bc
       0.02352366 0.023650095 -0.031218046 -0.011746483
000390 e3 1a 42 bc 74 73 4e 3c b1 37 13 3d b9 f0 3f bc
       -0.011847231 0.012600768 0.035941783 -0.011715108
0003a0 2a e3 88 bb cc bb 1a bb 8e 63 01 3d a9 5b 80 3d
       -0.0041774707 -0.002361047 0.031589083 0.06267483
0003b0 0d a4 22 bb 68 ac 3b bd 9f e1 57 bd 10 9a 99 bc
       -0.002481702 -0.045818716 -0.052705403 -0.01875022
0003c0 f6 46 ce 3c 52 4a 6b 3c 82 e6 c1 3b c9 dc 0c 3d
       0.025180321 0.014360981 0.0059173713 0.034390245
0003d0 97 ed 01 bd 75 b1 dd bc 5b 32 b9 bc 7d 66 f5 bc
       -0.031720724 -0.027062157 -0.02260702 -0.029956097
0003e0 c8 19 d8 bb 9c 4f 08 bc 44 c8 aa 3b d1 77 1f bc
       -0.0065948702 -0.008319762 0.005211862 -0.009733156
0003f0 96 6c a3 bb d9 27 de 3a b3 23 14 38 84 e8 6c 3c
       -0.0049873097 0.0016949131 3.5319197e-05 0.014459733

base_model.model.transformer.h.1.attn.c_attn.lora_A.weight f4 [8, 768]
000000 5a 69 70 3d 3f 7f 25 bd ce 36 6c 3d 7c 94 97 bc
       0.05869422 -0.040404554 0.057669453 -0.01850342
000010 5b ef af bc d6 15 7e 3d 5d a4 bb 3c 5c 16 25 3d
       -0.021476438 0.062032543 0.022905523 0.040304527
000020 ea 56 e6 3b 2f 5e 5d 3b 77 04 fb 39 38 97 29 bd
       0.007029404 0.0033778062 0.00047877777 -0.04140398
000030 a7 de 9c 3a b6 b3 b5 3d 18 fd 75 3d f6 65 8a 3d
       0.0011968211 0.08872168 0.060055822 0.06757729
000040 fb 7a a7 3d 09 28 21 bc 87 96 28 3d 42 e0 28 bd
       0.081777535 -0.009836205 0.04115918 -0.041229494
000050 5d 2a fa 3a 90 56 c5 3c af 49 d4 bc 0e 99 c6 3b
       0.0019086112 0.024089128 -0.025914041 0.006060726
000060 58 6f e8 bc c0 c0 68 bd db e3 f8 3c 95 7f 00 3d
       -0.028373405 -0.056824446 0.030382087 0.03137167
000070 ff 89 ae 3d 05 d4 57 bc c9 5d 10 3c b8 18 09 3d
       0.085224144 -0.013173108 0.008811423 0.03347084
000080 43 16 b1 3c a4 d0 94 bd 9f 02 0d 3d 6a 68 ec bb
       0.02161706 -0.072663575 0.034426328 -0.0072145956
000090 66 9d ab bd f4 83 d2 3c fc 96 4c 3c 5e 05 ff bc
       -0.08379631 0.025697686 0.012487169 -0.031130489
0000a0 0b 96 15 3d 1c 88 2f 3d a8 0a f1 3c ff 95 95 3d
       0.036520045 0.042854413 0.029424027 0.07304
0000b0 36 7a 0f 3c 46 b1 d2 bd ea 12 f2 3c c3 e8 2f bd
       0.008757165 -0.102877185 0.029550035 -0.04294659
0000c0 a5 8c 89 3d c7 eb ea bc 4f 8a f8 bc de a3 25 bd
       0.06716279 -0.02867688 -0.030339388 -0.04043948
0000d0 8d c4 4a 3d c6 2e 0c 3d 1c 02 88 bd a7 4b 96 bd
       0.04950385 0.034224294 -0.06641027 -0.07338648
0000e0 cb 43 0d 3c 2f 41 65 3d 75 d0 76 bc b9 c0 ca 3c
       0.00862212 0.055970367 -0.0150643485 0.0247501
0000f0 27 aa a6 3c fd f5 52 bd c4 16 f6 3c 53 33 bb bd
       0.020344807 -0.051504124 0.030040152 -0.09140649
000100 c9 e9 c9 bc 0f 0b 5f 3d 77 d5 c7 3d 04 28 6f 3b
       -0.02464761 0.054453906 0.09757512 0.0036492357
000110 ec 03 fb bd f7 2b 67 bc 8d 93 76 3d b0 c1 69 3b
       -0.122566074 -0.014109603 0.06019931 0.0035668425
000120 bf 27 17 bd b2 e8 76 bc a1 d1 4a bd b0 96 05 3a
       -0.03690314 -0.015070127 -0.049516324 0.00050960016
000130 19 8c 12 bd 06 74 0e bc 69 3b 08 bd d8 b9 98 3d
       -0.03577814 -0.008694654 -0.033259783 0.07457322
000140 3d 40 47 3d 41 64 c3 3d 2b 02 76 3d 2f 76 82 bd
       0.048645247 0.09540606 0.06006066 -0.06370198
000150 46 48 a9 3d 16 62 97 3d 43 e7 41 bc 81 ba 1e bd
       0.08265738 0.07391755 -0.011834922 -0.038752083
000160 01 a9 54 bc 52 db e1 3d 30 25 bd bc 44 a7 e2 3c
       -0.012979747 0.1102816 -0.023089021 0.02766765
000170 38 5d fa bc 52 19 3f 3c ab a0 a7 3c 33 05 82 b8
       -0.030562028 0.011663752 0.020462355 -6.1998515e-05
000180 94 3a 93 3c d8 77 97 bb f6 43 21 3e 22 df a6 bc
       0.017972268 -0.004622441 0.15748581 -0.02037007
000190 28 7d b0 bc bf 5f ac 3d 6e 7c 8a 3b 22 0c b3 bb
       -0.021544054 0.084166996 0.004226259 -0.005464093
0001a0 37 23 0c 3c ff db 64 3d be 95 be 3c 84 33 0c 3c
       0.008553318 0.055873867 0.023264762 0.008557204
0001b0 1c be a2 bd d8 ea 0a 3d 6f e1 d4 3c dd 36 03 bd
       -0.07946417 0.03391537 0.025986401 -0.032034744
0001c0 16 51 bb bd 37 f0 0b bd bf 3e 5a bd 7f ba f5 bc
       -0.09146325 -0.034164634 -0.053282496 -0.029996155
0001d0 aa 1f bf 3d eb 11 63 bd 68 01 ad ba 96 20 08 3d
       0.09332211 -0.05543701 -0.0013199272 0.0332342
0001e0 27 75 a2 bb 38 29 eb 3d e4 dc 49 3d 68 b0 f6 bc
       -0.0049578133 0.11482471 0.049282923 -0.030113414
0001f0 9a 93 2c 3d 0a 74 ad bd 53 f4 2c bd d3 e0 1e 3d
       0.04213295 -0.08469398 -0.042225193 0.038788628
000200 10 7f 61 bd 6d 32 ea 3c bf cf 56 bd 29 9e 10 bd
       -0.055052817 0.028588498 -0.052444216 -0.035307083
000210 38 4b a9 3d e2 ea 84 3c 77 84 14 bd 86 91 57 bc
       0.082663 0.016225282 -0.03625914 -0.013157254
000220 b3 5c 12 bb b5 39 42 bb e8 ad 2c be d5 e9 53 bd
       -0.0022333085 -0.0029636447 -0.16863215 -0.05173667
000230 fe ee 98 bb 17 87 22 ba a0 66 36 bc a4 26 67 3d
       -0.004667162 -0.00061999395 -0.011132866 0.056433335
000240 79 4b 04 3c 03 6d 5b bd 8a 2e 1f bd 4c 87 99 3c
       0.008074635 -0.05357076 -0.038862742 0.018741272
000250 d5 1e 14 3c 47 ef 88 bc e0 7b 99 bc 6d c7 e0 bc
       0.009040554 -0.016715659 -0.018735826 -0.027438844
000260 4d a4 f0 3c a1 e1 37 bd bc a5 d5 3c 85 c6 e6 bd
       0.02937522 -0.04489291 0.026080005 -0.11268333
000270 8a 38 65 bd fb a1 b7 3d 9f 27 13 3d 55 24 e2 bc
       -0.055962123 0.08966442 0.035926457 -0.027605215
000280 8e e8 3f 3d 0c cd 19 3c 60 b7 e8 3b 77 65 25 bd
       0.04685264 0.009387266 0.007101938 -0.040379968
000290 52 1e 86 3d 67 88 84 bc b0 5f 8a 3c 67 3e 01 3d
       0.06548752 -0.016178323 0.01689133 0.031553652
0002a0 8f b5 b4 3d 08 a1 bf bc e0 1e 58 3d 42 41 23 bd
       0.08823692 -0.023392215 0.05276382 -0.039857157
0002b0 a6 39 09 be 53 af 4c 3d 5c ab 52 bd 2e a0 06 bd
       -0.13400897 0.04997189 -0.051432952 -0.032867603
0002c0 d5 05 09 bb f5 8e b3 3d 3c 24 9c 3c 94 7b 65 bc
       -0.0020908017 0.08767501 0.019060247 -0.014006514
0002d0 f6 34 66 bc 5b 20 b6 3d 8d 98 25 bd a7 89 bb 3c
       -0.014050713 0.0889289 -0.040428687 0.022892786
0002e0 14 4f ba 3c 38 68 04 3d c1 40 03 3c 49 22 68 3d
       0.022742786 0.032325953 0.008011044 0.056673322
0002f0 66 2f 94 3d 4d 62 08 bd f0 7b 8e 3d 47 19 50 bd
       0.07235603 -0.033296872 0.06957233 -0.050805356
000300 ed 6f f9 bd 45 b6 1a 3d 2a 07 7e bd 27 a6 be bd
       -0.12179551 0.037771482 -0.06201855 -0.09309035
000310 1a f5 b8 bd 06 41 65 bd 85 6a 97 bb 41 da 7c 3d
       -0.090311244 -0.055970214 -0.0046208524 0.06173158
000320 65 26 58 bc 56 fd 35 3c 06 de 44 3d 6b df 07 3e
       -0.013192748 0.011107763 0.0480633 0.13268821
000330 46 40 5d bd 28 79 a0 3d 7f 07 56 3c 2c ec ab 3d
       -0.054016374 0.07835609 0.013063311 0.083946556
000340 9f 8a da 3d d1 26 9b bc e0 3e 8c bc 77 c0 52 bd
       0.10670971 -0.018939408 -0.017119825 -0.05145308
000350 3b ea 90 bc 02 24 c5 3c a1 1c 83 bc cd 52 45 3d
       -0.017689815 0.024065021 -0.016004862 0.048174668
000360 f6 c0 88 3c c4 f0 25 3d bb f5 4d bc 74 53 e7 3c
       0.016693573 0.040512815 -0.012570794 0.028238036
000370 fa bc d9 3d 23 99 16 3d 7d e7 36 bd 7a 9e 0d bd
       0.106317475 0.036767136 -0.04465436 -0.034574963
000380 fc 3c c9 bd c7 63 f5 bd 01 98 c3 bc c6 5c d5 bc
       -0.09826085 -0.11981922 -0.023876192 -0.026045214
000390 97 01 4e b8 a2 ec cd 3c 4b 00 4a bc ff 86 8c 3d
       -4.9115708e-05 0.02513725 -0.012329171 0.06861686
0003a0 b5 37 fc 3c fc 94 3e bc 09 7e 62 3d 38 94 90 bc
       0.030788282 -0.0116322 0.055295978 -0.017648801
0003b0 9f 47 c5 3c 86 cc a2 bd 0b ba bc bd d1 d8 38 bd
       0.024082003 -0.07949166 -0.092151724 -0.045128647
0003c0 7f 84 f5 3c fe 41 fc 3b 4f 2e 29 3c d5 28 21 3d
       0.029970406 0.0076982966 0.010325982 0.03934558
0003d0 5c 8d 77 bc 12 fb 5e 3d ae 91 8f 3d 8c 80 cc 3d
       -0.015109386 0.054438658 0.07010208 0.09985456
0003e0 b8 95 f8 bb d3 e9 62 bc 95 fd c9 bc 46 3b 6c bd
       -0.0075862072 -0.013849693 -0.02465705 -0.057673715
0003f0 89 09 44 bc 16 4d 1f 3d fe 42 4f 3d 51 64 ae bd
       -0.011965164 0.038891874 0.050600998 -0.085152276

base_model.model.transformer.h.1.attn.c_attn.lora_B.weight f4 [2304, 8]
000000 8f 90 1a 3c 01 05 44 3b 01 44 4e 3b 32 f7 62 bb
       0.0094338795 0.002991021 0.003147364 -0.0034632203
000010 16 f7 d4 3b 05 ca 92 bc e0 94 3c 3c 9e 59 47 3c
       0.0064991815 -0.017918596 0.011510104 0.0121673625
000020 7b 56 25 3c 6d a5 6d 3c 29 e3 46 3b 43 5c b7 3c
       0.010091419 0.014504773 0.00303478 0.022382861
000030 da c3 f2 bb 65 b6 20 ba d2 96 2e bc ff 54 c4 bb
       -0.007408601 -0.00061306945 -0.010656076 -0.0059915776
000040 9d 46 58 3b 0a e7 22 3b cb 38 5d 3c 6d e9 b7 bb
       0.0033001073 0.0024856948 0.01350231 -0.0056125433
000050 39 5c 63 3c a1 c7 7f bc 59 73 47 3c 46 c5 6c 3c
       0.013876968 -0.01561156 0.012173497 0.0144513305
000060 73 7b d4 3b 69 f2 7a 3a 6d 9e 48 3c ef 3c 38 bb
       0.006484443 0.0009572865 0.012244803 -0.002811249
000070 4f 6f 47 3a 73 56 b2 bc 2c 40 c4 bb 76 23 3e 3c
       0.0007607834 -0.021769738 -0.005989095 0.011605134
000080 f5 e3 ef bb 39 5a 76 bc a0 27 e1 bb 12 28 80 bc
       -0.007320876 -0.015036159 -0.0068711787 -0.015644107
000090 03 35 80 bb b1 ab 44 bb d2 6b e1 bc 70 1b cc bb
       -0.0039125695 -0.0030009563 -0.027517233 -0.0062288567
0000a0 28 e8 ec 3c 05 eb a0 3c d6 56 e5 3c 11 ae 25 3c
       0.028919294 0.019643316 0.027995508 0.010112301
0000b0 57 39 a5 bc 0c e1 3d bc 15 f6 4b 3b c5 53 ef bc
       -0.020168943 -0.0115893 0.0031122018 -0.02921475
0000c0 b7 e2 75 3b b7 4b d5 3b 61 5a 1c bb 8c 88 1a 3c
       0.0037519166 0.00650927 -0.002385758 0.009431969
0000d0 09 ef 04 ba e5 5d 71 3b 08 ee e1 bb 8a 44 f5 b9
       -0.00050710194 0.0036829647 -0.0068948306 -0.00046781107
0000e0 75 16 d7 bb b8 31 66 bc 24 0b 28 bc 6c 22 90 bc
       -0.0065639564 -0.01404994 -0.010256562 -0.017594539
0000f0 47 42 c9 3b fe 7d 90 3b 7c 6f 5b 3a bf a8 4a 3a
       0.006141934 0.0044095507 0.00083707995 0.00077308336
000100 d8 23 d8 ba 6c 23 85 bb 6a 82 41 3b d8 d0 7c bc
       -0.0016490174 -0.0040630605 0.0029527196 -0.015430652
000110 1a ef 67 3a 26 72 74 bb e9 17 3a 3b a3 a9 54 3b
       0.00088475796 -0.0037299483 0.00283956 0.0032449744
000120 73 eb 90 bb 3d 8c e5 bc b1 f8 9c ba ae 39 ac bc
       -0.004422599 -0.028020972 -0.0011975971 -0.021023598
000130 2e a7 90 3c f5 80 b4 bc 72 b7 a8 bc f0 a8 06 3d
       0.017657842 -0.022034148 -0.020595286 0.032875955
000140 77 55 4c bc dc de 1a bc 84 3c 56 bc fc 56 0f bc
       -0.012471548 -0.009452548 -0.0130759515 -0.008748766
000150 30 81 a9 3c 10 39 37 3a 7a 0e f2 bb 48 77 50 bc
       0.020691484 0.0006989399 -0.0073869796 -0.012723751
000160 04 92 61 3c 39 79 0f 3d e3 16 86 3b f6 49 a8 3c
       0.013767723 0.035027716 0.004092084 0.02054308
000170 dd 77 bd bc cc 2e 9f 3c 0e 7d f1 3c 9e bd f9 bc
       -0.023128444 0.019431494 0.029478576 -0.030485924
000180 ec e4 27 bc 94 44 40 bb 85 e6 99 bb 78 91 5e bb
       -0.01024745 -0.002933775 -0.0046966695 -0.0033961218
000190 e5 70 a0 3c c8 a4 ea bc 58 8b f6 bb 68 20 8c 3c
       0.019585082 -0.028643027 -0.0075239353 0.017105296
0001a0 fe dc 8c 3c 29 0b 9d 3c 5d b2 5a 3c 61 04 54 3c
       0.017195221 0.01917036 0.013348189 0.012940497
0001b0 a1 d7 00 bd d6 4f 55 3c e5 7e 8c ba bf 57 76 bc
       -0.03145564 0.013019523 -0.001071897 -0.015035569
0001c0 40 36 81 3a 11 93 af bb 6a e5 16 3b c1 3d 25 3b
       0.0009858087 -0.005358108 0.0023024925 0.002521381
0001d0 16 ee 1d 3c fa 6c 19 bc 95 a4 0b 3c 85 ec 86 3c
       0.009639284 -0.009364361 0.008523126 0.016470203
0001e0 24 ef e5 3b 12 7c 54 3c 99 68 49 39 e1 63 4f 3c
       0.007017033 0.012969034 0.0001920782 0.01265809
0001f0 11 dd c2 bc 70 32 01 bb 09 05 a1 bc 1f 3c c9 bc
       -0.023787053 -0.00197139 -0.019655721 -0.0245648
000200 be a0 5f bb b4 7a 17 3c cd 58 af bb fe 44 b3 3b
       -0.003412291 0.009245563 -0.005351162 0.005470871
000210 65 3d 02 bc 94 9a 56 3c dd 0a 59 ba 8a b8 a7 bc
       -0.007949208 0.013098378 -0.0008279512 -0.020473737
000220 0a 06 7c bb c4 eb 8d 3a d2 7f 33 bb ef 57 db b9
       -0.0038455748 0.001082771 -0.002738942 -0.0004183645
000230 32 33 b3 bb 94 e9 72 3b f9 19 c4 bb 18 4d 53 3a
       -0.0054687494 0.0037065493 -0.0059845415 0.0008060499
000240 65 e2 40 3c a9 f6 b8 3b 23 57 4c 3c 47 d0 57 3c
       0.011772727 0.0056446386 0.012471947 0.013172216
000250 87 91 8e bc 56 05 03 bc 2e 18 c0 b7 d7 3a a1 bc
       -0.017403377 -0.007996878 -2.2899443e-05 -0.019681377
000260 45 22 f4 bb 82 5c 84 bc c7 61 3d bc 22 b5 d0 bc
       -0.0074503743 -0.016157392 -0.0115589565 -0.025476996
000270 d5 a3 97 3c d3 61 84 bc 4b a9 4a bd 6c c2 75 3c
       0.018510738 -0.016159927 -0.049477857 0.014999967
000280 9f 2a 36 bc 03 b5 2f bc c6 43 48 bc d7 2e 51 bc
       -0.01111856 -0.010724309 -0.01222319 -0.012767515
000290 ee bd be 3b 38 0f de 3c 28 ed 9f bc 44 66 7e 3a
       0.005820981 0.027106866 -0.019522265 0.000970457
0002a0 9a d8 d5 3b 31 90 2c 3a 63 18 98 3b 2e 09 99 3b
       0.006526065 0.00065827655 0.004641579 0.0046702838
0002b0 7a c3 38 3c e2 a4 e5 bc 6e 73 c1 3b e9 8e 7f 3c
       0.011277074 -0.028032724 0.005903653 0.015598037
0002c0 d5 2f 70 bb df 53 65 3a cb 38 39 39 40 eb 86 3b
       -0.0036649604 0.00087481545 0.00017664132 0.0041173995
0002d0 6a 4b 04 3c b5 d5 d5 bb 26 60 07 3c b5 d9 f8 3b
       0.008074621 -0.00652572 0.00826267 0.007594312
0002e0 34 20 29 bc da 8a 6d bc 9e 25 ff bb 69 ec 70 bc
       -0.010322619 -0.014498437 -0.0077864667 -0.014704802
0002f0 21 38 eb 3b a3 93 22 3b 16 7b 05 bb be 1e 51 3b
       0.007178322 0.0024807237 -0.0020367554 0.0031909193
000300 d3 c7 75 3b 30 61 b9 bb 77 f5 98 3b 07 c4 ab bb
       0.0037503138 -0.0056573376 0.0046679336 -0.005241874
000310 35 29 2d 3c 0e 38 1e bb 2a e9 ad 3c 56 25 42 3c
       0.010568907 -0.0024142298 0.021229345 0.011849722
000320 b4 46 54 3c e4 eb c7 3c 0d 0e 72 3c f3 b6 2a 3c
       0.01295631 0.024404474 0.014773858 0.010419595
000330 7d e8 07 3a 1d 23 53 bc 37 41 69 3c f5 da 6c bb
       0.0005184485 -0.01288679 0.01423674 -0.003614125
000340 3d b3 5b bc 7c 9b 13 bd 13 fb 9c ba 2f 77 c8 bc
       -0.013409433 -0.036036953 -0.0011976681 -0.024470894
000350 c5 7e d9 3c 0b b0 67 3b 5c b4 da bb 0d 41 bc 3c
       0.026549706 0.0035352733 -0.0066743325 0.022980237
000360 af 42 af 39 b9 00 67 3c 6b e6 e2 bb a6 61 67 3c
       0.00033428284 0.014099293 -0.0069244406 0.014122402
000370 f7 af 6e bc a5 4c 31 3c 72 c7 01 bc cc f2 ab bc
       -0.0145683205 0.010821496 -0.007921087 -0.020989798
000380 f6 4e b0 bb 2d 9a 84 ba 91 1b d2 38 83 00 66 bc
       -0.0053805066 -0.0010116749 0.00010018715 -0.014038208
000390 62 1c 5b bc bb b1 05 ba d6 c9 78 bc 3c 48 af ba
       -0.013373466 -0.0005100031 -0.01518484 -0.0013372968
0003a0 96 4d 8d 3a 4d 56 6a 3c 26 53 a4 3b 75 98 40 3c
       0.0010780569 0.014302802 0.005014795 0.011755099
0003b0 1b 32 3b bc 52 84 15 3c 0e 8d 87 bc 5a 3a b6 bc
       -0.01142552 0.009125786 -0.016546752 -0.022244621
0003c0 4c 66 4d 3c 13 7c 88 3c fe ce 3b 3c bb cd d6 3b
       0.0125365965 0.016660726 0.011462925 0.0065552867
0003d0 bf 45 18 bc c5 a8 a3 ba 36 c2 c7 3c 7e 59 59 bb
       -0.0092939725 -0.001248621 0.0243846 -0.0033164914
0003e0 42 65 6e bc 5d 08 84 3b ef ab 77 bc 4d e3 93 3c
       -0.014550509 0.0040293173 -0.015116676 0.018052721
0003f0 ac 1b 9d bc 50 35 11 3c 3e 0f 2f 3b 7b ae 36 bc
       -0.019178234 0.008862808 0.0026711966 -0.011149998

base_model.model.transformer.h.2.attn.c_attn.lora_A.weight f4 [8, 768]
000000 9d ce 3f be 20 91 f3 bc a5 3c a1 bc d5 c2 6f 3c
       -0.1873116 -0.029732287 -0.019682238 0.014633854
000010 48 13 90 bd 8a ea 1b be 51 e5 93 bd 28 18 37 3d
       -0.070349276 -0.15226188 -0.07221473 0.04470077
000020 8d e2 c5 bd 6d 14 bf ba 89 5f c4 3d 8c 35 15 3d
       -0.09662352 -0.0014578231 0.095885344 0.03642802
000030 53 d7 4d 3e 7a 19 96 bd 5b 68 1b be d3 7c 90 3c
       0.20101671 -0.07329078 -0.15176527 0.017637646
000040 c1 38 85 3b 62 22 30 be 22 5c a3 3d 80 07 cd 3c
       0.0040656035 -0.17200616 0.07976557 0.02502799
000050 fb c0 cb 3d ee 0c a9 3d 46 a7 5a ba 97 18 bc 3d
       0.099489175 0.08254419 -0.0008340966 0.09184378
000060 88 e1 e9 3d 87 82 3d bc c1 80 84 3c e4 b7 ca 3d
       0.1141997 -0.011566765 0.016174676 0.098983556
000070 dd 53 ac bc 5d 04 ac bd 43 97 13 be c7 57 ce bb
       -0.021036083 -0.0839927 -0.1441317 -0.006297085
000080 b4 f3 21 3c e9 b3 d7 bd 5d f7 92 3d 29 59 01 3e
       0.0098847635 -0.10532362 0.07176087 0.12631668
000090 84 41 50 bd 45 ff 80 bd 56 82 34 bd 4d b7 6f bc
       -0.05084373 -0.06298689 -0.04406961 -0.014631105
0000a0 f2 e4 be bd f5 00 d3 3d 64 09 87 3d c4 4e a6 3c
       -0.093210116 0.10302917 0.06593588 0.02030123
0000b0 7d 91 e8 3d cb 1c 56 bd d9 bf 97 bd f5 21 29 3d
       0.11355875 -0.052273553 -0.07409639 0.04129215
0000c0 1f c2 0d bd 1f 9c b0 3c a8 8a 18 3d 84 10 39 3d
       -0.034608956 0.02155882 0.037241608 0.045181766
0000d0 d7 33 b8 bc 91 2a bb 3c 8c 47 f0 3d bf f8 d9 3d
       -0.022485657 0.022847446 0.117323965 0.10643148
0000e0 0c 72 c9 bb fd a4 03 3d e3 73 df bd 4a 67 d7 bc
       -0.0061476287 0.032139767 -0.109107755 -0.02629437
0000f0 bb 0f 25 bd b9 c4 87 be 6e 58 a4 bc b4 d5 66 be
       -0.040298205 -0.26517275 -0.020061698 -0.22542459
000100 3a 4f 7d 3c f6 2f f5 3c 0b 34 61 3d 4d 74 cf 3d
       0.015460784 0.029930096 0.054981273 0.101296045
000110 c2 0c aa 3a 4c fe 20 bd 33 60 0f 3e 82 21 5f bd
       0.0012973773 -0.039305016 0.14001541 -0.054475315
000120 36 57 dc 3b 40 a0 ae bd ee d6 65 bb ad b9 00 bc
       0.0067242635 -0.08526659 -0.0035070735 -0.007856769
000130 16 2e b5 3c 7c 0b 4d bd cf e4 2e be 77 00 40 3e
       0.022116702 -0.05005978 -0.17079471 0.18750177
000140 14 c5 be 3d 43 19 b8 3b e7 5a 91 3d ce c8 08 be
       0.093149334 0.005618246 0.07097416 -0.13357851
000150 98 bd 30 3d d6 59 ba bb d3 3b d8 3c 58 49 8d bb
       0.04314956 -0.005686979 0.026395714 -0.004311722
000160 f2 56 de 3c 24 70 0f 3e e2 33 da bc 42 75 53 3b
       0.027141068 0.14007622 -0.026636068 0.0032265936
000170 9a 1e fc bc d4 ce 45 bd f9 81 78 bc 3a 4e 71 3d
       -0.03077631 -0.04829295 -0.015167707 0.058912493
000180 e2 37 f9 bd 26 48 93 3d d2 78 05 bc 99 b7 83 bc
       -0.12168862 0.071914956 -0.008146482 -0.016078757
000190 93 08 93 3d 15 93 85 3b 77 86 29 3e 49 6a 0e 3c
       0.0717937 0.0040763714 0.165552 0.008692333
0001a0 d6 04 ed 3c 6d dd 6e 3d f2 56 88 bc 5d 75 5b 3d
       0.02893297 0.058316637 -0.016643021 0.053578723
0001b0 06 01 bb bc 93 26 9f bd 76 bf 27 3e 97 c9 a5 3d
       -0.022827636 -0.07771029 0.1638163 0.08095091
0001c0 3a 47 e3 bd 47 48 0e 3e 87 33 0a 3e 56 94 aa bd
       -0.1109757 0.13894759 0.13496219 -0.08329074
0001d0 d4 31 e9 bc be 8a 9a 3c 13 61 e6 bc 7e ec 86 3d
       -0.028466143 0.018864986 -0.02812246 0.06588076
0001e0 3f d8 ad bd a2 c0 bd 3d ea 70 97 3d 37 ca 91 3c
       -0.08488511 0.092652574 0.073945835 0.017796619
0001f0 1d 28 e4 3c bd a7 69 3c 04 49 cd ba 19 6c d6 bc
       0.027851159 0.014261183 -0.0015662019 -0.026174592
000200 a4 3a 3d 3d 65 dc 59 bd 4c 17 a1 bd ca 03 12 3e
       0.046198502 -0.0531887 -0.07865772 0.14259258
000210 ec f1 97 bd a7 df bc 3d 0a f0 5e bd f5 90 5a bd
       -0.0741919 0.09222346 -0.054428138 -0.053360898
000220 22 84 12 bd 24 46 47 bd 68 ae f1 3b 7d 02 41 3d
       -0.035770543 -0.048650876 0.007375527 0.047121514
000230 68 28 f1 bd a4 e9 6a bd 02 ec e8 39 50 d5 ac 3d
       -0.11775285 -0.057351723 0.00044426328 0.08439124
000240 8f ed 55 bd 56 0f 7a bd ac 44 4e 3d 35 ee 8e 3d
       -0.052228507 -0.06104978 0.05035846 0.06979028
000250 af 61 b8 bd cc 0f ee 3d ff dd ef bd 8b dc 61 bd
       -0.09003007 0.11624107 -0.11712264 -0.055141967
000260 b4 ee 07 3d b5 c0 55 3d 4d 84 f0 3d eb bb 1c bc
       0.03318663 0.052185733 0.11743984 -0.0095662875
000270 26 1e ec 3c 13 aa 9b 3d 59 87 4a 3d 2e f0 2f bd
       0.02882297 0.076007985 0.049445484 -0.042953663
000280 8d 20 88 bd d2 79 23 be 8b a4 8e 3d 14 bf 58 3d
       -0.066468336 -0.1596444 0.06964978 0.0529166
000290 f5 d2 b3 3a f3 46 6b 3d 87 25 f6 bb 2e 15 3a bd
       0.0013719486 0.05744071 -0.007511798 -0.045430355
0002a0 b1 4d 16 be c5 a2 19 bd e4 96 d2 3d 81 a8 f3 bc
       -0.14678074 -0.037508745 0.10282686 -0.029743435
0002b0 57 b9 fb bd c2 ab 14 be 37 00 83 3d 53 f8 b3 bd
       -0.1229121 -0.14518645 0.06396525 -0.087875985
0002c0 ce 35 d8 3b 4a 2e 49 bc 98 17 4c 3d 20 93 97 3c
       0.006598211 -0.012279103 0.04982719 0.018502772
0002d0 17 6e 0d 3e b7 50 83 3c 14 f4 09 3e 7a 6a a8 bd
       0.13811527 0.016029699 0.13472015 -0.08223434
0002e0 64 d8 c1 ba dd 10 0a 3c a0 ab 27 be 9a 5d 8c bd
       -0.0014789221 0.008426872 -0.16374063 -0.068537906
0002f0 01 04 1c be 42 77 fb 3d f0 85 1d bb de 00 14 3e
       -0.15235902 0.12278606 -0.0024036132 0.14453456
000300 a6 c0 60 bd e9 70 56 bd 9f 52 9e 3d e2 0b fe 3c
       -0.054871224 -0.052353773 0.077306025 0.031011526
000310 52 9e af bd 4e ce 8e bd ea 8d 3f 3d 83 00 2d 3d
       -0.08575119 -0.06972943 0.0467662 0.042236816
000320 c6 18 b3 bc 92 6b 6a 3d ff 2b 6a be 4e 90 18 3e
       -0.021862399 0.057231493 -0.22868346 0.14898798
000330 f5 60 62 3c a8 cb f7 3c e8 c8 18 bd dd 82 57 3e
       0.013817062 0.030248478 -0.037300974 0.21046014
000340 e7 08 e1 3d aa 4a 02 3e 09 1b e0 bc 20 90 af bd
       0.10988026 0.12723795 -0.027356641 -0.085724115
000350 1c e0 a6 3d 26 e7 8c 3d 1c 0f 2f be 17 6e 10 3c
       0.08148214 0.068800256 -0.17095608 0.00881531
000360 db 05 08 bd bc 01 68 bc 34 c0 5b bd 7b d7 48 3c
       -0.03320871 -0.01416057 -0.053650096 0.012258406
000370 ce 06 cb 3d 22 17 99 3d e5 ab b0 bc 94 36 9a bd
       0.09913407 0.07475115 -0.02156634 -0.07529941
000380 ae a0 05 bd 9d fc 0b bd 53 95 19 bd 5a 80 b2 bd
       -0.03262394 -0.034176458 -0.037495922 -0.08715887
000390 04 90 86 3b e8 96 db bd 1c 72 94 3d e5 d0 1a bc
       0.0041065235 -0.107221425 0.07248327 -0.009449218
0003a0 12 60 c7 3d b3 9b e8 bc ad f0 68 3d 23 0d 6d bc
       0.09735121 -0.028394556 0.05687015 -0.014468464
0003b0 f3 88 3e 3d 6d 04 7d bd 49 30 4e 3c 63 ef dc 3c
       0.046517324 -0.0617718 0.012584754 0.026969617
0003c0 b3 ea 46 3e 08 b0 ec bd f2 e5 07 bd 0c 6c 4c 3d
       0.19425468 -0.11557013 -0.033178277 0.04990773
0003d0 9a 68 59 bc f7 28 91 bd c1 d7 fd bc e6 64 c0 bd
       -0.013269568 -0.070878915 -0.030986669 -0.09394245
0003e0 f0 27 2c 3a 50 07 66 bd 08 d7 19 bd a2 94 a2 3d
       0.00065672304 -0.056159317 -0.037558585 0.07938506
0003f0 bb 63 e4 bd b3 a3 d5 bd a4 96 08 3d 2c b6 82 3d
       -0.111518346 -0.10431614 0.033346787 0.06382403

base_model.model.transformer.h.2.attn.c_attn.lora_B.weight f4 [2304, 8]
000000 1e e9 51 bc f5 fa 51 bb eb aa ea 39 e8 89 8e bc
       -0.012811927 -0.0032040451 0.00044759302 -0.017399743
000010 21 b7 13 bc b5 4e bd bc 85 3c a4 bc ab f3 c3 3c
       -0.009015829 -0.02310882 -0.02004839 0.0239199
000020 92 1e 1c 3b 18 ff df 3b e6 0d 8e bc 49 4b 17 3c
       0.0023821932 0.0068358295 -0.017340612 0.009234258
000030 a2 af 9c 3b d7 16 32 3d 31 6e c0 3b 00 27 c3 ba
       0.0047816793 0.043478813 0.005872511 -0.0014888942
000040 82 2c 04 3d 8b a2 9c 3c 16 d5 8e 3b 6b 48 b3 bb
       0.03226901 0.019120475 0.004358898 -0.0054712794
000050 8c 24 97 3c a7 b8 61 3d dd 90 3d 3c 0b 31 36 3d
       0.018450044 0.05510774 0.011570183 0.044480365
000060 56 72 b4 3c 48 d1 21 3c bb 96 82 bc 92 4d d8 3c
       0.022027176 0.009876557 -0.015941015 0.026404176
000070 99 e5 c0 bc 1a 3c 88 3b 59 9a ac bc 12 6d ff 3b
       -0.02354698 0.0041575553 -0.021069692 0.0077949846
000080 1c ca 46 3a 3b e1 dc 3c 06 48 8a bc 7e 07 68 ba
       0.0007583217 0.026962867 -0.016880047 -0.0008851214
000090 d4 ab 39 bc a2 c1 f2 3c 18 30 4b bb 5e 40 af 3c
       -0.011332471 0.029633347 -0.0031004008 0.021392997
0000a0 5b 4c cb 3c d3 a3 b6 3c 2d 82 80 3c c1 c4 56 bc
       0.024816683 0.022294914 0.015687073 -0.013108433
0000b0 4d 53 39 bc 35 2e a7 b9 6e 62 68 3b 5f 09 ec 3b
       -0.011311364 -0.0003188715 0.003545906 0.0072032656
0000c0 3c b8 a3 3c 53 63 92 bb 48 f0 d8 ba 29 1a 6b 3c
       0.01998531 -0.004467407 -0.0016551102 0.014349499
0000d0 10 b6 cd bb d4 98 08 bb 89 cf 8f bc 9a b7 2b bb
       -0.006277807 -0.0020843046 -0.017555015 -0.0026201964
0000e0 2a 46 81 bd 54 82 75 bb bd 9e 07 bd 99 52 df ba
       -0.06312211 -0.0037461715 -0.03311037 -0.0017038166
0000f0 80 56 48 3b 20 29 20 bd 31 51 98 3b 27 bb 47 bc
       0.0030569136 -0.03910172 0.0046483506 -0.012190617
000100 54 44 67 bc 9c d8 d6 bb e7 2c 66 bc cb 0f c8 bb
       -0.014115412 -0.0065565836 -0.0140487915 -0.0061053983
000110 e6 f9 e2 3a 01 03 42 3c d2 d4 97 bb 15 4e 1f bc
       0.0017316907 0.0118415365 -0.0046335245 -0.009723206
000120 f9 f6 65 3c 54 41 c1 3c f0 a8 bf bb 2a bb 64 3c
       0.014035934 0.023590721 -0.0058489963 0.013960639
000130 7a b2 a7 bc b8 76 6f 3c 4c bf 84 bc 58 75 60 3c
       -0.020470846 0.014615707 -0.016204499 0.013699852
000140 4d 93 0d 3c d9 d2 b0 3b ee 58 41 3c 83 f3 24 3d
       0.008641076 0.0053962287 0.011800988 0.040271293
000150 ad 13 2f bd e1 34 98 3c e1 d0 1a bd a1 a9 1d 3c
       -0.042743374 0.018579902 -0.03779686 0.009622962
000160 63 6c 23 3c 3f a4 c6 3c d4 9a cd 3b 97 5f 89 3b
       0.009974572 0.02424824 0.0062745605 0.0041923034
000170 89 1c ab bb 50 72 0b 3b 8c 1d c4 bb 46 14 c2 3b
       -0.0052219075 0.0021277852 -0.0059849676 0.005922827
000180 f2 4c 89 3c e4 be 32 3c 02 11 cd 3b b9 8e 7d 3c
       0.016760323 0.01090977 0.006258131 0.015475922
000190 2c c6 4f 3c 4a d3 2c 3d 5a 34 3e 3c 01 f6 d2 3a
       0.012681525 0.04219369 0.011609161 0.0016095043
0001a0 bc 2a 01 3b 91 c8 ad 3c 40 bc dd bc 95 5c db b8
       0.001970931 0.021213802 -0.027067304 -0.000104599785
0001b0 0c 22 6f bc 96 aa b4 bc 77 12 27 bc fa 94 02 3c
       -0.01459552 -0.022053998 -0.010197273 0.007970089
0001c0 7d b9 9b bc 5c 0a b7 ba 73 aa 75 3c 2f 2a 8f bc
       -0.019009346 -0.0013964879 0.014994252 -0.01747617
0001d0 a3 70 9f 3b 8f 45 99 bc ee da 64 3b 4d 15 52 bc
       0.0048657223 -0.018709926 0.0034920531 -0.012822461
0001e0 ae 86 f4 bc 3a ec b6 bc 88 b1 7d bc 12 dc 82 3c
       -0.029849377 -0.022329438 -0.015484221 0.015974078
0001f0 bb 23 6f bc 4e 55 1f bd 34 64 9e bc 23 93 0b bd
       -0.014595921 -0.038899712 -0.01933489 -0.034075867
000200 08 d8 db bc 67 9b 88 bc 56 ec 3e bb f0 a3 5a 3c
       -0.02683641 -0.016675664 -0.0029132566 0.01334475
000210 69 06 6a 3c 02 9d 2c 3c 53 f4 9b 3c f8 c4 cb bc
       0.014283755 0.01053548 0.019037401 -0.024874195
000220 19 21 1b bd af b4 2f bb ea 0f 62 3c 05 90 57 bd
       -0.03787336 -0.0026810577 0.0137977395 -0.052627582
000230 a8 f7 75 3d 28 21 b4 bc 61 3e 34 3d c3 69 ce 3b
       0.060050637 -0.021988466 0.0440048 0.006299229
000240 d1 8b fe 3b 97 f7 66 3c 16 b6 06 bc a4 a3 c4 bc
       0.0077681323 0.014097116 -0.008222124 -0.024003811
000250 e6 06 2a bc b7 4f a0 bc 06 25 bf bc d8 95 e8 3a
       -0.010377621 -0.019569261 -0.023333084 0.0017744852
000260 1d 32 9f 3a 16 fb 36 3c 43 83 df 3a 91 d9 0d bb
       0.0012145672 0.011168262 0.0017052669 -0.0021644572
000270 3f 72 cb 3b d5 91 2e bc 11 81 35 3c e2 8c 0f 3c
       0.0062086876 -0.010654886 0.011078135 0.008761616
000280 d5 09 ac 3c 22 49 93 bb 4e ee 39 bc 06 f8 63 3b
       0.021000782 -0.004494802 -0.01134832 0.0034785285
000290 f3 86 c0 3b 1c f3 cc bb 5c cb 18 3b 20 a9 55 bc
       0.005875462 -0.006254567 0.002331457 -0.013040811
0002a0 6c 33 16 bc 79 3d 83 bc f9 f0 39 3a f7 e3 a7 3c
       -0.009167533 -0.016020523 0.00070930977 0.020494444
0002b0 69 c7 0a 3c f0 dc fa 3b 30 d4 b8 3a 3a b8 bf bc
       0.008470395 0.0076557323 0.0014101323 -0.023403276
0002c0 fd f8 5d 3b 88 d5 ab bb 27 1e 44 3b 52 39 89 bb
       0.0033870332 -0.005243961 0.0029925199 -0.0041877413
0002d0 30 51 0c 3c dc b4 10 3c 8a bc 5e 3c a6 46 36 bb
       0.0085642785 0.008832183 0.013594756 -0.0027813106
0002e0 ba 04 18 bd 1d 15 46 bd 21 2e 29 bd e5 b7 58 3d
       -0.037113883 -0.04835998 -0.041303758 0.05290975
0002f0 52 c9 73 bc ca 95 af bc 69 31 ba bc 24 a2 bf bc
       -0.0148795415 -0.02143373 -0.022728639 -0.023392744
000300 fc 25 cd 3c 2c a4 9b 3c 47 81 f3 3b ee 2f 80 bc
       0.025042526 0.018999182 0.0074311825 -0.015647855
000310 e6 c2 a5 3a c6 40 c5 3c 0a ee 95 3a 5f fe 11 3d
       0.0012646585 0.024078738 0.0011438739 0.035642978
000320 fa bc 8a bb 1e 40 6a bc b0 d4 0a 3b 54 bf 1f bc
       -0.0042339535 -0.014297513 0.00211839 -0.009750206
000330 53 aa 24 bc d9 ad 9f bc a5 3e 4a bc e3 b5 cc bc
       -0.010050374 -0.019492077 -0.012344037 -0.024989074
000340 37 34 fe bb 4e 6b 0e 3b 0f 33 20 bc e6 33 d0 bc
       -0.0077576893 0.002173144 -0.009777798 -0.025415372
000350 be 9c a3 bc bf be 52 ba 61 9f bb bc 8a 21 a9 bb
       -0.019972201 -0.00080392876 -0.022903146 -0.005161469
000360 0c 44 10 3c 73 03 5a 3b 5a 2f 80 3c f6 04 59 3c
       0.008805286 0.0033266216 0.015647579 0.013245812
000370 3b ce e8 3b e0 c7 9b 3c 3c 64 32 3b 2b 96 3c 3c
       0.0071046627 0.019016206 0.002722039 0.011510412
000380 0e dc 9d 3c 9d 11 1b 3d a5 24 69 3c da ce 7d bc
       0.01926997 0.037858594 0.014229928 -0.015491212
000390 96 34 1e 3c 3c eb 8b 3c 64 85 fa 3b 51 f9 fa 39
       0.009656092 0.017079942 0.007645296 0.0004786947
0003a0 a7 73 0e bd 58 b8 aa bc fd c8 00 bd 8d d3 6a 3b
       -0.034778263 -0.020839855 -0.031441677 0.003583166
0003b0 f1 fb 8f bb a7 17 b0 bc 5a 7e 8c ba aa 95 3a bc
       -0.0043940474 -0.021495653 -0.0010718808 -0.011388222
0003c0 84 58 ba 3c da 3d 35 3c 27 0a 2b bc f5 03 71 3c
       0.022747286 0.01106211 -0.010439432 0.014710416
0003d0 75 db 79 bc 2d e9 4f 3c e8 dc 86 bc 9b 90 07 bc
       -0.015250077 0.012689871 -0.016462758 -0.008274223
0003e0 4e a1 c2 bb db d3 e8 bb 81 a8 80 3c c0 9b 49 ba
       -0.005939639 -0.0071053333 0.015705349 -0.000769075
0003f0 b5 02 47 ba 5d ef 10 bd 2c 81 b3 3a ed af d7 bc
       -0.0007591651 -0.035384525 0.0013695112 -0.026329005
