models/amz_movie_tv_distilgpt2/adapter_model.bin (torch, 594133 bytes, 12 tensors)

base_model.model.transformer.h.0.attn.c_attn.lora_A.weight f4 [8, 768]
0.013607335 0.0076735 -0.032727107 0.008369213 -0.029034337 -0.00041652098 0.026047453 0.01701787
-0.029084278 0.024536213 -0.023902569 0.014677742 0.009789934 -0.023713809 0.027592782 0.035975926
0.02490169 0.034558702 0.007779343 0.0010784401 0.0037368378 0.008914125 0.0055460143 0.006459472
-0.027192691 0.0353282 -0.016010376 -0.004764901 -0.0024939 0.015130154 0.024178328 0.011814956
-0.0024274369 -0.01738951 -0.0017414384 0.022961691 0.0017240071 0.012664217 0.027681455 0.021348717
-0.022508029 -0.0038262038 0.021571783 0.0039315023 0.0039647124 -0.03421896 0.015255845 0.0023679954
0.0057958686 -0.01423049 -0.00015797315 -0.0022453368 0.027184568 0.0053292615 -0.00070747465 0.03167314
-0.03021173 0.0012034882 0.024753239 0.0116276285 -0.004011586 -0.0047197854 0.013976388 -0.0020837435
0.030914666 0.011247222 -0.018040463 -0.019442003 0.026757807 -0.003489862 0.0063071055 -0.0014148947
0.02529829 0.023054399 0.018163899 0.010634946 0.028088627 -0.009984859 -0.023740232 0.010296468
0.026468439 -0.030293452 -0.028444823 -0.011853179 0.034938857 -0.028184853 -0.028530907 0.008086351
-0.01245688 0.032507636 0.00177472 0.0041263136 -0.002641205 -0.0036526984 -0.02211817 0.0021780839
0.03234889 0.025471736 -0.0016541335 0.0057231644 0.017775021 -0.016970437 0.009371836 -0.0061342595
-0.0142985275 -0.014190548 -0.020316053 -0.023972075 -0.016644008 0.023575261 -0.016007293 -0.006291597
0.031066464 0.022101387 0.007015976 -0.023453152 -0.004690193 0.034112114 -0.013582353 0.0009694129
-0.030581001 0.014194433 0.015895002 0.033243407 -0.0045484 -0.0014683225 -0.032131597 -0.0309548
-0.0061327056 0.015601138 0.01719626 -0.014932197 -0.00038044993 0.018241715 -0.02090301 0.02531658
0.00014994736 0.02938138 -0.004996937 -0.0018069877 0.0003369346 -0.006216849 0.008974185 -0.028980415
0.0028699222 0.024353486 -0.01674848 0.033800844 -2.9843173e-05 0.006693385 0.009944441 -0.023164367
-0.00011183986 -0.012088755 0.018312182 0.00782553 -0.01096983 -0.02477887 0.029616958 -0.027045755
0.029632272 0.018345632 0.02201136 -0.004886769 0.019081868 0.00905932 0.018333305 -0.0021318935
0.01658132 -0.011514993 0.013901266 0.029471911 -0.003535473 -0.033563104 -0.02323404 0.022298899
0.022224996 0.01985507 -0.011200619 0.03229997 0.018619174 -0.034332044 0.035699904 0.027371284
0.0049349614 -0.011454344 0.029518792 -0.031199632 0.024188539 -0.018480347 0.023894934 -0.03189034
-0.0014320991 -0.0070827897 -0.016711764 0.024374729 -0.011446274 0.0065844534 -0.00713117 -0.03419412
0.007210533 0.013411845 -0.005150758 -0.0358133 0.010648988 0.021328747 0.033109624 0.019717319
0.013922865 -0.029995076 0.011935278 -0.01854761 -0.027381554 -0.0155564705 -0.019066058 -0.004813478
-0.027624791 -0.009288599 0.0041255313 -0.03060042 -0.02424583 0.026053105 0.0029283236 -0.0019087989
0.035815053 -0.030229868 -0.020230405 0.0046532685 -0.034717392 -0.0027327137 0.018272493 0.005146997
-0.020914052 0.012436084 -0.02399666 -0.009195787 -0.00796135 0.032046556 0.032509174 -0.017237868
-0.00054970453 0.010329152 -0.023889957 -0.028148621 0.020581946 -0.03338257 -0.016198793 0.00693538
0.011065969 0.028603168 0.036475442 -0.021893509 0.014060075 -0.0046089706 -0.017952703 0.021189405
00000000: 4df1 5e3c fc71 fb3b dc0c 06bd 061f 093c
00000010: 6bd9 edbc 8060 dab9 7861 d53c 0f69 8b3c
00000020: 2742 eebc 2b00 c93c 52cf c3bc e97a 703c
00000030: f665 203c 7643 c2bc 420a e23c 7e5b 133d
00000040: a1fe cb3c 6d8d 0d3d dce9 fe3b 725a 8d3a
00000050: bce5 743b 8d0c 123c 57bb b53b faa9 d33b
00000060: 35c3 debc 4db4 103d 3128 83bc e322 9cbb
00000070: b370 23bb 77e4 773c a111 c63c 8493 413c
00000080: a215 1fbb 7274 8ebc fa40 e4ba 281a bc3c
00000090: 14f8 e13a 937d 4f3c 38c4 e23c 81e3 ae3c
000000a0: c262 b8bc 0cc1 7abb 4fb7 b03c d5d3 803b
000000b0: 6bea 813b 2e29 0cbd a7f3 793c 5f30 1b3b
000000c0: 45eb bd3b 0027 69bc 98a5 25b9 8026 13bb
000000d0: 2cb2 de3c 16a1 ae3b d275 39ba b2bb 013d
000000e0: 977e f7bc 5dbe 9d3a 4ec7 ca3c cf81 3e3c
000000f0: 9f73 83bb 6ea8 9abb 38fd 643c 6a8f 08bb
00000100: c140 fd3c 4546 383c 98c9 93bc d644 9fbc
00000110: 3033 db3c 2bb6 64bb d6ab ce3b fd73 b9ba
00000120: 5c3e cf3c 94dc bc3c 75cc 943c 323e 2e3c
00000130: 1f1a e63c 8997 23bc e07a c2bc 84b2 283c
00000140: 57d4 d83c f929 f8bc 1e05 e9bc d633 42bc
00000150: 0c1c 0f3d ece3 e6bc a6b9 e9bc 9d7c 043c
00000160: f117 4cbc ba26 053d b99d e83a 0736 873b
00000170: 1118 2dbb 1c62 6fbb 2a31 b5bc 2fbe 0e3b
00000180: 4580 043d 1aaa d03c 83cf d8ba 6289 bb3b
00000190: ec9c 913c 9605 8bbc 548c 193c e601 c9bb
000001a0: 5f44 6abc 797f 68bc da6d a6bc 1661 c4bc
000001b0: 0459 88bc e820 c13c ba21 83bc be29 cebb
000001c0: 197f fe3c f80d b53c 46e6 e53b d320 c0bc
000001d0: 31b0 99bb 25b9 0b3d 8488 5ebc 3320 7e3a
000001e0: 0285 fabc c48f 683c 3c36 823c 3d2a 083d
000001f0: bf0a 95bb ba74 c0ba 6c9c 03bd ec94 fdbc
00000200: ddf4 c8bb ea9b 7f3c 2cdf 8c3c 2ca6 74bc
00000210: 2077 c7b9 a66f 953c ca3c abbc b764 cf3c
00000220: 303b 1d39 38b1 f03c 58bd a3bb 72d8 ecba
00000230: 99a6 b039 b6b6 cbbb 7608 133c 5668 edbc
00000240: 4e15 3c3b f680 c73c 1c34 89bc c172 0a3d
00000250: ba57 fab7 2f54 db3b 02ee 223c 33c3 bdbc
00000260: 918b eab8 ea0f 46bc 6e03 963c a736 003c
00000270: cdba 33bc 0ffd cabc 439f f23c 0f8f ddbc
00000280: 61bf f23c 9449 963c 2b51 b43c 3121 a0bb
00000290: 9451 9c3c 8b6d 143c ba2f 963c 3db7 0bbb
000002a0: 8cd5 873c 62a9 3cbc 23c2 633c 146f f13c
000002b0: 65b3 67bb 7779 09bd 5055 bebc 2eac b63c
000002c0: 3211 b63c 1aa7 a23c cd82 37bc f94c 043d
000002d0: 3d87 983c c29f 0cbd 103a 123d be39 e03c
000002e0: 75b5 a13b 00ab 3bbc 65d1 f13c 5f96 ffbc
000002f0: 0b27 c63c 1964 97bc 4fbf c33c 729f 02bd
00000300: 46b5 bbba bf16 e8bb 1ce7 88bc 83ad c73c
00000310: 2789 3bbc 66c2 d73b 97ac e9bb 220f 0cbd
00000320: 5646 ec3b 5bbd 5b3c b1c7 a8bb f8b0 12bd
00000330: 1879 2e3c a0b9 ae3c f59d 073d 3786 a13c
00000340: ba1c 643c 3cb8 f5bc 2f8c 433c 28f1 97bc
00000350: 484f e0bc 91e0 7ebc 6c30 9cbc 61ba 9dbb
00000360: 634d e2bc 352f 18bc 772f 873b bbad fabc
00000370: 319f c6bc 526d d53c 1ee9 3f3b aa30 faba
00000380: ceb2 123d a1a4 f7bc 3cba a5bc 727a 983b
00000390: d333 0ebd 5417 33bb 32b0 953c 24a8 a83b
000003a0: f253 abbc b8c0 4b3c a594 c4bc eda9 16bc
000003b0: 5270 02bc 4043 033d 5728 053d 6e36 8dbc
000003c0: 0c1a 10ba 9b3b 293c dfb4 c3bc f097 e6bc
000003d0: 789b a83c 29bc 08bd 55b3 84bc 2f42 e33b
000003e0: 0a4e 353c 3151 ea3c 4667 153d 045a b3bc
000003f0: 3b5c 663c d906 97bb 8c11 93bc 6795 ad3c

base_model.model.transformer.h.0.attn.c_attn.lora_B.weight f4 [2304, 8]
0.00022993206 -0.0005968184 8.76523e-05 -0.00035337723 0.00060913205 0.00042866636 0.00032871854 0.0008053438
-0.00045315514 0.0004900133 -0.00011850953 0.00027961968 -0.00044617354 -0.000382795 -0.00033422047 -0.0006494603
-0.00046056372 0.00054670643 -0.00078744575 0.000651051 -0.00039524116 0.00018422006 -0.0006089726 -0.0005345298
-2.0627373e-05 0.00019657146 -0.00042445128 0.00052109716 -0.00019147086 0.0006339478 -0.00031919606 -0.00023930043
-6.9929e-05 0.00016348659 -0.00042916846 0.0005133458 -5.3347434e-05 -6.5814354e-05 -0.00019463424 -0.0002135351
0.0004175405 -0.000105475534 -3.0185125e-05 4.9957696e-05 0.00018676158 0.00040916383 -1.688559e-05 8.309287e-05
-1.7740253e-05 -2.5433272e-05 0.00031940214 -0.0002336339 -6.419577e-05 -0.00050612236 4.2850745e-05 1.3920687e-05
9.1510025e-05 -1.7664162e-05 -0.00011719134 0.0003091828 5.0132854e-05 8.446263e-05 -7.945783e-05 -0.0003374589
-0.00013695404 -5.0375744e-05 0.00030687632 -0.00041633277 -6.3702566e-05 -0.0006293696 0.00019139778 9.894449e-05
0.000607497 -0.00050244125 0.00062341336 -0.00051677076 0.00046238318 0.0006569362 0.00051430636 0.00059069775
-0.00015218927 0.00017397809 -0.0003179404 0.0005079337 -0.00020504772 0.0002128467 -0.00031516328 -0.00050650537
-0.0004237579 0.0002385999 4.4238754e-05 -0.00019927934 -0.00030877604 -0.00059721165 6.628441e-05 -0.00018191307
0.00082975917 -2.5375866e-07 0.0009337847 -0.0007301774 0.00041131917 0.00042027465 0.0004821228 -0.00011683201
5.6092566e-05 -0.00010650532 -2.8726083e-05 2.6194928e-05 0.00039789238 0.00018555326 -7.152611e-05 0.00013999458
-2.6344607e-05 -8.656479e-05 0.00036967982 -0.00044399695 -1.2159262e-05 -0.00032011265 0.000267226 0.00024641218
-0.00011537786 -8.8290144e-05 0.00021807685 -0.00045063722 6.0851522e-05 -0.00054065825 0.0002136139 0.00023819624
-0.00045196284 0.00071742904 -0.00030739733 0.00044477638 -0.00051892275 -0.0005025665 -0.0004670035 -0.0006118814
-4.5747776e-05 -0.00015351994 0.0004664271 -0.00045729245 2.7083497e-05 -0.00057262566 0.00028031936 3.5160283e-05
0.0004668571 -5.8505706e-05 0.00014820932 9.67453e-05 0.00013324445 0.00038280792 -4.485203e-05 -9.40477e-05
0.00022950945 0.00019299911 0.0004524734 1.7291646e-05 -0.00018987159 -0.0006444045 0.00011344446 -0.00035356317
0.00012972704 5.5968587e-05 -5.9000682e-05 -0.0001861969 -0.0001746545 0.00041211984 6.11305e-05 0.0001512033
0.0002663296 -0.00011940064 0.000310113 -0.00040359062 0.00016849817 0.0004227097 0.00025194057 0.00027860602
-0.0005226017 -6.312749e-05 7.547224e-05 -0.00022718473 -0.00022861897 -0.0008857535 9.193837e-05 7.4928066e-05
2.3421992e-05 4.9254395e-05 -0.0004348615 0.000476942 2.5472132e-06 0.00051157386 -0.00025323933 -0.000121086945
0.000583938 -0.00026329965 9.473486e-06 3.1067286e-06 0.00032500518 0.0008149322 2.9569776e-05 0.0002121904
-0.0004919317 0.0004767154 -0.0004823017 0.00064077403 -0.0002765134 -0.0005328379 -0.00041722468 -0.0002792604
0.00043345685 0.00011588776 -0.00018343407 0.0002879304 0.00014673613 0.000695416 -1.2496224e-06 5.1928737e-06
-0.00012557775 0.000105475294 -0.0005621019 0.00051915535 -8.611866e-05 0.00038195815 -0.00022822835 -5.9968712e-05
0.0002738598 -0.00013808177 -0.00013015915 0.00011635267 0.00014127849 0.00033788578 -7.026388e-06 0.00010587942
-0.0006802282 5.1895036e-05 -0.00023391673 -3.309137e-05 -0.00027952917 -0.0009120002 -4.9507904e-05 -0.000106304964
-0.00020461487 0.00012043713 0.00017298505 0.00013330276 -0.00014547708 -0.0005696694 -0.00019991426 -0.00024708803
-0.00062250276 9.772012e-05 0.00011014507 -9.2327886e-05 -0.0002841936 -0.00082124583 5.8700174e-05 -2.6046611e-05
00000000: eb19 7139 ce73 1cba f8d1 b738 7d45 b9b9
00000010: 29ae 1f3a a0be e039 db57 ac39 b51d 533a
00000020: 7495 edb9 3c74 003a 5288 f8b8 eb99 9239
00000030: 66ec e9b9 e0b1 c8b9 503a afb9 8b40 2aba
00000040: d177 f1b9 d950 0f3a 976c 4eba 4bab 2a3a
00000050: 5f38 cfb9 322b 4139 76a3 1fba b01f 0cba
00000060: f208 adb7 c01e 4e39 e388 deb9 3d9a 083a
00000070: 91c5 48b9 842f 263a c559 a7b9 b8ec 7ab9
00000080: d9a6 92b8 996d 2b39 0402 e1b9 0e92 063a
00000090: 5fc1 5fb8 d005 8ab8 bb16 4cb9 64e8 5fb9
000000a0: 56e9 da39 bf32 ddb8 1036 fdb7 ab89 5138
000000b0: 6ed5 4339 0a85 d639 87a5 8db7 2542 ae38
000000c0: e7d0 94b7 8959 d5b7 6e75 a739 9ffb 74b9
000000d0: d7a0 86b8 4cad 04ba a3ba 3338 e58c 6937
000000e0: 12e9 bf38 802d 94b7 9fc4 f5b8 d019 a239
000000f0: be45 5238 8721 b138 99a2 a6b8 f8ec b0b9
00000100: 529b 0fb9 8b4a 53b8 3ee4 a039 3d47 dab9
00000110: 0e98 85b8 47fc 24ba f3b1 4839 6b80 cf38
00000120: 6f40 1f3a 43b6 03ba 906c 233a e677 07ba
00000130: 056c f239 3e36 2c3a 84d2 063a 0ed9 1a3a
00000140: ff94 1fb9 e36d 3639 3db1 a6b9 db26 053a
00000150: 1402 57b9 9a2f 5f39 803c a5b9 00c7 04ba
00000160: d32b deb9 ac30 7a39 008d 3938 a4f5 50b9
00000170: 38e3 a1b9 328e 1cba 2c02 8b38 ebbf 3eb9
00000180: 3284 593a 533c 88b4 3bc9 743a 6069 3fba
00000190: 53a6 d739 4f58 dc39 6dc5 fc39 b503 f5b8
000001a0: ef44 6b38 9c5b dfb8 cbf8 f0b7 2ebd db37
000001b0: 369c d039 1391 4239 4a00 96b8 82cb 1239
000001c0: 9dfe dcb7 1e8a b5b8 96d1 c139 43c8 e8b9
000001d0: a2ff 4bb7 cbd4 a7b9 771a 8c39 e230 8139
000001e0: 04f7 f1b8 6928 b9b8 8fab 6439 8143 ecb9
000001f0: d33a 7f38 f6ba 0dba 8bfd 5f39 51c4 7939
00000200: 6df5 ecb9 d911 3c3a 2c2a a1b9 e030 e939
00000210: 5108 08ba abbe 03ba 26d8 f4b9 aa66 20ba
00000220: 4de1 3fb8 32fa 20b9 c98a f439 c1c0 efb9
00000230: 5e31 e337 421c 16ba d4f7 9239 1179 1338
00000240: 80c4 f439 0664 75b8 a368 1b39 bde3 ca38
00000250: 89b7 0b39 9cb3 c839 801f 3cb8 793b c5b8
00000260: 79a8 7039 ce5f 4a39 f439 ed39 870d 9137
00000270: 4418 47b9 41ed 28ba 08e9 ed38 725e b9b9
00000280: 5607 0839 d0bf 6a38 8077 77b8 da3d 43b9
00000290: 7623 37b9 ca11 d839 3033 8038 548c 1e39
000002a0: 27a2 8b39 bb66 fab8 aa96 a239 0499 d3b9
000002b0: e2ae 3039 239f dd39 e416 8439 de11 9239
000002c0: 35ff 08ba 5063 84b8 da46 9e38 7038 6eb9
000002d0: 70b9 6fb9 e931 68ba 09cf c038 b322 9d38
000002e0: 587a c437 8196 4e38 1ffe e3b9 120e fa39
000002f0: caf0 2a36 241b 063a 35c5 84b9 0ff0 fdb8
00000300: 6a13 193a 7b0b 8ab9 50f0 1e37 317d 5036
00000310: 7565 aa39 2da1 553a 9c0c f837 6d7f 5e39
00000320: faf4 00ba a8ef f939 70dd fcb9 9ef9 273a
00000330: 00f9 90b9 25ae 0bba f3be dab9 b269 92b9
00000340: 9841 e339 c408 f338 3558 40b9 5df5 9639
00000350: 2edd 1939 944c 363a b3b8 a7b5 723e ae36
00000360: 85ad 03b9 9e32 dd38 055a 13ba ed17 083a
00000370: 9b9a b4b8 8e41 c839 9550 6fb9 ea86 7bb8
00000380: d794 8f39 0bca 10b9 557b 08b9 5d02 f438
00000390: 2824 1439 4326 b139 37c4 ebb6 950b de38
000003a0: 5751 32ba dfa9 5938 8b47 75b9 97cb 0ab8
000003b0: c58d 92b9 4c13 6fba b5a6 4fb8 0bf0 deb8
000003c0: e38d 56b9 3193 fc38 5263 3539 30c7 0b39
000003d0: 358b 18b9 de55 15ba 13a0 51b9 988b 81b9
000003e0: 742f 23ba 17ef cc38 affd e638 28a0 c1b8
000003f0: d2ff 94b9 e048 57ba d534 7638 ac7e dab7

base_model.model.transformer.h.1.attn.c_attn.lora_A.weight f4 [8, 768]
-0.0026150758 -0.021382535 -0.011849974 0.004920303 -0.018144334 0.016496057 -0.012739283 0.014775196
-0.008204377 -0.014054986 -0.025567157 -0.028046217 -0.01548577 -0.02451131 -0.018847693 0.018125193
-0.008950962 -0.0045321407 -0.013845969 0.014715825 -0.022066267 0.012244976 -0.02838837 0.03270939
-0.03065215 0.032686118 0.016500186 0.0024878038 -0.021400407 -0.016935226 -0.034029182 -0.018562917
0.01288483 0.02834574 -0.0131429555 -0.029933237 0.020046113 -0.005025823 -0.035022337 0.013021958
-0.029068697 0.028597243 0.016550465 -0.006344168 -0.018562293 -0.011780063 -0.0370653 0.010683531
0.023624495 -0.0047315247 -0.012219854 0.0014805621 0.0133291725 -0.028393727 -0.017525079 0.0025849515
0.023319684 -0.0016017389 0.0029088485 -0.0045611714 -0.0048918063 0.002827094 0.01876824 0.018684471
-0.012404951 -0.031592377 -0.03260885 -0.029303377 -0.009283796 0.02336562 0.025364727 -0.0018793424
-0.027449083 0.03700834 0.0013192974 -0.029902745 0.019632872 0.02487311 0.030259833 0.030929338
-0.030037975 -0.007511974 0.02724763 0.030941186 0.002333528 -0.027678555 0.034789655 -0.029647699
0.006068919 0.002017122 -0.033560563 0.017512629 0.022442939 -0.035262134 0.02928095 -0.028985828
-0.029884078 0.013224609 0.034963533 0.021787448 -0.006994008 0.020580629 0.005486912 -0.0187292
0.007719693 0.036352 -0.024618842 0.022422776 -0.016646542 -0.02751455 0.022601902 0.029703269
-0.011507499 0.02118275 -0.03100019 0.034511313 -0.019450098 -0.0015813673 -0.01104564 -0.014813693
0.029773358 0.026283532 0.024094269 -0.022742866 0.0045195185 -0.003950658 0.008585436 0.03257854
0.033485368 -0.029711379 -0.026581394 0.019638566 -0.008443257 0.023873204 0.031211734 0.009286781
-0.012849451 0.016739018 0.0154825 0.0038035235 -0.03570755 0.0050724414 -0.009605662 -0.030672945
-0.027515793 0.034543213 -0.013671901 0.02969103 -0.0010363124 -0.02701569 -0.013711501 -0.016272722
0.0021886255 -0.006345906 0.0072668293 0.011307043 0.010627008 0.0028515642 0.035440087 -0.028961578
0.023113463 0.027505957 -0.01401606 0.016884455 0.0133631835 -0.0070239804 -0.021245116 0.027414529
0.0008905523 0.011754335 0.01637298 -0.016788468 0.015208612 -0.020570528 0.0032136024 -0.013105777
-0.009052259 -0.0065786554 -0.031837877 0.031768013 0.03577633 0.01815501 -0.005151029 0.031279236
0.0066854293 0.022663001 -0.0117999865 -0.02157533 0.013310772 0.027265878 0.030185109 -0.014283991
-0.0039874143 0.0008620532 -0.016609708 -0.026800966 -0.010697652 -0.012901162 0.01932659 -0.029936718
-0.029673237 0.005678599 0.007821789 -0.030941773 -0.02122574 0.0082207415 0.028024025 0.024258522
-0.01422295 0.011014374 -0.02126506 0.0012465596 -0.03315907 0.017306129 -0.00073037745 0.0032744722
0.00800985 -0.03132669 -0.019882176 0.012938036 0.032403905 -0.00072317425 -0.033510298 -0.025403949
0.025704818 -0.020823563 0.025083512 0.013699389 -0.01698426 0.0058486066 0.029711215 0.004588236
0.027698208 -0.025089309 -0.03510097 0.03396385 -0.009685124 0.023062328 0.0138335265 0.009763518
-0.032321014 0.027006723 0.02124826 0.013162557 0.009612769 -0.008883139 0.0097219935 -0.0059505715
0.022887219 -0.026850918 0.01711577 0.03057946 -0.0034261555 -0.02819288 -0.03212878 0.03236342
00000000: b161 2bbb 6d2a afbc 6526 42bc 7e3a a13b
00000010: 6da3 94bc bd22 873c 6db8 50bc aa13 723c
00000020: a76b 06bc e246 66bc 3772 d1bc 2ec1 e5bc
00000030: 07b8 7dbc f1cb c8bc 7a66 9abc 497b 943c
00000040: 0ea7 12bc 5a82 94bb 34da 62bc a51a 713c
00000050: 51c4 b4bc 279f 483c ba8e e8bc 48fa 053d
00000060: 381a fbbc e1e1 053d 662b 873c 6c0a 233b
00000070: e84f afbc bebb 8abc 2f62 0bbd 4211 98bc
00000080: e51a 533c 5335 e83c 8d55 57bc 8c36 f5bc
00000090: bf37 a43c a9af a4bb 9573 0fbd 0d5a 553c
000000a0: 7a21 eebc c444 ea3c d794 873c bde2 cfbb
000000b0: f30f 98bc 2a01 41bc c9d1 17bd fa09 2f3c
000000c0: 2888 c13c e80a 9bbb c835 48bc 6c0f c23a
000000d0: 9a62 5a3c f699 e8bc c190 8fbc 4a68 293b
000000e0: ec08 bf3c 70f1 d1ba 61a2 3e3b e175 95bb
000000f0: 724b a0bb c446 393b dabf 993c 2d10 993c
00000100: 233e 4bbc 0267 01bd dc90 05bd a30d f0bc
00000110: 101b 18bc 4269 bf3c b0c9 cf3c 4454 f6ba
00000120: e6dc e0bc 0f96 173d 46ec ac3a 9af6 f4bc
00000130: 1ed5 a03c b1c2 cb3c 78e3 f73c 865f fd3c
00000140: 3312 f6bc 0127 f6bb 6c36 df3c 5f78 fd3c
00000150: 1aee 183b 23be e2bc 997f 0e3d bbdf f2bc
00000160: c8dd c63b b131 043b cd76 09bd a576 8f3c
00000170: 41da b73c 076f 10bd 9ade ef3c b073 edbc
00000180: 74cf f4bc 08ac 583c ec35 0f3d 977b b23c
00000190: fe2d e5bb b598 a83c 8ecb b33b fb6d 99bc
000001a0: 7af5 fc3b d6e5 143d 74ad c9bc f8af b73c
000001b0: 545e 88bc 3266 e1bc a027 b93c 4554 f33c
000001c0: f389 3cbc 7287 ad3c 1cf4 fdbc bc5b 0d3d
000001d0: d055 9fbc e245 cfba c6f8 34bc 22b5 72bc
000001e0: 42e7 f33c 9050 d73c 5861 c53c 3f4f babc
000001f0: 7818 943b 8574 81bb eea9 0c3c 1371 053d
00000200: f427 093d 4765 f3bc 39c1 d9bc 0fe1 a03c
00000210: 9655 0abc bd91 c33c c0af ff3c 9527 183c
00000220: 8186 52bc 4420 893c 50aa 7d3c 8944 793b
00000230: 1442 12bd b936 a63b 1161 1dbc d445 fbbc
00000240: cd68 e1bc 2f7d 0d3d 1c00 60bc 9a3a f33c
00000250: e0d4 87ba 0250 ddbc 34a6 60bc 5f4e 85bc
00000260: 0b6f 0f3b 51f1 cfbb 951e ee3b 2d41 393c
00000270: e71c 2e3c 4fe1 3a3b a029 113d d540 edbc
00000280: 7258 bd3c 2c54 e13c 9ea3 65bc 4551 8a3c
00000290: 41f1 5a3c 6b29 e6bb 3d0a aebc 6f94 e03c
000002a0: f473 693a 4195 403c a120 863c f887 89bc
000002b0: 8b2d 793c 8683 a8bc 4d9b 523b 9db9 56bc
000002c0: ed4f 14bc c391 d7bb 6f68 02bd 2d1f 023d
000002d0: 338a 123d d1b9 943c f7c9 a8bb a81e 003d
000002e0: 7211 db3b c2a7 b93c bb54 41bc bfbe b0bc
000002f0: 6d15 5a3c b15c df3c c346 f73c 6707 6abc
00000300: dba8 82bb 69fb 613a 1511 88bc b38d dbbc
00000310: 3445 2fbc 655f 53bc cc52 9e3c d93d f5bc
00000320: 4a15 f3bc 8a13 ba3b f626 003c 9a79 fdbc
00000330: 9ae1 adbc 4ab0 063c a492 e53c cfb9 c63c
00000340: 6007 69bc a275 343c 1034 aebc 9963 a33a
00000350: ced1 07bd 95c5 8d3c cd76 3fba 8798 563b
00000360: bf3b 033c 6a50 00bd f2df a2bc 0efa 533c
00000370: f5b9 043d 6793 3dba 1842 09bd f11b d0bc
00000380: e992 d23c 2d96 aabc f07b cd3c 6773 603c
00000390: 9322 8bbc aba5 bf3b ef64 f33c ea58 963b
000003a0: 5ae7 e23c 1888 cdbc 09c6 0fbd ae1d 0b3d
000003b0: 5bae 1ebc 35ed bc3c 04a6 623c 2af7 1f3c
000003c0: 0a63 04bd 343d dd3c d510 ae3c c4a7 573c
000003d0: e07e 1d3c 968a 11bc ff48 1f3c 03fd c2bb
000003e0: fa7d bb3c 75f6 dbbc 5f36 8c3c c781 fa3c
000003f0: 5a89 60bb c1f4 e6bc 7899 03bd 818f 043d

base_model.model.transformer.h.1.attn.c_attn.lora_B.weight f4 [2304, 8]
-0.0004104595 2.3034585e-05 0.00063690776 -0.0009168112 -0.00058826467 -3.976795e-06 0.00027897363 -0.00020334039
-0.00090943836 0.00075575366 -0.0007885182 -0.0009842608 -0.0008703288 0.00077243976 -0.00068093144 -0.00087098376
-8.821638e-05 0.00022515317 -0.0001289884 -0.00015828844 2.3250264e-05 0.00011125054 6.085076e-06 -0.0007624894
-0.00084136956 0.00069418806 -0.00055817474 -0.0009852122 -0.00072253245 0.0005658698 -0.00048049787 -0.0008608109
6.282393e-05 -0.00031221114 0.0006406555 -0.0008461495 -0.00032035523 -0.00047829212 0.00053350726 -0.00010678825
0.0006228656 -0.0006131606 0.0005385383 0.00086423807 0.0007935511 -0.00041640864 0.0002552741 0.0009413303
0.0003390269 -0.00035138696 -0.00045952128 0.00095385395 0.0005885563 9.887102e-05 -0.0003526895 0.0008416328
-0.0005852065 0.00047518258 -0.00064617855 -0.00057379843 -0.00036111494 0.0006008563 -0.0006178337 -0.00028815257
-0.0004106434 0.0003783105 0.00021940633 -0.0009553232 -0.0006054305 2.2274318e-05 0.00024788652 -0.0008716258
-0.00017281849 4.292494e-05 -0.00047768117 0.00061162567 -3.6919104e-05 0.00035503923 -0.0005662004 0.0003770204
0.00022828564 -0.00040609817 0.00025017755 0.00022079497 0.00024890812 -0.00022461601 0.00022252908 0.0007111208
-0.00074847444 0.0006242486 -8.3743136e-05 -0.00096376124 -0.0007675815 0.00049383554 -0.000242884 -0.0008487382
-0.0005546346 0.00020334186 -0.00017911036 -0.0008976633 -0.0007553188 8.509672e-05 5.610294e-05 -0.0008779181
-0.0009849375 0.0007666332 -0.00050401 -0.0010249015 -0.00101515 0.0005899603 -0.00048269366 -0.0009839912
0.00059141475 -0.0005784071 0.0007599052 0.00044193244 0.00020310524 -0.0005091215 0.00045555204 0.00084640144
-0.00033095322 0.00022986715 0.00022402014 -0.0009459361 -0.0005109789 8.1207865e-05 0.00020468472 -0.0008446411
0.0008998358 -0.00075182045 0.0006703887 0.0009921157 0.00091194484 -0.000615341 0.0006887014 0.0009250853
-0.00045779962 0.0005339308 -0.0007739191 -0.00057525304 -0.00035849202 0.00039176887 -0.00044416715 -0.00090439105
0.0004335225 -0.00040649882 0.0008631583 -0.00019925655 0.00011012688 -0.0006041301 0.000629679 1.8637233e-05
-0.00074291276 0.000460756 -0.00046969636 -0.00084674696 -0.00072672695 0.00035356777 -0.0003401165 -0.0008909611
0.00057745987 -0.0003262621 -0.00013674641 0.00097522914 0.000717623 -0.00011845778 -0.00022435868 0.00087820325
-0.00016083955 -0.00025436588 0.00029079439 -0.00016970185 -0.00017056985 -7.444016e-05 9.55445e-05 0.0005752876
0.0007172696 -0.0004022761 0.00040595714 0.0008721739 0.0007424161 -0.00030019195 0.0002713069 0.0008906479
0.0009261947 -0.00069507875 0.00068362727 0.00093087455 0.00092405657 -0.0006405405 0.0006266312 0.00096139516
-2.5546728e-05 0.00019293785 -0.0007049153 0.0006617885 0.00031740512 0.00030574267 -0.0003808387 0.000100300684
-0.0007620374 0.0006049142 -0.0003729097 -0.00091153005 -0.0007968858 0.00058763725 -0.00041464288 -0.00086958735
0.0003985538 -0.00010944208 0.00067694834 0.00062727096 0.00019599021 -0.0003023837 0.0002888554 0.0006169631
-0.00077145634 0.0006265739 -0.00029428076 -0.0010179293 -0.0006914389 0.00037969847 -0.000115578965 -0.00095655164
0.0002601053 -3.180226e-06 0.00056461594 -3.181523e-05 3.7952046e-05 -0.00033374593 0.0003376192 -0.00047335317
0.00023115709 -9.235518e-06 -0.00039817998 0.0004127681 0.00019098901 -0.0001397771 4.7137804e-05 -0.00056839746
4.0487772e-05 -0.00020914429 0.00016423024 0.00030956868 9.881844e-05 -0.00023505403 1.6867137e-06 0.0005393458
-6.1933264e-05 -7.3050585e-05 0.00036977456 0.00011534601 3.378587e-05 0.00011306733 -0.00017369077 0.0005284771
00000000: f132 d7b9 653a c137 28f6 263a 2856 70ba
00000010: c635 1aba 6970 85b6 3543 9239 c537 55b9
00000020: 6067 6eba c51d 463a 90b4 4eba 5002 81ba
00000030: c726 64ba 8e7d 4a3a 8980 32ba bb52 64ba
00000040: cf00 b9b8 1817 6c39 0f41 07b9 3bfa 25b9
00000050: 9009 c337 2e4f e938 682e cc36 cce1 47ba
00000060: 5b8f 5cba 2cfa 353a 7952 12ba 3c22 81ba
00000070: 5568 3dba e156 143a 55eb fbb9 0ba8 61ba
00000080: 57c0 8338 45b0 a3b9 aaf1 273a 22d0 5dba
00000090: 5af5 a7b9 48c3 fab9 11db 0b3a 81f3 dfb8
000000a0: ce47 233a 83bc 20ba b22c 0d3a 098e 623a
000000b0: 5006 503a 6c51 dab9 4fd6 8539 9bc3 763a
000000c0: 6cbf b139 5c3a b8b9 e7eb f0b9 0e0c 7a3a
000000d0: 5849 1a3a fa58 cf38 2fe9 b8b9 05a1 5c3a
000000e0: 8b68 19ba ed21 f939 4f64 29ba f66a 16ba
000000f0: 0754 bdb9 c982 1d3a 1ef6 21ba 2f13 97b9
00000100: a04b d7b9 fa57 c639 7010 6639 a86e 7aba
00000110: c1b5 1eba bcd9 ba37 c4f6 8139 d17d 64ba
00000120: 9c36 35b9 4e0a 3438 4871 fab9 8155 203a
00000130: 96d9 1ab8 8f24 ba39 116d 14ba d2aa c539
00000140: f65f 6f39 93e9 d4b9 432a 8339 3385 6739
00000150: e27f 8239 e786 6bb9 b256 6939 826a 3a3a
00000160: 4535 44ba 9da4 233a 419f afb8 eca4 7cba
00000170: 8637 49ba be74 013a adae 7eb9 db7d 5eba
00000180: e664 11ba 2a38 5539 92cf 3bb9 2a51 6bba
00000190: 9600 46ba f475 b238 1350 6b38 1624 66ba
000001a0: 0519 81ba e2f7 483a 8a1f 04ba fd55 86ba
000001b0: c80e 85ba 91a7 1a3a 0c12 fdb9 44f9 80ba
000001c0: 2c09 1b3a 3ea0 17ba 6034 473a 2bb3 e739
000001d0: a6f8 5439 9176 05ba 29d7 ee39 0ae1 5d3a
000001e0: ca83 adb9 7e08 7139 f3e6 6a39 b2f8 77ba
000001f0: 37f3 05ba 244e aa38 a3a0 5639 e86a 5dba
00000200: f5e2 6b3a d115 45ba 06bd 2f3a e109 823a
00000210: 950f 6f3a d64e 21ba f889 343a 6c81 723a
00000220: d304 f0b9 7df7 0b3a d5e0 4aba 94cc 16ba
00000230: fcf3 bbb9 5466 cd39 1bdf e8b9 a814 6dba
00000240: 684a e339 591f d5b9 9345 623a 86ef 50b9
00000250: ebf3 e638 7c5e 1eba 0b11 253a 2757 9c37
00000260: 08c0 42ba a091 f139 9441 f6b9 3af8 5dba
00000270: d281 3eba 105f b939 aa51 b2b9 638f 69ba
00000280: ad60 173a 280e abb9 9663 0fb9 85a6 7f3a
00000290: dd1e 3c3a 896c f8b8 d341 6bb9 3937 663a
000002a0: 0aa7 28b9 695c 85b9 c375 9839 fef1 31b9
000002b0: ffda 32b9 c21c 9cb8 105f c838 e6ce 163a
000002c0: 2607 3c3a 96e8 d2b9 a5d6 d439 9aa2 643a
000002d0: b39e 423a 1563 9db9 323e 8e39 5e7a 693a
000002e0: e0cb 723a f235 36ba 7335 333a ef05 743a
000002f0: 633c 723a f2e9 27ba 8244 243a 2306 7c3a
00000300: 2e4d d6b7 5c4f 4a39 11ca 38ba e07b 2d3a
00000310: 6569 a639 164c a039 4eab c7b9 8558 d238
00000320: 77c3 47ba 1b93 1e3a 1883 c3b9 bff3 6eba
00000330: 1ae6 50ba ab0b 1a3a 6d64 d9b9 05f5 63ba
00000340: fcf4 d039 4584 e5b8 3c75 313a 716f 243a
00000350: b982 4d39 4189 9eb9 8471 9739 b1bb 213a
00000360: 8f3b 4aba aa40 243a b249 9ab9 0a6c 85ba
00000370: ae41 35ba 4412 c739 fc62 f2b8 18c1 7aba
00000380: be5e 8839 de6b 55b6 bc02 143a 5871 05b8
00000390: b32e 1f38 9ffa aeb9 7b02 b139 632c f8b9
000003a0: c262 7239 3ff2 1ab7 d0c2 d0b9 cc68 d839
000003b0: 3944 4839 2191 12b9 d5b5 4538 8200 15ba
000003c0: 6ad1 2938 be4d 5bb9 3835 2c39 9b4d a239
000003d0: bf3c cf38 d678 76b9 0b63 e235 e262 0d3a
000003e0: 2be2 81b8 bc32 99b8 4dde c139 ebe5 f138
000003f0: 4db5 0d38 901e ed38 c320 36b9 7f89 0a3a

base_model.model.transformer.h.2.attn.c_attn.lora_A.weight f4 [8, 768]
-0.024988696 0.017572451 0.008965276 -0.019157216 0.027536843 -0.03465924 -0.001666823 0.029448466
0.03065922 -0.002310528 0.026888754 -0.020564483 0.025218446 0.003242236 -0.0009789784 0.029204506
-0.0021568954 0.023499157 0.009147368 0.01885539 -0.0063290573 -0.026182368 0.015666982 0.008132824
-0.021466918 0.033554185 0.0013897755 0.0289608 0.0074996874 -0.03385756 -0.0015954374 -0.033342388
-0.011962028 -0.003426305 -0.027926337 -0.03264278 0.0004558296 0.00034422646 0.032082785 -0.027038231
0.031522315 -0.012267497 -0.016496439 0.014581221 0.009190538 0.0037292677 -0.011412664 -0.028418178
0.027250139 -0.015794566 -0.025899783 0.011492966 -0.008537669 0.008422174 -0.02585599 -0.033484966
-0.025271071 -0.0068083354 0.0034660008 0.02727883 0.027555628 0.002130748 -0.034295764 0.032285288
0.0065867044 0.01034973 -0.0150983455 0.033779692 -0.026054064 -0.00027499182 0.022052558 -0.003023379
0.032567386 0.0010565261 -0.025576822 0.01675922 0.007202787 -0.00815883 0.016382206 0.017617235
0.015132436 -0.018732265 -0.0172627 0.021333916 0.011532406 -0.026065933 -0.031579267 -0.022555506
-0.017451296 0.010079534 -0.005034059 -0.015645087 0.02777607 0.00020462352 0.03703812 0.013727072
-0.009013708 -0.030618334 0.0032564015 0.018327734 0.025988003 0.0073975567 0.013266331 0.0016006537
-0.011024897 -0.0155929 -0.0031239265 0.018287843 0.03128614 0.010560436 0.004427998 0.00886862
-0.01970269 -0.018142877 -0.03287942 -0.0027793285 -0.002386836 0.033306975 -0.02448118 -0.010615557
-0.03414004 0.021882627 -0.022701025 -0.025264965 -0.014574814 -0.022516085 0.011968577 0.0012793052
0.013649688 -0.012581236 0.008819663 -0.026322005 -0.0325612 -0.02525169 0.0062878085 0.008608317
-0.03175043 -0.0069669937 0.036043264 0.009994654 0.010353385 0.0030982147 -0.008695377 0.034465324
0.01690312 -0.008202201 0.0008045726 -0.012499116 0.02182013 0.0038367829 0.027449116 0.028346932
-0.03557538 -0.031920645 0.01906261 0.034455705 0.003565154 0.026953742 0.020255039 0.013900226
-0.0037106413 0.016006768 0.029111097 -0.035359997 -0.023028936 -0.0073293196 0.017992716 0.012686611
0.021043478 0.017176565 -0.0072408416 -0.013507261 -0.011554455 -0.004936562 -0.026969852 0.019756252
0.019415189 0.007998497 0.027325785 0.007857066 0.0066151517 0.028959375 -0.009784004 -0.01582583
-0.023761721 -0.014685437 -0.028954988 -0.024111737 0.0142868245 0.008285078 0.010837825 -0.025603086
0.013571319 -0.00959089 0.022727191 0.033860974 -0.0007546603 -0.024272025 -0.025251366 1.0113226e-05
0.007611901 0.034580845 -0.02950044 -0.0072928 0.023030976 0.026673574 -0.0099663315 -0.013314586
-0.022408362 -0.016903415 0.03119172 -0.014813326 0.007605876 -0.03578178 -0.013535491 -0.01594688
-0.015085538 0.015828732 -0.009655588 -0.016288972 0.0020449166 -0.012452423 -0.033830285 0.022480186
0.026385907 0.033849582 0.025427938 0.010976325 -0.001552241 0.024670491 -0.012117189 -0.004290913
-0.014738182 -0.013773298 -0.020606503 0.0063069398 0.0104709035 0.012967056 0.011188068 -0.018472217
0.016082482 -0.021729311 -0.002756866 0.03154453 0.027453104 0.025053734 -0.030460771 -0.015156331
0.00024538813 -0.0149161825 -0.02108441 -0.010020206 -0.017581787 0.0109636765 0.0009784558 -0.031144299
00000000: 18b5 ccbc 1af4 8f3c 18e3 123c 98ef 9cbc
00000010: f294 e13c d9f6 0dbd 4d79 daba e93d f13c
00000020: 0b29 fb3c 3a6c 17bb ce45 dc3c d976 a8bc
00000030: ea96 ce3c b27b 543b 1051 80ba 4a3e ef3c
00000040: b35a 0dbb 4e81 c03c d8de 153c 9e76 9a3c
00000050: fb63 cfbb 687c d6bc 0b58 803c 893f 053c
00000060: 64db afbc 1d70 093d 2129 b63a 333f ed3c
00000070: f0bf f53b 3aae 0abd ff1d d1ba 0792 08bd
00000080: 62fc 43bc dc8b 60bb c6c5 e4bc 70b4 05bd
00000090: 6afc ee39 4b79 b439 3d69 033d 487f ddbc
000000a0: 8b1d 013d 9dfd 48bc 8a23 87bc 13e6 6e3c
000000b0: e993 163c bb66 743b 2ffc 3abc 3dcd e8bc
000000c0: af3b df3c 9b63 81bc c82b d4bc fe4c 3c3c
000000d0: 94e1 0bbc 28fd 093c f1cf d3bc 8827 09bd
000000e0: 4705 cfbc 7518 dfbb d825 633b da77 df3c
000000f0: 57bc e13c 05a4 0b3b b779 0cbd 943d 043d
00000100: 48d5 d73b ea91 293c 0d5f 77bc 935c 0a3d
00000110: 556f d5bc c72c 90b9 91a7 b43c e223 46bb
00000120: 6165 053d 227b 8a3a 7c86 d1bc a24a 893c
00000130: 5b05 ec3b 9dac 05bc fa33 863c 0552 903c
00000140: 09ee 773c 6874 99bc 816a 8dbc 77c4 ae3c
00000150: 6bf2 3c3c 3988 d5bc 4359 01bd 53c6 b8bc
00000160: 05f6 8ebc a124 253c bff4 a4bb 202a 80bc
00000170: a48a e33c 3590 5639 49b5 173d 83e7 603c
00000180: 3bae 13bc 4dd3 fabc 5a69 553b 0b24 963c
00000190: cbe4 d43c 3467 f23b 065b 593c 07cd d13a
000001a0: c5a1 34bc 5d79 7fbc caba 4cbb 63d0 953c
000001b0: e525 003d ae05 2d3c bd18 913b b04d 113c
000001c0: 8967 a1bc 5fa0 94bc 92ac 06bd 6525 36bb
000001d0: 776c 1cbb e56c 083d c18c c8bc e0ec 2dbc
000001e0: 6dd6 0bbd 3243 b33c 80f7 b9bc 79f8 cebc
000001f0: 33cb 6ebc a773 b8bc da17 443c 5cae a73a
00000200: f1a2 5f3c 8721 4ebc 5980 103c 3fa1 d7bc
00000210: e55e 05bd a2dc cebc f609 ce3b e609 0d3c
00000220: bd0c 02bd 614b e4bb 1aa2 133d 9ec0 233c
00000230: 3ea1 293c 6b0b 4b3b 0e77 0ebc 832b 0d3d
00000240: 6978 8a3c 8662 06bc f4e9 523a 18c9 4cbc
00000250: 21c0 b23c 8972 7b3b f8dc e03c d337 e83c
00000260: 7db7 11bd 39bf 02bd 3129 9c3c 6d21 0d3d
00000270: 5ca5 693b 18ce dc3c e5ed a53c c6bd 633c
00000280: 3b2e 73bb a020 833c 657a ee3c a5d5 10bd
00000290: 2ea7 bcbc ca2a f0bb 7665 933c 81db 4f3c
000002a0: 5f63 ac3c deb5 8c3c 9544 edbb 8f4d 5dbc
000002b0: e64e 3dbc e2c2 a1bb e1ef dcbc ddd7 a13c
000002c0: 9a0c 9f3c 210c 033c 53da df3c ecba 003c
000002d0: eac3 d83b 363c ed3c 164d 20bc 2ca5 81bc
000002e0: f1a7 c2bc 309b 70bc 0333 edbc fa85 c5bc
000002f0: 4913 6a3c 23be 073c 2291 313c 90bd d1bc
00000300: 3d5a 5e3c 1c23 1dbc 602e ba3c ceb1 0a3d
00000310: 65d4 45ba 20d6 c6bc f4db cebc faab 2937
00000320: 416d f93b a5a4 0d3d e8aa f1bc 71f8 eebb
00000330: 75ab bc3c 8a82 da3c d349 23bc 6c25 5abc
00000340: be91 b7bc 0879 8abc c785 ff3c 98b3 72bc
00000350: b63a f93b ea8f 12bd f7c3 5dbc 08a3 82bc
00000360: 5529 77bc 42ab 813c 7932 1ebc 7370 85bc
00000370: 0204 063b 3f05 4cbc a091 0abd 5e28 b83c
00000380: 4227 d83c dca5 0a3d 404e d03c 0bd6 333c
00000390: 9174 cbba c519 ca3c 2d87 46bc ca9a 8cbb
000003a0: 6a78 71bc 66a9 61bc f8ce a8bc 72aa ce3b
000003b0: 278e 2b3c c673 543c 294e 373c 0c53 97bc
000003c0: 69bf 833c ab01 b2bc 89ac 34bb d634 013d
000003d0: 55e5 e03c 7d3d cd3c de88 f9bc 4252 78bc
000003e0: 70a7 8039 0163 74bc 36b9 acbc ca2b 24bc
000003f0: ae07 90bc fea0 333c 873f 803a 5422 ffbc

base_model.model.transformer.h.2.attn.c_attn.lora_B.weight f4 [2304, 8]
-2.9409788e-05 2.6683285e-05 -0.00039152874 -0.00045104168 0.00017094819 -0.00013991662 0.00060540927 -0.00020053968
0.00064560375 -0.00083066925 -5.6350814e-06 -0.00080283865 0.00084760174 0.0008279281 0.00045215688 -0.0008263991
-0.0003832503 -0.00024189797 5.0348674e-05 0.0006067456 0.00019652251 -4.6391535e-05 -0.0002997936 0.000280815
-0.0003702602 0.00038021195 0.00061845855 0.00056883466 -0.00059814897 -0.00031473752 -0.00075494807 0.00044565438
-0.00010638995 0.00012810012 0.00025210177 0.0006421153 -0.00042308302 -0.00026479768 -0.00063414604 0.0005194598
-0.00047093802 0.00059398037 0.00024737872 0.0005826776 -0.0008303638 -0.0006999369 -0.00077098014 0.00076833955
6.6098764e-05 0.0007248264 0.00015050899 0.00015963471 -0.00074145786 -0.0005251373 6.97103e-06 0.0006042473
-6.712919e-06 0.00013178553 -0.0006818598 -0.0004046775 3.6578533e-06 -0.0002158118 0.0006038577 -5.0748917e-05
0.00038613146 -0.00024132269 -0.00033428232 -0.00055262714 0.0005771436 0.00027164014 0.0006854234 -0.00052001496
-0.00052993523 0.0006739692 -0.00034548593 0.000596899 -0.0006833322 -0.000748366 -0.00011182621 0.0007240712
2.3357033e-07 0.00042493708 -0.00010210856 -0.0004327804 -0.00037724583 -0.00042991017 0.0005864443 0.0003552848
-0.00048285682 0.0005687946 0.0001614235 0.0008614479 -0.00051303074 -0.00048194345 -0.00067526405 0.0007024884
0.00036129414 -8.5132706e-05 -0.00034558494 -0.0005767714 0.00028238393 0.00019372781 0.00056873634 -0.00029041411
-0.00016934692 -0.00023009905 0.00049681944 0.0006399254 -0.000114915194 8.088096e-05 -0.0008099995 5.0507166e-05
0.0001848158 -0.00023840267 0.0005313601 0.00031447434 -0.00026967816 0.00019546175 -0.0006689415 2.330844e-05
-0.00024349912 -3.2191936e-05 -5.7374597e-05 0.0003889175 0.00037942862 5.6963123e-05 0.00016529887 1.6569002e-05
1.821343e-05 -0.00041391116 -0.000615193 -0.0006719237 0.0005626266 0.00026214152 0.00076636055 -0.0005161633
0.0001833591 4.1681287e-05 -0.00010949401 -0.000398008 -0.0001067549 0.00011651612 0.00068311096 -0.0001941091
0.000207216 0.00039340995 0.0004614411 0.00036603093 -0.000643366 -0.00011621781 -0.00057124445 0.0004214311
-0.00023762342 -0.00030213228 -0.00019820071 -0.0005175994 0.0004976604 0.00012429686 0.0005361799 -0.0005118215
-2.2003277e-07 -0.00037861385 0.00033220975 -0.00016596851 0.00039038263 0.0003479168 -0.00017964664 -0.00042733998
-0.00065815635 0.00079918676 -0.00040543036 0.000586415 -0.000775162 -0.0007596472 1.647584e-05 0.00077523006
-0.000559566 0.00058370875 -5.508182e-05 0.00071948423 -0.00054988137 -0.00059703144 -0.00029565918 0.00066582614
0.00031469238 -0.0002039336 -0.00013103471 -0.0006982832 4.8444672e-05 7.664091e-05 0.00035783355 -0.0003427943
3.1020914e-05 0.00046751185 0.0002824951 0.00021288516 -0.0006684553 -0.0002950462 -0.00059804745 0.0004092934
2.9874222e-05 -4.6033263e-05 0.0005803483 0.0005746298 -0.00012434645 5.934406e-05 -0.00055347657 0.0002013268
7.284695e-05 0.00021424788 0.0002778767 0.00050472084 -0.00044822542 -1.997669e-05 -0.00045944957 0.00015188447
-0.00043115416 0.00068231014 -0.00025931207 0.00017728271 -0.00071470806 -0.0007398026 -0.0001577049 0.00074566726
-0.00035655682 0.0003636052 0.00034053088 0.000818482 -0.0003836863 -0.00029077093 -0.0007292749 0.0005317805
0.00032519473 -4.2619446e-05 0.00020414467 -0.00051432673 -9.9062454e-05 8.342194e-05 -0.00023547752 -0.00025043642
-0.0003499284 0.00014663667 0.00021976687 0.0006779566 -9.081137e-05 -8.591678e-05 -0.0005327284 0.00030915122
-0.00013205578 0.00038081498 -0.00028428316 0.00017280759 -2.0370315e-05 -0.00021053982 0.0003011732 0.00015944241
00000000: 0ab5 f6b7 ebd5 df37 1946 cdb9 ca79 ecb9
00000010: 8e40 3339 95b6 12b9 54b4 1e3a f647 52b9
00000020: bc3d 293a 45c1 59ba fb14 bdb6 9775 52ba
00000030: 9731 5e3a 5009 593a 780f ed39 b4a2 58ba
00000040: fcee c8b9 fea5 7db9 7a2d 5338 020e 1f3a
00000050: 9c11 4e39 8894 42b8 9e2d 9db9 5a3a 9339
00000060: 7c1f c2b9 2f57 c739 0d20 223a d91d 153a
00000070: 19cd 1cba 5b03 a5b9 b5e7 45ba b8a6 e939
00000080: ab1d dfb8 9d52 0639 872c 8439 a153 283a
00000090: 3ed1 ddb9 8bd4 8ab9 d23c 26ba 5b2c 083a
000000a0: 3be8 f6b9 59b5 1b3a 9cb2 8139 d5be 183a
000000b0: c5ac 59ba f87b 37ba 9a1b 4aba 656a 493a
000000c0: 819e 8a38 4702 3e3a f3d1 1d39 9e63 2739
000000d0: 655e 42ba 5ea9 09ba b1e8 e936 5a66 1e3a
000000e0: 893f e1b6 e92f 0a39 d6be 32ba e52a d4b9
000000f0: 7179 7536 8a4b 62b9 344c 1e3a 3cdb 54b8
00000100: b071 ca39 910b 7db9 9d42 afb9 2ede 10ba
00000110: 744b 173a ec6a 8e39 fcad 333a 9d51 08ba
00000120: 5aeb 0aba 4fad 303a 5622 b5b9 3779 1c3a
00000130: a621 33ba fe2d 44ba 3d84 eab8 98cf 3d3a
00000140: 53cb 7a34 17ca de39 1e23 d6b8 cde6 e2b9
00000150: 14c9 c5b9 9165 e1b9 9cbb 193a 8545 ba39
00000160: f227 fdb9 291b 153a ca43 2939 cad2 613a
00000170: e97c 06ba 5bad fcb9 3404 31ba 3327 383a
00000180: 146c bd39 4689 b2b8 a02f b5b9 7932 17ba
00000190: ee0c 9439 6a23 4b39 4017 153a b942 98b9
000001a0: b892 31b9 be46 71b9 fd3c 023a abc0 273a
000001b0: a0fe f0b8 a29e a938 2556 54ba a8d7 5338
000001c0: 1dcb 4139 bbfb 79b9 f94a 0b3a 08e0 a439
000001d0: 9763 8db9 ddf4 4c39 e75b 2fba 7e86 c337
000001e0: cc53 7fb9 d405 07b8 81a5 70b8 a0e7 cb39
000001f0: 0cee c639 b0eb 6e38 1454 2d39 a9fd 8a37
00000200: 0bc9 9837 3702 d9b9 e744 21ba 0924 30ba
00000210: 3b7d 133a 0a70 8939 96e5 483a 224f 07ba
00000220: 1544 4039 f1d2 2e38 26a0 e5b8 bbab d0b9
00000230: 9ae1 dfb8 1e5a f438 cd12 333a c489 4bb9
00000240: 1f48 5939 9742 ce39 93ed f139 d7e7 bf39
00000250: 90a7 28ba f6b9 f3b8 91bf 15ba 86f3 dc39
00000260: 8d2a 79b9 8267 9eb9 19d4 4fb9 82af 07ba
00000270: 6d75 023a af55 0239 6d8e 0c3a c22b 06ba
00000280: 2642 6cb4 b180 c6b9 702c ae39 d507 2eb9
00000290: 45ac cc39 9a68 b639 875f 3cb9 9a0c e0b9
000002a0: 2088 2cba 8480 513a f18f d4b9 a5b9 193a
000002b0: 3e34 4bba 1023 47ba 9935 8a37 cf38 4b3a
000002c0: d7af 12ba 0804 193a a707 67b8 c59b 3c3a
000002d0: ea25 10ba 1a82 1cba b402 9bb9 d68a 2e3a
000002e0: 4cfd a439 02d7 55b9 5d66 09b9 fe0c 37ba
000002f0: 1231 4b38 46ba a038 9b9b bb39 12b9 b3b9
00000300: 741c 0238 611c f539 da1b 9439 ed39 5f39
00000310: 473b 2fba 6eb0 9ab9 49c6 1cba 6e96 d639
00000320: 679a fa37 d713 41b8 8422 183a c1a2 163a
00000330: ff62 02b9 33e8 7838 2f17 11ba 401b 5339
00000340: 69c5 9838 baa7 6039 fbaf 9139 3e4f 043a
00000350: ccff eab9 9d93 a7b7 47e2 f0b9 2d43 1f39
00000360: 880c e2b9 0fdd 323a 47f4 87b9 f7e4 3939
00000370: 3f5b 3bba 50ef 41ba 965d 25b9 e278 433a
00000380: 3ff0 bab9 44a2 be39 4889 b239 668f 563a
00000390: 8129 c9b9 9d72 98b9 cf2c 3fba 2f67 0b3a
000003a0: e67e aa39 48c2 32b8 ab0f 5639 e2d3 06ba
000003b0: c0bf cfb8 d0f2 ae38 84ea 76b9 024d 83b9
000003c0: 9876 b7b9 7bc2 1939 3871 6639 e6b8 313a
000003d0: fc71 beb8 382e b4b8 cca6 0bba 9315 a239
000003e0: 7478 0ab9 1fa8 c739 d70b 95b9 af33 3539
000003f0: ebe0 aab7 5ac4 5cb9 c8e6 9d39 ff2f 2739

base_model.model.transformer.h.3.attn.c_attn.lora_A.weight f4 [8, 768]
-0.014058728 0.016098088 -0.03237458 -4.1402684e-05 -0.0030498826 0.00039471433 -0.014782519 -0.022586262
-0.0057963016 0.006194956 -0.0028432175 0.014329416 0.01812901 -0.017932065 0.01681523 -0.031058902
0.0068083433 -0.028213356 -0.005497937 0.028682759 -0.0017616556 0.029484175 -0.003410894 -0.019145042
0.01656814 0.020062638 -0.0013327519 -0.023657767 0.031885915 0.018884156 0.005508883 -0.021876162
0.010638628 -0.013670751 -0.004806335 -0.035403077 -0.002682807 -0.009509572 -0.004794347 0.011726404
0.018941501 0.018848933 0.00051277375 -0.026090512 0.028505217 -0.023625316 0.017506609 0.030125486
0.011264633 0.024206007 -0.026505213 0.033711545 -0.01292825 0.025709411 -0.015327064 -0.036646206
-0.023819407 -0.016151493 -0.029849285 0.01289958 -0.0015911013 0.016164653 0.009867586 -0.0012257361
-0.013567691 0.0034219613 -0.0072471164 0.005890049 0.0034122686 -0.022915993 0.007752605 0.0018107311
-0.01821147 -0.015553148 0.022463482 0.018811649 -0.026937904 -0.023921981 -0.0014159596 -0.008517195
0.015162069 0.029644815 -0.0024260583 0.021795863 0.011514473 -0.033578772 -0.032432526 -0.022670241
-0.036666006 0.0045209667 -0.023575962 0.018515605 -0.017490696 -0.02281056 -0.024112446 0.02556806
0.015070046 -0.0023900492 -0.0043073483 0.024678444 0.0030758884 0.017942464 -0.012925547 0.010801453
0.03446888 0.0058868243 -0.02017275 -0.023284528 -0.021658154 0.0048113745 0.018349603 0.035968676
-0.0033421067 -0.014760896 -0.018747337 0.0047480455 -0.030632742 -0.018756937 -0.010319589 0.03268171
-0.030820262 -0.02980177 -0.02408181 0.0011946596 0.035067085 -0.0114888465 0.025455091 0.0059059598
0.02430167 -0.01388939 -0.025448147 0.035588816 -0.021789338 -0.0061937957 -0.010058861 -0.03098911
0.005491246 -0.02837723 0.003413698 0.013446407 -0.018176759 -0.00034226605 -0.002435296 -0.0030087265
-0.035734132 0.012236908 -0.0022305136 0.020185795 -0.005644063 -0.00026018175 -0.023445986 0.0022647681
-0.023342434 0.00068393385 0.0149235185 -0.0005681414 0.0047397846 -0.026625535 -0.009355114 0.0029302326
-0.0152967675 0.03437682 -0.031927343 -0.030844852 0.00245059 0.013659233 0.016249849 -0.028670337
-0.02424543 0.0029287275 0.03720772 -0.004548935 -0.0248221 0.0054378714 -0.00013329978 -0.010491927
0.004510267 0.025812455 -0.02396944 -0.010973254 0.03326582 0.0043789125 -0.013803254 0.005252089
0.009998353 -0.02664639 -0.029975113 -0.034780122 0.0018748004 -0.018595781 -0.012640102 -0.008174901
-0.0037371677 0.00017179834 0.032477465 0.03366102 -0.019158682 0.03117824 -0.00969439 -0.0074591506
0.0075409375 -0.0023256752 -0.02896102 0.01958331 -0.031925317 0.035466082 -0.016483376 -0.010109723
-0.02917079 0.025129609 0.011645157 -0.018691098 0.022757104 0.013518255 0.019834992 -0.017581776
0.015364815 0.029864887 0.002643682 -0.010541271 -0.014663795 0.009463848 -0.024217024 -0.022263765
0.017603265 -0.027696868 0.01379159 0.014595623 0.013194779 -0.021015553 0.018963674 0.014523332
-0.012178931 -0.027383976 0.030179007 0.003753334 0.020153046 -0.012672752 0.031818625 0.0032683543
0.011958441 0.009174871 -0.028210543 0.009297557 0.0021089257 -0.027993124 -0.0205678 -0.012580828
-0.012356153 0.015550528 0.034966014 0.032875694 -0.02960509 -0.02546368 0.03530836 -0.011836012
00000000: 9456 66bc 23e0 833c 359b 04bd cba7 2db8
00000010: 8ae0 47bb a9f1 ce39 6132 72bc d306 b9bc
00000020: e7ee bdbb 0fff ca3b 4655 3abb edc5 6a3c
00000030: 4a83 943c 44e6 92bc 18c0 893c 3d6f febc
00000040: 8618 df3b b21f e7bc 0a28 b4bb 1bf8 ea3c
00000050: 5ae7 e6ba cc88 f13c 4e89 5fbb 10d6 9cbc
00000060: e8b9 873c 675a a43c bcaf aeba efcd c1bc
00000070: ce9a 023d f2b2 9a3c dc83 b43b a335 b3bc
00000080: a44d 2e3c 49fb 5fbc 767e 9dbb d102 11bd
00000090: 08d2 2fbb 09ce 1bbc e619 9dbb 1a20 403c
000000a0: 352b 9b3c 1469 9a3c aa6b 063a c5bb d5bc
000000b0: c683 e93c e189 c1bc 056a 8f3c b9c9 f63c
000000c0: 4c8f 383c ad4b c63c 7621 d9bc 1e15 0a3d
000000d0: 03d1 53bc 8b9c d23c 5e1e 7bbc 551a 16bd
000000e0: eb20 c3bc 2350 84bc 7d86 f4bc c358 533c
000000f0: 808c d0ba bc6b 843c a8ab 213c e1a8 a0ba
00000100: 054b 5ebc fc42 603b 3879 edbb 5001 c13b
00000110: 5ea0 5f3b 52ba bbbc 9009 fe3b 0e56 ed3a
00000120: 3930 95bc a2d2 7ebc 5605 b83c e31a 9a3c
00000130: e1ac dcbc 08f8 c3bc b897 b9ba b48b 0bbc
00000140: 546a 783c afd9 f23c 81fe 1ebb 3d8d b23c
00000150: 33a7 3c3c e589 09bd f8d7 04bd f1b6 b9bc
00000160: 182f 16bd 9e24 943b 6022 c1bc 0aae 973c
00000170: a648 8fbc 36dd babc 7787 c5bc 1c74 d13c
00000180: 5be8 763c 5fa2 1cbb a824 8dbb 732a ca3c
00000190: d894 493b 13fc 923c acc5 53bc 94f8 303c
000001a0: 3e2f 0d3d 43e6 c03b 5341 a5bc 32bf bebc
000001b0: 716c b1bc bca8 9d3b e851 963c e453 133d
000001c0: 3f07 5bbb afd7 71bc 0494 99bc 7e95 9b3b
000001d0: 84f1 fabc 26a8 99bc 7e13 29bc 42dd 053d
000001e0: c67a fcbc d722 f4bc 3747 c5bc 2096 9c3a
000001f0: 81a2 0f3d b73b 3cbc 3287 d03c c886 c13b
00000200: 4c14 c73c 5390 63bc a278 d0bc 94c5 113d
00000210: 8e7f b2bc 53f5 cabb eccd 24bc e0dc fdbc
00000220: e9ef b33b 5d77 e8bc 59b8 5f3b 524e 5c3c
00000230: 6de7 94bc 2c72 b3b9 7d99 1fbb 0e2e 45bb
00000240: f45d 12bd 507d 483c cf2d 12bb ae5c a53c
00000250: d5f1 b8bb 0169 88b9 cc11 c0bc 816c 143b
00000260: a238 bfbc 064a 333a c681 743c 53ef 14ba
00000270: 3250 9b3b cb1d dabc 3146 19bc 2509 403b
00000280: 4b9f 7abc b5ce 0c3d 3fc6 02bd 58ae fcbc
00000290: 149a 203b faca 5f3c 671e 853c 0ede eabc
000002a0: 5a9e c6bc e5ef 3f3b 1f67 183d 3c0f 95bb
000002b0: b757 cbbc 2c30 b23b 63c6 0bb9 55e6 2bbc
000002c0: ddca 933b a474 d33c 8f5b c4bc 2ac9 33bc
000002d0: be41 083d fb7c 8f3b 0b27 62bc b719 ac3b
000002e0: 22d0 233c 8849 dabc 5e8e f5bc 9a75 0ebd
000002f0: ddbb f53a 2e56 98bc 6e18 4fbc 05f0 05bc
00000300: 45eb 74bb c424 3439 1707 053d 23e0 093d
00000310: abf2 9cbc 8269 ff3c 38d5 1ebc e46b f4bb
00000320: f819 f73b 5b6a 18bb a93f edbc 2d6d a03c
00000330: 1fc4 02bd e244 113d 2508 87bc 40a3 25bc
00000340: 95f7 eebc 9cdc cd3c 54cb 3e3c 131e 99bc
00000350: 1b6d ba3c ac7b 5d3c fe7c a23c a807 90bc
00000360: b4bc 7b3c 35a7 f43c a041 2d3b 4cb5 2cbc
00000370: 6a40 70bc 410e 1b3c c862 c6bc 8062 b6bc
00000380: b934 903c 8be4 e2bc 1ff6 613c 7b22 6f3c
00000390: ea2e 583c cf28 acbc b559 9b3c 45f3 6d3c
000003a0: 248a 47bc 5c54 e0bc f739 f73c 7ffa 753b
000003b0: 0018 a53c 60a1 4fbc 3f54 023d e331 563b
000003c0: 56ed 433c 3352 163c cc19 e7bc c854 183c
000003d0: e735 0a3b d651 e5bc ce7d a8bc d11f 4ebc
000003e0: 7671 4abc a4c7 7e3c 8638 0f3d aaa8 063d
000003f0: 6086 f2bc 3599 d0bc 809f 103d d5eb 41bc
