models/amz_movie_tv_distilgpt2_50k_random/adapter_model.bin (torch, 594261 bytes, 12 tensors)

base_model.model.transformer.h.0.attn.c_attn.lora_A.weight f4 [8, 768]
00000000: 9d7c 1e3b 439f 1abd 8fa6 56bb 654c ef3c
00000010: 9f7d d33c 5536 43bd 7fa0 8abc c2f9 adbc
00000020: 304e a0bc 575a 79bd cd38 203d a31d 223c
00000030: 316e 54bd d6bc 0cbd 29f1 0b3c 3128 e1bb
00000040: ccf5 a63c b919 483c 8996 51bc ab40 efbc
00000050: 0364 8fbb 9570 553d 0464 65bb 0e36 2bbc
00000060: 4113 41bd a2c8 56bc bec6 df3b 34d0 af3b
00000070: a229 b4bb 8d5e 7b3d f503 08bc 92cd c7bc
00000080: 66a7 ff3c 8b58 f73a 25a6 143c 3867 683d
00000090: bf3b c6bc d5dc 5c3c f34c 13bc b1a6 bb3c
000000a0: 19db 253d 04de 1cbd d40a 81bc c5a4 99bc
000000b0: b451 8fbc 1bb7 81ba e5c6 8e3c 234a 17bd
000000c0: bd50 bd3c 9d33 78bc c4b8 513d 7b59 383d
000000d0: 1b9d 173c 6410 333c e671 77bd 4762 653c
000000e0: 7353 103d b315 383d cbfe 9dbc 34ab b5bc
000000f0: dee0 01bd 3725 89bc 3b19 5a3c cf6b 9ebc
00000100: 1b7b 88bc 5fea 373d b7ae b1bc efa1 1dbd
00000110: 337f 2b3d 852c 893d fb22 56bc 2399 26bd
00000120: c40f d9bc 5b1f 4bbd 7133 fe3c 13a7 f7bc
00000130: 4ae7 93bd 7804 abbc 983e 473c 9375 e43c
00000140: cde0 24bd a9ac 253d bb47 993c 4f41 3e3c
00000150: b61a 803b 98dd 98bb 1c74 c6bc 5229 75bc
00000160: 6e13 35bc 7597 293b b2e2 cfbb 738b 9abd
00000170: 0074 44bd 548c dbbc 908c 3cbd 5716 163d
00000180: 75ad 763c c6e9 13bd 4141 a43d 335a ca3c
00000190: 6e0d fabc c630 2c3c 73e5 66bc 7bc2 3e3d
000001a0: 9b7a 02bd e63c f3bc f2b6 01bb 2523 023d
000001b0: b715 16bc 5f6c aa3b 1570 95b7 bdce 3a3c
000001c0: 4fab 423b 4601 803c 2c2d 0ebd 8ac9 bf3c
000001d0: 4f8a 833d eedf 21bd 9422 70bb d382 6dbc
000001e0: c9c2 d7bc e107 ca3b 9c09 23bd d562 443d
000001f0: 9f47 6b3c 8b55 173d 1652 9fbd 0fe3 89bc
00000200: 3f90 58bd aefb 233c 72dd 57bd e02a a2bc
00000210: 55b1 a43c b809 1fbd 14bf 873c 9566 fc3b
00000220: 29bf 81bc b3a3 01bc 0676 553c fda7 563c
00000230: 0b1b 013d 0434 16bc 9307 6dbd a246 0bbc
00000240: 6eb0 c73b e544 b13c 003d b23c 324d 5bbd
00000250: b7e6 433d f186 a53c 223f f5bc a580 893c
00000260: b6d3 47bd 7918 683c 06fc 963c ecd7 78bd
00000270: 8b4d 973b 272e 01bd cbde 4abd cb3d 7ebd
00000280: fbf1 e8bc fc85 93bc a046 1abc 079d ccba
00000290: 1d3e 1bbc f714 2dbd 2c76 ff3c 1c8b 1e3d
000002a0: 7584 1fbc f776 133d 9795 803c f0bd 91b9
000002b0: 2ec5 9c3c a9a9 04bd 6d34 123d 4709 d43b
000002c0: 1b67 ad3c 8559 813d f32b 2dbc 9735 36bd
000002d0: 0b06 29bd f2dc 013d 51b2 b3bc 90d7 22bd
000002e0: e3cb c73a 6595 253b 8dac 0bbc 8065 943d
000002f0: 0515 113d 9610 1dbc 0ed3 4b3d 6b3d 6f3b
00000300: 6a5e f63c 8fa8 bdbc 933b 14b6 5573 c73b
00000310: 4f62 163c 3096 98bc df20 cbbc 09a8 543c
00000320: 2570 76bc 31c8 603d 3b71 183d a1a8 863c
00000330: 137a d93c 3e7e 08bc 6b8e 88bd 0c91 fe3c
00000340: 6f2f 9fbc 9bf6 9bbc 9872 ff3b fac0 103d
00000350: 31fb c13b a935 2cbd 4e99 34bd acaa 343d
00000360: b55e cfbb 3aad 173c 5b98 b33c e1aa 093c
00000370: a3cf 53bb 08b6 893d 2d38 2ebd 976c 92bc
00000380: 0ead b03b edf8 2fbc 0aa2 723d 86b4 9cbd
00000390: 9d4e 3a3d f51a 7c3d ea38 803c 8842 ab3c
000003a0: a7f1 f63c 382c 123d 02de 77bc 169b 92bc
000003b0: a30b b03c 8dee b0bc 6dea 653d 5e26 8bbd
000003c0: 82a2 283c 28b8 5d3d d50f 03bd f4ab bbbb
000003d0: 15d4 0ebc f8a8 08bd 0542 5c3d 3931 043c
000003e0: 3e7e 9b3b 07a3 fabb 7ddc 773c 08ab 8cbd
000003f0: d4a1 81bd 7149 c1ba faab bd3c f222 1fbd
0.0024183162 -0.03774954 -0.0032753085 0.029211232 0.025816737 -0.047659237 -0.016922234 -0.021237258
-0.019568533 -0.06087717 0.03911667 0.009894761 -0.0518629 -0.034359775 0.008541384 -0.0068712463
0.020380877 0.012213164 -0.012792238 -0.02920564 -0.004375936 0.05210932 -0.003500224 -0.010449899
-0.047137503 -0.013109358 0.006829112 0.005365396 -0.005498127 0.061369468 -0.008301725 -0.024390016
0.031207751 0.0018870992 0.009072815 0.056739062 -0.024198411 0.013480385 -0.008990514 0.022906633
0.04049215 -0.038297668 -0.015752234 -0.018755326 -0.017495014 -0.0009896489 0.017428825 -0.036935937
0.023109788 -0.015149024 0.051201597 0.04500721 0.009253765 0.010929201 -0.060411356 0.014000482
0.035235833 0.04494257 -0.019286534 -0.022176363 -0.03170859 -0.016741378 0.0133116795 -0.019338517
-0.016660264 0.044901248 -0.021689756 -0.03848451 0.041869354 0.066979446 -0.013069863 -0.040673386
-0.026496775 -0.04959045 0.031030389 -0.030231034 -0.07221849 -0.020876154 0.01216092 0.027888095
-0.04025345 0.040447865 0.018710962 0.0116122505 0.003909434 -0.004665088 -0.024225287 -0.014963465
-0.011051996 0.002587763 -0.006344163 -0.07546129 -0.04796219 -0.026800312 -0.04603249 0.0366424
0.015056004 -0.036111616 0.08020259 0.024701213 -0.030523982 0.010509675 -0.014092791 0.04657219
-0.031855207 -0.029692125 -0.0019792882 0.031771798 -0.009160451 0.005200907 -1.7814376e-05 0.011401829
0.0029704159 0.015625607 -0.034711048 0.023411531 0.06422865 -0.039520197 -0.0036641704 -0.014496523
-0.026337998 0.00616549 -0.039804086 0.047945816 0.0143603375 0.036946815 -0.077793285 -0.016831903
-0.05287194 0.010008736 -0.05270142 -0.019795835 0.02010409 -0.038827628 0.016570605 0.0077026584
-0.015838223 -0.007912564 0.013028627 0.013101575 0.03151993 -0.009167675 -0.05786855 -0.008500727
0.00609403 0.021639297 0.021757603 -0.053540416 0.04782745 0.020205947 -0.02993733 0.016784975
-0.048785888 0.014165991 0.018430721 -0.060752794 0.004617398 -0.031538155 -0.04952888 -0.06207065
-0.028435698 -0.018008225 -0.009416252 -0.0015610763 -0.009475258 -0.04225632 0.031184278 0.038706884
-0.00973617 0.036002126 0.01569633 -0.0002779807 0.019136991 -0.032388363 0.03569453 0.0064708325
0.021167329 0.063159026 -0.01056956 -0.0444847 -0.04126553 0.03170485 -0.021935614 -0.039756358
0.0015243258 0.0025266048 -0.008525026 0.07245922 0.035420436 -0.009586474 0.049761824 0.0036505114
0.030074317 -0.023151664 -2.2088395e-06 0.0060867467 0.009178712 -0.018626302 -0.024795948 0.012979516
-0.015041386 0.054878417 0.03721736 0.01643783 0.026547467 -0.00833088 -0.06667789 0.031075023
-0.019431798 -0.01903849 0.007795643 0.035340287 0.005919837 -0.04204336 -0.044091515 0.044108078
-0.0063284286 0.009257609 0.021923235 0.008402557 -0.0032319806 0.06724173 -0.042534042 -0.017874045
0.0053917235 -0.010740501 0.059236564 -0.076516196 0.045485128 0.061549146 0.015652139 0.020905748
0.030144526 0.0356867 -0.015128614 -0.017896216 0.021489924 -0.021598125 0.05613177 -0.06794427
0.010292651 0.054130703 -0.03199752 -0.0057272855 -0.0087175565 -0.033364266 0.0537739 0.008068376
0.004745274 -0.007648829 0.015128252 -0.06868559 -0.063296944 -0.0014746619 0.023153294 -0.038851686

base_model.model.transformer.h.0.attn.c_attn.lora_B.weight f4 [2304, 8]
00000000: e995 473b 5e2e 0bbb 276c a6ba 3051 713a
00000010: bf65 08bb 0117 05bb f574 5dbb 906c ebba
00000020: 09a4 0c3b f380 243c 6b48 00bb d540 cabb
00000030: 8709 393b bd84 b9ba 9464 50bb be76 cabb
00000040: fc39 3d3c 51c4 1c3c aed2 1cbc 02d1 febb
00000050: d4bb 0bbc a7f9 1dbc edc8 2cbc e139 01bc
00000060: f340 343c d59c 393b 8ee6 21bc b10a 96bb
00000070: 2e2b 33bc e558 32bc ea90 24bc efc3 09bc
00000080: 0c6d 0c3c bd1f 07bb a3cb 0fbc 3990 b6bb
00000090: bf6b 77bc 54e2 32bc 39c0 0bbc 86d6 f1bb
000000a0: 891a bcbb 13f6 0bbc 6fad 9f3b 02c4 103c
000000b0: bdcd 573b f4c5 743b 1714 d13b 3a02 b43b
000000c0: 17d7 adbb 9259 c63b e29e 6b3b 872b f339
000000d0: cdc3 0e3c 8443 883b 7b57 4e3b e82e e839
000000e0: fefd a0bb 9d32 e7bb be8d 8e3b e6c8 d23b
000000f0: 7c7c 9f3b 6ec5 dc3b 4a93 fb3b ee15 ec3b
00000100: f152 473a c1c1 9a3b 3502 0dbb a7dc 22bc
00000110: 0a91 9eba 2466 24bb 2893 89bb 6667 abbb
00000120: 9c93 93bc ad6a 5cbc ba8f 8d3c 5f8c 843c
00000130: f1b0 923c a05b 9c3c 111e 923c 5e97 8e3c
00000140: 3a8c d8bb 1d29 89bb ea01 9f3b 1dc4 9a3b
00000150: afa7 bd3b 05de da3b e1e9 f53b 4893 cb3b
00000160: 845f 9bbb 1a01 d43b 1844 c73b 2587 38ba
00000170: aed6 ef3b 0b61 b93b 1e3e 763b 0dfd 073b
00000180: 2fba 0bbc f336 3a39 0a06 0f3c 65ae 223c
00000190: 4f39 753c 4271 3f3c efd0 3d3c 2d30 2a3c
000001a0: d10c 8b3a b299 07bc 3536 85ba 93d2 503b
000001b0: 33c2 48bb 5479 153a 1fe6 c239 d9bc 793b
000001c0: 9a55 2e3c e056 4b3c 41a6 2dbc 3531 6ebc
000001d0: 0cb0 2bbc 8d56 56bc c684 63bc 071f 7abc
000001e0: aeb1 8f3a 4aed 063c 68ee d1ba f594 79bb
000001f0: 8693 10ba d874 2abb b600 45bb e419 90bb
00000200: 317e 853c c7b3 743c 81a3 6cbc 122e 74bc
00000210: 46d9 0dbc b313 59bc e098 64bc ba40 42bc
00000220: 8438 46bb dd7b 20bb 1aa9 ed3a fa48 37b9
00000230: 3532 883a f6ae 203b 06d9 3c3b b7a1 ae3a
00000240: 17d5 0ebc 861e 02bc 7acb f43b e436 2b3c
00000250: b8ce 883b 36d0 c93b 28df 013c ca0c e23b
00000260: eb18 5cbc 319d a23b ba51 333c b760 0c3c
00000270: 7c22 ca3c e926 ab3c 59ec 913c 4e98 8e3c
00000280: 6a19 453a a4c3 30bc 7448 e03a d8ff dc3b
00000290: 6516 163b 20f5 cf3a 747a 0d3b ce65 d33b
000002a0: 4c8a b03b 6f62 fc3b b802 aabb a34b eebb
000002b0: 5d99 cbbb 657f 02bc c42b 12bc d0e8 14bc
000002c0: 4de7 f03a 6e95 863b 27de 51bb fe1b 25bc
000002d0: e6b7 9ebb 7b3f 87bb 4d2d b7bb 21ca ddbb
000002e0: 3427 193c 5313 ebbb 0874 08bc 2b93 3639
000002f0: aecb 12bc 93f8 f4bb c06f d0bb 3cf2 2abb
00000300: 1ef4 c93b 3cd4 1aba 4d2f cdbb 152f b53a
00000310: 4886 b7bb 28ed d0bb 8d36 95bb e0a2 4bbb
00000320: 9f97 753b 07b7 a73b 5b4e a7bb 53cc cdbb
00000330: 98de 21bb cec0 00ba 1965 90ba eff9 703a
00000340: fd9b 0d3b 63de 2cbc e2b4 acba aeb9 873b
00000350: f652 c8bb 1f55 4bbb 71d3 c8ba d8f6 2a3b
00000360: a143 1d3c 3ffb 76bc bdb4 13bc e07a ab39
00000370: 15c6 bbbc 5291 86bc 1dbd 4dbc e23b 1fbc
00000380: a48d 3cbc 8f70 b7bc 70d9 223c a3e1 873c
00000390: 66b0 b1ba 8724 c53b 00eb 333c 9053 373c
000003a0: bc0c 4b3c 1f3a c23c 40f9 58bc 98fd 90bc
000003b0: 9215 c33b 4aa6 8d38 997c e2bb 774e f7bb
000003c0: e3d0 20bc cafb cf3b 33cb ec3b 57e0 583b
000003d0: d702 943c 8cce 7f3c 2a52 3f3c 1a95 063c
000003e0: 9c6c 833b 2dbf 253b 3c25 80bb 313f fabb
000003f0: 7ab9 bcbb ce7f 89bb 7f9b b8bb 1e28 b9bb
0.0030454344 -0.0021237354 -0.0012697027 0.0009205518 -0.0020812599 -0.00203079 -0.0033791636 -0.0017961431
0.0021460077 0.0100405095 -0.0019574414 -0.0061722794 0.0028234439 -0.0014153939 -0.003179823 -0.006178706
0.011549469 0.00956829 -0.009571714 -0.0077763805 -0.008528668 -0.009642041 -0.010545951 -0.007887335
0.011001813 0.002832224 -0.009881629 -0.0045789112 -0.010935588 -0.010885452 -0.010044316 -0.008408531
0.008570921 -0.0020618283 -0.008776578 -0.005571392 -0.015101372 -0.010918219 -0.008529716 -0.0073803095
-0.005740468 -0.008542555 0.00487297 0.008835794 0.0032929026 0.0037349435 0.0063805687 0.0054934295
-0.0053051817 0.006053158 0.0035952856 0.00046381002 0.008713675 0.004158439 0.0031485248 0.00044285436
-0.0049130907 -0.007055594 0.004350393 0.0064326404 0.0048671346 0.0067374026 0.0076774703 0.0072047627
0.0007603607 0.0047228043 -0.0021516208 -0.009940303 -0.0012097668 -0.0025085295 -0.0041984506 -0.005230832
-0.018014722 -0.013453168 0.017280448 0.016180215 0.017906638 0.019086659 0.017836602 0.017406162
-0.006608513 -0.0041858093 0.004852523 0.0047230856 0.0057878117 0.006679299 0.007504687 0.0062126257
-0.004741611 0.006469858 0.0060811155 -0.0007039181 0.007319293 0.0056573204 0.0037573646 0.0020750195
-0.008528276 0.00017758812 0.008729467 0.009929274 0.014967277 0.011684718 0.011585458 0.010387463
0.0010608678 -0.00827639 -0.001016325 0.0031863793 -0.003063333 0.0005701978 0.00037174017 0.0038106947
0.010640526 0.012410849 -0.01059872 -0.014538099 -0.010478985 -0.013082159 -0.013886636 -0.015266187
0.0010962987 0.008235285 -0.0016016485 -0.003808317 -0.0005515147 -0.0026009586 -0.0030060238 -0.0043976177
0.016295524 0.01493544 -0.014443279 -0.014903562 -0.008657759 -0.013249326 -0.013952464 -0.011856252
-0.0030246088 -0.002448789 0.0018132061 -0.00017479426 0.001039094 0.0024518347 0.002881588 0.0013323341
-0.008717797 -0.007941848 0.0074705454 0.010450099 0.0041750334 0.006158854 0.00792674 0.006898497
-0.013433675 0.0049625863 0.010944778 0.0085679805 0.024674647 0.020892577 0.017812895 0.017406609
0.00075187406 -0.010788832 0.0017111436 0.006744366 0.0022901532 0.00158659 0.002158788 0.006451345
0.00538758 0.007702164 -0.0051883124 -0.0072722 -0.0062133507 -0.007964944 -0.008921567 -0.00908871
0.001837948 0.004107169 -0.0032023282 -0.010077475 -0.0048436997 -0.0041274405 -0.005590117 -0.0067684804
0.009347726 -0.0071739345 -0.008328445 0.00017411697 -0.008959694 -0.0074759214 -0.006360978 -0.0026084324
0.0061631342 -0.0005906259 -0.006261742 0.0013823236 -0.0056007244 -0.0063759275 -0.004553622 -0.0031072423
0.0037474406 0.005118254 -0.0051057762 -0.006280461 -0.0024699327 -0.00049115426 -0.0011016458 0.00091925164
0.002160787 -0.010551068 -0.0013176466 0.004142008 -0.0061134053 -0.0031026078 -0.0015321804 0.0026087072
0.0095986435 -0.01507455 -0.009015259 0.0003270721 -0.022921601 -0.016426716 -0.012557295 -0.009718867
-0.011508379 -0.02239254 0.009939536 0.016587084 -0.0013556599 0.0060163173 0.010981321 0.011189356
0.012393173 0.023709355 -0.01324302 -0.017699048 0.005953499 6.754378e-05 -0.006911826 -0.0075471955
-0.0098154275 0.0063471543 0.0072263717 0.0033092701 0.01806776 0.015613209 0.011677304 0.0082142595
0.00401075 0.0025290952 -0.0039106887 -0.0076369275 -0.005759415 -0.0041961437 -0.005633771 -0.0056505343

base_model.model.transformer.h.1.attn.c_attn.lora_A.weight f4 [8, 768]
00000000: 9982 0dbd c629 7a3d 9127 8dbd e5ba b2bc
00000010: 13ed 1cbc 15d6 34bd 59ad 5dbd a77e 7b3d
00000020: f76c 8cbb 3978 d33c 2711 283d 2553 83bd
00000030: 887d 0f3d c3b3 81bd 11c2 edbc f99a 27bd
00000040: 615a a2bd 5399 4cbd d676 543d 2925 833c
00000050: 42bf 3b3d 0619 173d ba81 7b3d 512e 453d
00000060: 3e6b deb8 ad06 453d 7f09 1bbc 1548 953b
00000070: e0ec 5dbd 4a6a 073d 1051 0fbd 64f9 6c3d
00000080: 32d5 713d 1618 6f3d 26b4 bebb 8683 4e3d
00000090: 4afd 4e3d 42be 19bd da48 2fbd b234 b6bc
000000a0: 2ffb 6b3a 54ba b33c 2fb1 8c3d 44e7 c1bc
000000b0: 539d 303d 570a 84bd 6394 033d 6454 723d
000000c0: a02e 513d dc96 37bb 166f 4e3b 2f36 80bc
000000d0: 8838 873b 8808 b4bb ca6b 383d ebf3 0fbd
000000e0: 945e 1abd 4886 d73c 9bb6 0c3d 08b8 35bd
000000f0: 29e5 c9bd e22b 2abb 7474 a0bd e9c1 5fbb
00000100: c21e 6fbd 065f 10bd f613 d6bd 98bf 053d
00000110: a7c7 eebb 428a 63bd e505 153d cdd0 1b3a
00000120: c51f d4ba b799 323c 6a67 803d 5a91 82bc
00000130: cef0 0f3d 59ed 43bd d5d0 74bd 2c7d 143d
00000140: 3963 a63c 4811 f23b 698a 3ebd d422 e53c
00000150: 0dee 77bd 6066 f23c 56ee d5bc 6989 2fbd
00000160: 9e23 8cbb b044 55bd bfea 38bd e3d4 c43c
00000170: 33b1 91bc 32d8 94bb f8e9 afbc 7a79 663d
00000180: a08e 2bbd 1806 52bc 86a7 0cbd 5bb1 8a3d
00000190: e266 c4bc 6eb9 593d 8c2f c13b e26d e5bb
000001a0: 44ab 04bc ea80 78bc f77a 663d 5d0e d2bc
000001b0: b7ba b83d 3dc2 42bd fb59 8cba d59b 36bd
000001c0: 3b8e 483c 45dc 3e3d eb57 8b3b 8cb0 f5bc
000001d0: 90c9 b5bb 3730 263d 240f 843c 568c 753d
000001e0: 5a0a 0ebd 4286 b4bd 5a39 70bd 9ec4 4fbc
000001f0: b3be b33c 26eb 813d 2173 d7bc 58c7 76bd
00000200: 3203 c13d 2d9b aabc c767 59bd a77b a93d
00000210: bb76 f6bc f779 6d3d 7655 193d 2598 91bd
00000220: c583 af3c 1322 a43d a5bc 83bc 96e2 29bd
00000230: 4d1a 83bd a16f 02bd 560c 9d3c 88f4 90bc
00000240: 064e be3c 875f 9bbd 2bc1 29bd 2696 a93b
00000250: e1de 96bd d910 92bc a48a 32bd 2b78 b2bd
00000260: 8404 23bc ba08 833d 9e6f d13c ccf4 523d
00000270: 3c58 453d c8ab 0bbd 28a7 dd3c edea a93c
00000280: 3daf 98bc 3094 98bd 1053 e0bc 2276 c43d
00000290: dd40 d23c fd9f 90bc 07ec 8abd 0191 4ebc
000002a0: ceaa 89bd 4278 aabc 77aa 6dbd 60d0 d73c
000002b0: d550 943c 7a39 c43a be6f f63c bb4c 18bd
000002c0: ac6c af3c 62b1 2fbc b0da 2e3c d937 a33d
000002d0: 01bc 583c 38ec 3ebd c006 7bbb 3c28 4dbd
000002e0: a447 133d 0f3e 1c3d c6f1 2ab8 8bd1 bdbb
000002f0: 7a35 3fbd d128 43bd 3580 3dbc 8e21 8a3d
00000300: 0c96 4a3d b401 9bbc 68e7 ce3b e344 6dbc
00000310: 20eb 59bc 2c89 1d3c a38d 353d 914d 2039
00000320: 36ac 2c3d 47f8 60bd e805 4fbd 44a7 3dbd
00000330: 9780 05bd ec9a 84bc 9851 c2ba 4530 cabc
00000340: f63a aa3c 8190 2abd 404c ee3a d7a1 3cbd
00000350: 629d 3a3d e2f7 853d 05b2 9cbc 57d1 fa3b
00000360: 3b4d 593c 81f9 31ba eec8 2b3d 776f f4b8
00000370: 9317 7ebc e916 203c f556 153d 11cd ef3c
00000380: 0ff6 813c 2168 933d 5fb9 b53d af4a 6ebd
00000390: bb6b 2b3c 2928 7c3c beae 16bd 418f b93b
000003a0: a7ad 433d d7ba 5ebc cf81 55ba 6241 fdbc
000003b0: 220b 133d 4794 e3ba e81d 4b3c a5cb 7fbc
000003c0: fc3f 273d cb19 8fbd 7938 723c 27ca 903d
000003d0: 355a 123d f6ac 8d3c 03b7 76bd 71b2 04bd
000003e0: f6e3 ac3b 7a63 1dbd 5674 823b 0f31 71bc
000003f0: 4cbe 47bc ebf9 8fbd c780 dc3c 0165 893d
-0.034548376 0.061074995 -0.06892312 -0.021817634 -0.009578007 -0.044149477 -0.054120395 0.061400082
-0.0042854506 0.025814163 0.041031983 -0.06412343 0.035031825 -0.06333115 -0.029023202 -0.040919278
-0.07927395 -0.04995091 0.051871143 0.01600893 0.045836695 0.0368891 0.061403014 0.048139874
-0.0001060576 0.04810207 -0.009462713 0.004555712 -0.05418098 0.03306035 -0.034989417 0.057855025
0.05904121 0.05837258 -0.005819815 0.0504184 0.050534524 -0.03753496 -0.042794086 -0.022241924
0.0009001968 0.021939434 0.068697326 -0.023669846 0.043118786 -0.06447285 0.032123934 0.059162512
0.051069856 -0.0028013503 0.0031499318 -0.015650837 0.004126612 -0.005494181 0.04502467 -0.035144728
-0.037687853 0.026309147 0.034353834 -0.04436496 -0.09858162 -0.0025966098 -0.07834712 -0.003414268
-0.058378942 -0.03524687 -0.10453026 0.03265342 -0.007286984 -0.055551775 0.036382575 0.00059438945
-0.0016183784 0.010900906 0.06269725 -0.01593845 0.03514176 -0.047833774 -0.05976947 0.036252186
0.020310985 0.007387314 -0.046518717 0.027970709 -0.060529757 0.029589832 -0.026114624 -0.042855654
-0.004276707 -0.05206746 -0.045145746 0.024027294 -0.01778469 -0.004542374 -0.02147387 0.056268193
-0.041884065 -0.012818836 -0.03433945 0.06772109 -0.02397484 0.053155355 0.0058955606 -0.0070016244
-0.0080974735 -0.015167454 0.056269612 -0.025641615 0.09019988 -0.04754852 -0.0010707969 -0.044582207
0.012240942 0.046596784 0.004252424 -0.02999141 -0.0055477098 0.040573325 0.0161205 0.059948288
-0.03467784 -0.0881467 -0.058648445 -0.0126811545 0.021941518 0.06343679 -0.026300015 -0.060248703
0.094244376 -0.020825947 -0.053077485 0.08275538 -0.030085912 0.057977643 0.037435018 -0.071090974
0.021425137 0.08014312 -0.016081164 -0.041475855 -0.06401501 -0.03184474 0.019170921 -0.017694727
0.023230564 -0.0758658 -0.041443985 0.00517537 -0.073667295 -0.0178303 -0.04358925 -0.087143265
-0.009949807 0.06398149 0.025565919 0.051502988 0.04817985 -0.03409937 0.027057245 0.020741904
-0.018638248 -0.074501395 -0.027383357 0.095928445 0.025665695 -0.017654413 -0.067833 -0.012607814
-0.067220315 -0.020809297 -0.058023896 0.026344478 0.01810495 0.0014970743 0.03008258 -0.03718255
0.021414123 -0.010723444 0.010672256 0.079696365 0.013228417 -0.046611995 -0.0038303584 -0.0500872
0.035956994 0.03814512 -4.0756328e-05 -0.0057928017 -0.04668186 -0.047646347 -0.0115662115 0.06744681
0.049459502 -0.01892171 0.006314207 -0.014481756 -0.013300687 0.009615224 0.04432453 0.00015287685
0.04215642 -0.054924276 -0.050542742 -0.046302095 -0.032593336 -0.016187154 -0.0014825342 -0.02468122
0.020780068 -0.041641716 0.0018180683 -0.04605278 0.04556025 0.065414205 -0.019127855 0.00765435
0.013263042 -0.0006789193 0.04193967 -0.000116555886 -0.01550855 0.009771087 0.03645988 0.029272588
0.0158644 0.071975954 0.08873247 -0.058176693 0.010462697 0.015390434 -0.03678774 0.005662829
0.04777303 -0.013594351 -0.0008144648 -0.030914966 0.03589929 -0.0017362916 0.012397267 -0.0156125175
0.040832505 -0.069873415 0.014783972 0.070698075 0.03573056 0.017294388 -0.060233127 -0.032396737
0.0052761985 -0.038424946 0.0039811535 -0.014721169 -0.012191366 -0.0703009 0.026916875 0.06708718

base_model.model.transformer.h.1.attn.c_attn.lora_B.weight f4 [2304, 8]
00000000: 0e56 16bc 078d 213c bbc4 8fbb ff0c d83b
00000010: 3c1a f13b 357f b53b 8a6d c03b 6f9d f3bb
00000020: 1296 dd3b 5c42 1f3b 9992 373a ca10 893c
00000030: f0c2 25bc d597 2ebc d606 14bc 7f2a 323b
00000040: 122a 5bbb 5b2c 9b3b 3fda aabb 2ea2 b43b
00000050: bbd3 1bbc 7950 f6bb 21d4 e8bb 2ed6 59bb
00000060: cc06 c2bb 57a2 263c b5a6 60bc c777 eb3a
00000070: 858e 213c 5b41 523c 582c 193c 07fe e5bb
00000080: 2fc3 2f3b 42e0 55bb 3c68 e239 d1cd 213c
00000090: 59b6 053b 912d 9c3a 21af 303a 1b83 993b
000000a0: 9a0f c03c 46b3 d8bc a885 bd3c 2beb ac3c
000000b0: c09d d1bc 8475 dabc 354f a6bc a610 e83c
000000c0: 6cb4 e23a e229 9fba a001 93ba 9a6b c8ba
000000d0: a2da bebb c419 c7bb 3d27 abbb 7684 41ba
000000e0: 5427 adbb 7dac 763b 881a c6bb a4ba 54b9
000000f0: 3a44 a03b be8d 683b 091a 9b3b 6f9f b3ba
00000100: 5a05 d5ba bfb4 003b 1f52 40bb 426f 673a
00000110: de59 e03b 48d3 043c 4821 f53b 7b73 283a
00000120: 603a 09bc 4f90 e1b9 1760 05bc bc13 aabc
00000130: 2540 6c3c 6df8 5e3c c3bc 323c 5475 c9bb
00000140: 2980 a33a 0ed7 37bb 2fd1 5e3c 54ff 713c
00000150: 982b 46bc 7d25 73bc 1668 1fbc 6cf1 843b
00000160: 4d09 8d3c 0a8c 94bb 57e8 0d3c 74ee 5b3c
00000170: 2c5a 1bbc 7ac6 eabb 469a afbb 1fd4 6c3c
00000180: 8bfa 4bbb 892a 3b3c 94f4 dbbb 5c90 473c
00000190: bb23 8fbb c24e 81bb 2d25 bdbb 1070 f8bb
000001a0: 4851 633c f70f 28bc 53dc fd3b 10f2 4bbb
000001b0: 4238 053b 4648 453b 85b6 dd3a aff9 653c
000001c0: cc87 fcbb 5b93 d73b e0b3 003b eb5d b2bb
000001d0: 90c1 753b bf0b 783a 4b40 62bb 3126 3dbc
000001e0: d574 343c f508 f8bb be02 0f3b be35 333c
000001f0: 73a9 f3ba 6345 82ba c78a 5f3b 4d0c 553c
00000200: 7a93 63ba 04a1 a0bb 80f0 363c 7ad8 073b
00000210: 053d 0ebc 6489 33bc 81ed 10bc 3958 053a
00000220: 458f b13b aca0 8e3a dec1 1cbc cf96 b53a
00000230: 9aea a63a 47a1 ab3b dc6a b43b 7cd6 4e3b
00000240: 1190 703c 2c37 6cbc 8e33 ad3c 0979 f13b
00000250: ee82 0fbc 2e79 2ebc 06a7 1ebc 8ad6 743c
00000260: da03 f9bb b211 2e3c 533d 5abc 1101 d93b
00000270: 9106 693b d4f9 9d3b 7892 743b 5db6 f4bb
00000280: 01da 843b 22a2 49bc 2b0a d03b 5067 e2bb
00000290: f7c8 0cbc b36d fdbb ce82 cfbb 944a fe3b
000002a0: 4b52 cfbb a050 053c 266e 6fbb a36e 823b
000002b0: c885 caba 9320 52bb 7292 75bb 5b05 08bc
000002c0: 707f e6bb 7c32 53bb f964 713b b0b5 17bc
000002d0: 02d7 603b 69b6 453b a564 463b 73a1 8bbb
000002e0: eeac 49bc 27c2 b8ba fef6 e9ba 433b 92bc
000002f0: 16f9 593c df00 543c 88c3 493c 41a0 0fbc
00000300: 0e2d 7bbb 0dce 083c 545d 83bb 8ec0 0bba
00000310: fe40 e1bb aefd 09bc 349b e9bb a432 ffbb
00000320: eeb0 d93b 1e1d 20bb bf82 013c 3a97 8d3c
00000330: ec11 48bc e063 32bc f745 d3bb 724a 1a3c
00000340: 4563 8abb e7af e43a d760 2dbb 7266 36bc
00000350: 8b1c 303c 32b2 103c c775 f23b f6a6 feba
00000360: 03fd 9f39 4cf7 ca3a 1681 a73a 9402 de3b
00000370: a3ff 8e3b d795 783b fd06 0d3c 42d0 673b
00000380: d6a7 a0bb c2f0 8bba 75f6 30bb 108f e6bb
00000390: 89a9 103c 226a 113c 6f7b e93b fb79 bdba
000003a0: d178 943c 86ae a5bc 5548 983c dfeb 753b
000003b0: f696 36bc 5278 f5bb 689c 50bb ba2b ba3c
000003c0: 0545 843b 9d3b 633a e1ed c73a 85e8 0f3c
000003d0: 7848 0bbc 0f4b 12bc 578b 02bc f57f b03a
000003e0: 7d12 49bc 88a8 6f3c f8b3 9bbc ff94 4fbc
000003f0: 3274 813c 7355 613c af93 463c a7b3 7abc
-0.0091757905 0.009860284 -0.004387466 0.006593346 0.0073578637 0.005538846 0.005872433 -0.007434539
0.0067622745 0.0024301028 0.0007002741 0.016731638 -0.0101172775 -0.010656317 -0.009034833 0.0027185974
-0.0033441824 0.004735512 -0.0052140052 0.0055124974 -0.00951093 -0.0075169173 -0.007105366 -0.0033239233
-0.0059212204 0.010170541 -0.013711621 0.0017964774 0.009860639 0.012832965 0.009348951 -0.007018808
0.002681922 -0.0032634889 0.0004318374 0.009875731 0.0020402877 0.0011915435 0.00067399634 0.0046848184
0.02344494 -0.026452672 0.023135021 0.02110823 -0.025587916 -0.026667364 -0.02030144 0.028328251
0.0017296202 -0.0012143219 -0.0011215694 -0.0015290857 -0.005824403 -0.0060760695 -0.0052231834 -0.0007382104
-0.0052842293 0.0037639432 -0.0060456432 -0.00020287425 0.0048909457 0.0035484876 0.0047333282 -0.0013704131
-0.0016252205 0.0019638983 -0.0029345823 0.00088285294 0.0068466505 0.008107014 0.007480774 0.00064258993
-0.008375734 -0.00043022863 -0.008140585 -0.020761363 0.01441959 0.013609034 0.010909262 -0.00614802
0.0012474108 -0.0028051767 0.013599678 0.014770348 -0.0120953545 -0.014840481 -0.009729406 0.0040571
0.017216349 -0.0045332955 0.008661351 0.013423551 -0.009481948 -0.0071647735 -0.005358967 0.0144548705
-0.0031124677 0.011423715 -0.0067125056 0.012180414 -0.004368273 -0.0039461562 -0.005772254 -0.0075817183
0.013874359 -0.010257713 0.007747212 -0.0031119622 0.0020327722 0.0030102893 0.0016915357 0.01403658
-0.007706618 0.0065788454 0.0019638464 -0.005443325 0.0037499405 0.00094621995 -0.0034523185 -0.01154475
0.011014183 -0.007569427 0.0021821703 0.010938106 -0.0018589929 -0.0009938892 0.0034109817 0.013003421
-0.00086813385 -0.004902007 0.011165738 0.0020728395 -0.00868154 -0.010958049 -0.008845688 0.00050866936
0.0054186904 0.0010881624 -0.009567706 0.0013854149 0.0012734712 0.0052377316 0.0055059027 0.0031560948
0.014682786 -0.014417451 0.021142747 0.007369165 -0.008759243 -0.010649009 -0.009683376 0.014943728
-0.007599336 0.010624336 -0.013320285 0.0066224416 0.0035556892 0.0048210416 0.0037318747 -0.0074680285
0.0040543084 -0.012306722 0.0063488684 -0.0069092885 -0.008592836 -0.0077340244 -0.006332732 0.0077603552
-0.0063269488 0.008136898 -0.003653416 0.003980474 -0.0015451247 -0.0032062873 -0.0037471321 -0.008302058
-0.0070342347 -0.0032226136 0.0036833866 -0.009259626 0.0034307842 0.003016854 0.003027239 -0.0042611896
-0.012309296 -0.0014095948 -0.0017850099 -0.017850524 0.013304016 0.012939661 0.012314685 -0.008766235
-0.0038326415 0.008349908 -0.0040089283 -0.0005331122 -0.0068742028 -0.008422298 -0.0071290974 -0.0077880193
0.006643406 -0.0024431418 0.007904707 0.017284025 -0.012211304 -0.01088807 -0.0064475494 0.009417163
-0.0042232596 0.0017447443 -0.0026455426 -0.011132823 0.010748993 0.008831548 0.007399294 -0.001942842
0.00030515352 0.0015485077 0.001277956 0.0067752097 0.0043639704 0.0037931108 0.008607623 0.0035371934
-0.00490282 -0.001067661 -0.0027002369 -0.0070360973 0.008829483 0.008875402 0.00712531 -0.0014455909
0.018124016 -0.02022482 0.018589178 0.0037524623 -0.01114439 -0.00749115 -0.0031831507 0.022725929
0.004036548 0.0008668246 0.0015253389 0.008783464 -0.008501165 -0.008929028 -0.0079677915 0.0013465869
-0.012272474 0.014627583 -0.019006714 -0.012669801 0.015802477 0.013753283 0.012120171 -0.0153016215

base_model.model.transformer.h.2.attn.c_attn.lora_A.weight f4 [8, 768]
00000000: 9eaa babd 3704 243d 487d da3c a1e7 493c
00000010: 2d5e 15bd 89e3 b53b c07a 56bc eba0 2a3d
00000020: 3404 f0bd 9d7e 4dbc 43ea a93c 7c4b 2dbd
00000030: a845 12bd 5bda 3ebd 6f12 d6bc 5fbc 113d
00000040: 44b6 14bd a307 1abd 659f 263d 4fb4 5e3d
00000050: a68f 703c ec2f d9bc 819b 013e a9c9 383d
00000060: 8767 8eba 6999 1d3d 1e51 83bb 9fae 0c3d
00000070: 1569 78bd dbf6 bcbc afe3 24bd d6d4 a73d
00000080: 39b9 493d b3fe 633c 93a6 083d 50bc 81bd
00000090: 1113 3f3d 8934 973d cdd8 b2bd 8e39 5ebd
000000a0: 2708 48bd c70c 8bbd bcd3 963c 7073 38bd
000000b0: 7831 a83d 3e38 133c 7577 31bd c556 2abc
000000c0: 9351 9d3d eb43 073c ec8f 413d c335 b53b
000000d0: 89aa c73b da1c 863d e2d2 1b3d 26ca 973c
000000e0: d583 8c3c 72ce cd3c 38fc 84b9 81dc 06bd
000000f0: f892 83bd 7729 97bc 2bab 63bd 6408 c2bc
00000100: ea21 89bd 0680 803d a0ad 403c 3f63 acbb
00000110: f659 1dbd 07d8 cfbc 87b8 1b3d fcf6 b73c
00000120: c8f7 2fbd 5ceb 9dbd 3344 37bd 3728 61bd
00000130: 79be 703d a662 3dbd 9552 debc f01b ce3a
00000140: 912e 2a3d d15f 7ebc a995 7bb9 324c 313c
00000150: e8e5 0ebd b107 363d 265d 75bd b5a3 2a3d
00000160: 472c d33b e377 b8bc fe44 ee3c 9915 39bd
00000170: 08b5 d7bc f7cc 7ebd 6606 5cbc b727 3abb
00000180: 9b41 b7bc eeef a9bc d55c 2f3c d45a 013d
00000190: d007 60bb 08b3 523c 7e7b 603d dcf7 253d
000001a0: dbe9 1e3c 1198 733d b06e 853c 29df 7bbd
000001b0: cb22 3e3c d276 b0bd 6302 3dbd 772e 923c
000001c0: 8821 1abd 2a40 1a3d 93a3 8f3c dbd5 04bd
000001d0: 5a7b 613d 7625 103d a607 0c3d eb0d a93d
000001e0: 247d 3abd e398 58ba dcf8 73bc b814 70bb
000001f0: f1d8 013d a098 da3c b817 28bc df7d e43c
00000200: eb21 d93d e28f 14bd ecfa 8e3c 43a3 d43d
00000210: 7b1e b6bd e402 4abd b687 e53a d4ce b13c
00000220: 0727 95bc eb07 1e3c 4e8b b5bc c451 8fbd
00000230: 34d9 85bd a59b 12bd 0b4b 673d b426 5e3c
00000240: 9e77 bbbc 9893 c93c 26e8 05bd 563f ca3d
00000250: d2f3 233c 1474 7abd 1e74 c5bd 599a b8bc
00000260: 13e7 c33d b972 49bd 14d7 953d 5ad0 3e3d
00000270: 7aaa 4a3d 1e5c 433d 4e52 7cbc 4ce3 603d
00000280: d18c 2e3d f2c1 9bbd c54e 83bd 0c83 413d
00000290: bc25 aeba e50a 63bd 5c90 b33c 54fb 4e3d
000002a0: 734e 18bc 020a 93bd 5f10 053c 9535 2b3d
000002b0: b193 06bd 89bf 5e3d 4fc9 00b9 55dc 853c
000002c0: 76c5 a23d bf22 ac3c 7fe3 943d c4b0 203d
000002d0: b976 30bd d09b 353c 5184 d03c 6e73 18bd
000002e0: 24b2 55bd f2bf 32bd b504 d03c 7dde 0f3d
000002f0: 3d5f 433a fb57 02bd f5a5 9fbc 7089 323c
00000300: f7b8 8ebb 2d54 143c 41fe 533d 8428 3c3c
00000310: bf4b db3c 8c01 0cbc 704d 8cbc 1022 5c3d
00000320: 6b29 a3bd 2a5b a1bd 465b 0cbd 8e65 513c
00000330: eb21 80bc ec0f a9bd 9943 7bbc cfde c9bc
00000340: c502 943d 8e8d c6bc 2bda 183d 6307 cd3c
00000350: 166f 7d3d 5c70 153d 788b 763b efdb 0cbb
00000360: daba 413d b22d f73c e397 423c 605e f9bc
00000370: 635d 053d 65ce 663d e936 54bc 61ac b23d
00000380: d95a fbbb 6179 e8bc 2b77 e33b 98f2 50bd
00000390: f74a 9e3d 4f77 c23c 5d87 acbb b22b e83c
000003a0: b3f7 493d a5a5 893d ee78 f4bb 3c9b e3bc
000003b0: fe73 233c 7710 993c ab3d fa3b de24 e1bd
000003c0: ffd1 203c b83a 68bd 3e42 f4bc c4d9 063d
000003d0: f6e0 4dbd 8f36 85bc b8a2 e6bd 29a9 993b
000003e0: 729e c5bc 018e 54bd e453 c5bb 8310 a33d
000003f0: 1c0d abba e7aa 4bbd 94f7 cf3b f080 e73c
-0.09114574 0.040043082 0.026671067 0.012323291 -0.036466766 0.005550806 -0.013090789 0.04165737
-0.11719552 -0.012542394 0.020741588 -0.042308316 -0.03571096 -0.04659496 -0.026131837 0.035580035
-0.036306635 -0.03760494 0.040679354 0.054371174 0.014682686 -0.026512109 0.12656976 0.045114193
-0.0010864594 0.03847638 -0.0040074727 0.03434622 -0.06064709 -0.023066929 -0.0402562 0.08194892
0.049248908 0.0139157055 0.033361983 -0.06334746 0.046649043 0.07383067 -0.08732758 -0.054254107
-0.0488359 -0.067895465 0.01841151 -0.045031965 0.082125604 0.008985577 -0.043326814 -0.010396664
0.07681575 0.008255939 0.047256395 0.0055300905 0.0060933274 0.06548472 0.03804291 0.01852901
0.017152706 0.025122855 -0.0002536492 -0.032925133 -0.064245164 -0.01845239 -0.05558316 -0.023685642
-0.06695922 0.062744185 0.011760145 -0.0052608545 -0.03841587 -0.025371565 0.038017776 0.022456639
-0.042960912 -0.07710907 -0.044742774 -0.054969992 0.0587754 -0.046236657 -0.027138988 0.0015724879
0.041548315 -0.015525774 -0.00023992978 0.010821389 -0.034887224 0.04444093 -0.059903286 0.04166003
0.0064444873 -0.022518104 0.029085632 -0.045186613 -0.02633144 -0.06220719 -0.01342926 -0.002840502
-0.02237015 -0.02074429 0.010703285 0.03158076 -0.0034184344 0.012860067 0.05480527 0.04051958
0.00969931 0.059471194 0.016288131 -0.06149212 0.011604975 -0.08616413 -0.046144854 0.017844422
-0.037629634 0.037658848 0.017534053 -0.03243051 0.055049278 0.035191976 0.03418698 0.08254608
-0.0455295 -0.0008262528 -0.014890876 -0.0036633443 0.031701032 0.026684105 -0.010259561 0.027892051
0.106021725 -0.03627003 0.017453633 0.10382702 -0.088925324 -0.049319163 0.0017511758 0.021705069
-0.018207086 0.0096454425 -0.022161152 -0.069980174 -0.06535569 -0.035792965 0.05646805 0.013559032
-0.022884186 0.024606511 -0.032692097 0.098753616 0.010006862 -0.061145857 -0.09641288 -0.022534536
0.09565558 -0.049181674 0.073164135 0.04658542 0.049478985 0.04769527 -0.015400482 0.054904267
0.04261476 -0.076053515 -0.064115085 0.047244117 -0.0013286392 -0.05543031 0.021919422 0.050532654
-0.0092960475 -0.07179643 0.008121579 0.041799147 -0.032855693 0.05438188 -0.00012282025 0.016340414
0.07947819 0.021012662 0.07269954 0.039231077 -0.043081973 0.011084512 0.025453718 -0.037219457
-0.05217184 -0.043640085 0.02539287 0.03512429 0.0007452851 -0.031822186 -0.019488314 0.0108970255
-0.0043555456 0.009053272 0.051756147 0.011484269 0.026769517 -0.008545291 -0.017126769 0.053743422
-0.07966884 -0.07878716 -0.034266733 0.01278056 -0.015641173 -0.0825499 -0.015335941 -0.024642376
0.07227091 -0.02423742 0.037317436 0.025027936 0.061873518 0.036484107 0.003761975 -0.0021493395
0.047297336 0.030173156 0.011877033 -0.03044051 0.032559764 0.056349177 -0.012952545 0.08724285
-0.007670742 -0.02837819 0.006941696 -0.051012605 0.07729142 0.023738531 -0.00526516 0.028341148
0.04930849 0.06721047 -0.007460705 -0.027783982 0.009976385 0.018684609 0.007636746 -0.1099336
0.009815692 -0.056696624 -0.029816743 0.03292252 -0.050263368 -0.016261367 -0.11261505 0.004689355
-0.024123404 -0.051893238 -0.0060219634 0.07962134 -0.0013050172 -0.049723532 0.0063466523 0.028259724

base_model.model.transformer.h.2.attn.c_attn.lora_B.weight f4 [2304, 8]
00000000: 7e28 8ebb e70a 973b 5469 6f3c 9601 a3ba
00000010: 0d3e 9939 5eb6 d0bb 783d 143b 41d3 b13b
00000020: e925 b03c b41e 90bc 0d7e 8ebc 3458 593d
00000030: cc88 123c a669 b13b 9779 a0bc a0cb babb
00000040: 0353 c13c 9e6b 3cbd f07b 18bd 02da ee3c
00000050: 3847 ce3c 07a4 423c 3828 283c 9a34 bfbc
00000060: 9c4d 5abc 76e7 403a 2850 e1bb c983 41bb
00000070: c4a4 1fbb 64fe 40bb 1e24 febb eea6 9eba
00000080: e5e8 05bc 196e a53c 2f62 a43c 9dae acba
00000090: 6ec6 ddbb c397 6abb 3b87 38bc 7fa1 2b3c
000000a0: 379c e23b 3126 9639 b01c 25bc b189 923c
000000b0: 7c71 d8bb 3f53 4e3b b28f b1ba 0434 24ba
000000c0: bf2b 37bb 0b0b 163c f789 4c3c d789 04bd
000000d0: 0ed4 653a eccc 4fba 9e38 913c 0458 0e3b
000000e0: 9378 30bc 0f44 483c f3f1 c43c 80cb b4bc
000000f0: 1ec7 0c3c 747f 0dbc c00f f13b cd9a d53b
00000100: 5828 36bc 9366 353c 2297 7b3c a636 a13b
00000110: b7b5 81bb 4255 b0bc 32d7 8bbb f087 8f3c
00000120: 20d3 073b 40aa 1abb 6641 73bc 5f29 053c
00000130: 6be4 3fbb b047 52ba dbf3 333b 840d a73a
00000140: 0531 82bb 20d5 10bc 6d43 30bc 4740 b83c
00000150: 24d3 16bc fafd 8bbc f082 b6bb 750f 523c
00000160: 43bd 0b3c ddaa 6e3c d228 d6b9 1a5c 40bb
00000170: 47e7 e4bb ef64 403a 4305 913b de98 703b
00000180: b868 bb3c d73f c8bc 328a abbc 99d8 db3c
00000190: ce02 293c 5a6a e03b 3b72 ec3a c805 b6bb
000001a0: a24a 8ebc 557d e73c 45dd 933c 972c 07bc
000001b0: bc81 3ebc 5d71 3dbc e438 59bc 3465 5a3c
000001c0: d787 953b 719a 18bb 7a3d a2bb 672d 7ebc
000001d0: 2a2f ef3b bc74 563c 1f23 bb3b fd1f 37bc
000001e0: 23bd 10bc 4221 8c3c adfd cb3c 1875 a5bc
000001f0: 9c73 15b9 4ff8 1ebb 1804 96bb b9ac 883b
00000200: 9fa4 c1ba 7f4e 14bc b7e6 633c 749d 89bc
00000210: a308 453c 390e d93a e29d e1ba 0cb7 1bbb
00000220: d09c c23c 7ec3 bcbc fb77 9abc bde3 18bc
00000230: 90e7 9c3c ecb0 633c 89d0 c73c 59fa 54bc
00000240: 22ef 833b ae7b 713b 1c6e 84bc 4f89 843b
00000250: 39f4 d1bb 4080 9fba de2b e738 7847 863b
00000260: 7e11 99bc 1d18 b73c d3c7 cf3c 6f06 013c
00000270: 0715 6abc cbb0 d9bc 6681 d8bc 4bb9 bb3c
00000280: 7d38 6db9 9080 673c b073 d53b 8d9a 113c
00000290: 5a82 76bc f82c 763a 3a14 9dbc 960e cc3a
000002a0: 7e8f 72bc ca07 893c bd00 bc3c ccd1 8abc
000002b0: 6ae5 26bc 9ba5 42bc 2ce6 adbb 071f 653c
000002c0: 263d 453b 1494 b7bb a0e6 1abc 89d5 57bb
000002d0: c283 0f3a c218 743b b43c ab3b de99 75bb
000002e0: ce17 16bd 30b9 063d d66a 533d 8b2e ddbc
000002f0: 7613 7cbc 7df1 98bc 2523 92bc 085a b03c
00000300: d62b 063b 62da 39bc 1706 15bd d593 ef3c
00000310: 6d83 53bc c9f1 afbb 9921 2d3b bf48 8dba
00000320: 1e6c a13c 329f 373b f78e 04bc 0eaa cb3c
00000330: 79fb e93b 77d5 3f3b 286b 3e3c 019e 9fba
00000340: bf54 75bc 252b 8d3c 51e4 193c 6496 47bb
00000350: b737 3dbb 774f 4cbc b634 58bb 8d2b 353c
00000360: cec7 1e3b 01fd 753a 0ad7 1cbb 87d7 84bb
00000370: 77a9 1ebc fc9c 21bb bedf fa3b 9950 a33b
00000380: e3c5 743c f191 c0bb 9296 cfbc 1147 1c3c
00000390: 775d 123b db41 8b3b ff0c 9c3b 97ee 93bb
000003a0: fd04 e4bc cbb8 b33c 5a36 ea3c 6976 38bd
000003b0: f06e 27bb d11a 21bc 4b52 bdbb 66ad 1e3c
000003c0: 1c99 46bc ed5b 953c bc0c a83c 8e06 81bc
000003d0: bfda d0bb 3d5c 08bc 6631 cebb 683d 1a3c
000003e0: dbcd 7b3c 6c79 1dbc 9c01 22bc 670a 333b
000003f0: b0d0 483b 7df4 623c 44b8 a13b 49e8 37bc
-0.004338323 0.004609454 0.0146125145 -0.0012436386 0.00029228666 -0.006369396 0.0022619646 0.0054267948
0.021502452 -0.017592765 -0.01739409 0.053062633 0.008943748 0.0054142056 -0.019589229 -0.0057005435
0.023599153 -0.04600107 -0.03722757 0.029156689 0.025180444 0.0118799275 0.010263495 -0.023340512
-0.013324168 0.0007358709 -0.0068760104 -0.0029528013 -0.0024359683 -0.0029448504 -0.0077557703 -0.0012104192
-0.008173202 0.0201941 0.020066349 -0.0013174597 -0.0067680394 -0.0035796023 -0.01126271 0.010475515
0.006915595 0.00028638684 -0.01007764 0.017887922 -0.0066053253 0.0031482724 -0.0013546853 -0.00062638544
-0.0027949659 0.009157906 0.012484065 -0.032358017 0.00087672553 -0.0007926959 0.017727192 0.0021719942
-0.010770935 0.012223258 0.024041152 -0.022069693 0.008592395 -0.008636344 0.007356614 0.006518698
-0.011118017 0.011071819 0.015355857 0.0049198447 -0.0039584297 -0.02152503 -0.0042675966 0.017520875
0.0020725206 -0.0023600012 -0.014847135 0.008127539 -0.0029280435 -0.00080215465 0.0027458582 0.0012745117
-0.0039731287 -0.008839875 -0.010758263 0.022491587 -0.009205613 -0.017088879 -0.005569808 0.012821068
0.00852901 0.014567104 -0.00040847674 -0.0029351772 -0.006985578 0.0007339259 0.004425676 0.003671221
0.022877082 -0.024444504 -0.02093992 0.02683668 0.01031561 0.0068486156 0.0018039414 -0.0055548884
-0.017369572 0.028258005 0.018049845 -0.008250377 -0.011627611 -0.011562672 -0.013258193 0.013329793
0.0045633125 -0.0023285414 -0.0049511762 -0.015513754 0.0072993236 0.013089355 0.005710974 -0.01117706
-0.008834156 0.017105702 0.024901235 -0.020197436 -0.00014252815 -0.002425689 -0.0045781247 0.004170981
-0.0014773792 -0.009051918 0.013909987 -0.016798712 0.012025985 0.0016560025 -0.001721319 -0.0023760227
0.023756415 -0.023042437 -0.01885604 -0.009331641 0.019153386 0.013897162 0.02439143 -0.012999141
0.0040263096 0.00368474 -0.016165785 0.004044689 -0.0064072874 -0.0012168959 0.00011023109 0.004097875
-0.018685099 0.022350365 0.025363838 0.007875069 -0.01428724 -0.02657356 -0.02642889 0.022915503
-0.00022623125 0.014129773 0.006514035 0.008886945 -0.015045727 0.0009390856 -0.019174684 0.0015568312
-0.014804719 0.016727347 0.02294957 -0.016945742 -0.0101865325 -0.011880304 -0.0053069796 0.013984448
0.0030096262 -0.005602369 -0.009454399 -0.0032933673 0.00054746505 0.0037246202 0.0052257422 -0.0037475745
-0.036643796 0.032891452 0.05161556 -0.026999732 -0.015385499 -0.018669838 -0.017839024 0.021527305
0.0020472906 -0.01134357 -0.03638276 0.029245296 -0.012909752 -0.005369399 0.002641773 -0.0010779126
0.019704875 0.0028018472 -0.008090726 0.024861362 0.0071405736 0.0029271522 0.011622228 -0.0012177826
-0.014973818 0.017232487 0.009392814 -0.003045463 -0.002887232 -0.012470118 -0.0032990403 0.011057747
0.002422798 0.0009383709 -0.0023931884 -0.004054013 -0.009683958 -0.002466022 0.0076560667 0.004983973
0.014939758 -0.0058767726 -0.025340352 0.009538428 0.0022333541 0.004249794 0.0047622914 -0.004514526
-0.02783441 0.021938702 0.02859037 -0.0450348 -0.0025548302 -0.009833054 -0.0057776324 0.009684896
-0.012121465 0.01823231 0.020513885 -0.015750196 -0.006373733 -0.008322773 -0.00629251 0.009414054
0.015368904 -0.009611469 -0.009888079 0.0027319433 0.0030641966 0.013852236 0.0049352963 -0.011224815

base_model.model.transformer.h.3.attn.c_attn.lora_A.weight f4 [8, 768]
00000000: 5e17 03b9 3402 a83c 2ad2 ea3c 64df 5cbb
00000010: 3afa 943d 2836 d03c c9d5 bfbd c7bd 46bb
00000020: 9f06 4d3c c268 aabd 609d b33c 12b4 1ebd
00000030: 8cb0 db3c 6d4a 0cbd d33e ac3d 2398 95bd
00000040: 9754 0c3d 3d85 87bb 2e78 0cbc 6450 36bd
00000050: 9ab3 3cbd 4ff9 bf3d 8191 a7bc 22ef dcbc
00000060: 06c4 463d 2635 753c 31cd 2abd 5f12 3dbd
00000070: 8024 c9bc 0bab 4abc 1341 8d3c eb0f 1ebd
00000080: 3ba9 56bd fcfe 08bb 4db0 15bd 1d13 1f3d
00000090: 7deb 4cbc f597 32bd dbef d23b 71f0 4f3d
000000a0: 3bcc 3b3c b13a a93d d4fc 38bc 15d1 2c3d
000000b0: 8f0d 4b3d d1c5 30bd fdc6 823d 611f 90bd
000000c0: 02ce 84bd 0a0d 4a3d 184b 1bbc 9d85 7c3d
000000d0: 74f5 24bd 15cf 1bbd bb13 f63c c6fc 873d
000000e0: e4d3 5e3b a5ed 06bd 89b5 26bd 28be 6a3d
000000f0: b063 1fbc f1ef 1f3b 3b53 af3c bdbf 803c
00000100: 4a99 933d bdc7 4d3d a868 913c 3a9a 4d3d
00000110: 9edd 353b c7d4 3d3d b706 31bd 58cf 373c
00000120: 1591 be3d c125 6fbd 26c3 733a b400 b03d
00000130: 4177 b1bb 26b5 8b3d 841e 6d3b 5693 67bc
00000140: 3523 a53d 563b ddbc a5eb c3bc 10ac 2fbc
00000150: 9d54 d2bc 93b3 a6bd 6946 32bc 0cee c6bc
00000160: 177e 73bc 04ca b03d f0ff 2cbd 6426 cbbc
00000170: d9d8 4b3d f3c2 3b3d fac2 1a3d b5d2 65bd
00000180: a715 33bd a57d 573c 2b1e 6b3c 40d8 1f3c
00000190: 723e af3d 9acf 8abd 5ee9 bfbc e2d9 ddbc
000001a0: 5b89 553d 0432 f0bc 4b9b cabc 3c68 99bc
000001b0: 8402 04bc 66c8 58bb e1d8 3e3d 6611 183a
000001c0: 57f6 e83b 6f8c 24bc dbc7 803d 47b1 823d
000001d0: f0a6 5dbd 86e5 4f3d be1c ecbc 0784 8dbd
000001e0: 95d8 e5bc 8e71 b9bb 61a5 643d 7228 903b
000001f0: b94e 59bc 7c40 dc3d a06d e03d 8dba bc3c
00000200: cddb 043d 46bb 353d d7eb 98bb 1117 793b
00000210: a1c1 35bc 8e68 b5bd 2839 243d d194 82bd
00000220: 8b52 1b3c 0af0 11bc 80a4 2ebc d1cb 543d
00000230: 4d59 9b3c 10c4 74bd 6651 6abd 8fd9 633d
00000240: 4ba9 1e3d 93d1 f43c 509c 853d 3539 0cbd
00000250: e631 1abd e10e 913c e9cf f63b e67d ce3c
00000260: f1b8 783c ec7d c23d 5d83 96bd e5f8 c73c
00000270: e44d 88bc 8694 183d 1468 93bd e94f c2bc
00000280: 1a1e d4bc 404d 063d ee12 a4bd 5860 f13c
00000290: a5e7 c83c 1741 2d3d 4014 edbc f50b 593c
000002a0: fe05 79bd 646d 523d 33f4 49bd 9b7f 383d
000002b0: 06b0 363d 9e35 4dbd e300 1f3d 27a3 d23c
000002c0: 82cc 953b e8d7 4ebd 4ed2 a0bd 83eb c4bc
000002d0: 2b74 763d fec8 63bd c7b4 ef3c 4e96 343d
000002e0: 1830 8cbc adbf 50bd 8cc2 163d 3b76 71bd
000002f0: 7f53 4f3d 8619 4bbb a796 55bd 140c 5abb
00000300: 353c 963d 163d 00bd 03c3 f73a 6563 af3d
00000310: c63e 18bb 0a16 103d 645d 73bc 41f8 95bc
00000320: ba66 b63b 3366 1539 e1b2 d2bc 324f 6f3b
00000330: cd7c ce3c 7b9e 37bd 4d4c aabd 4a8a 243c
00000340: e2ab 10bd 2f41 86bc 618a 2c3c dd04 af3d
00000350: 027b 723c 856c 55bd 6e7a 5dbd cd1c 58bc
00000360: cd0a 093d 0820 8ebc 643e 343c 95d2 643d
00000370: 56ac 6abd cc41 c5bc 3f4f 7ebc dd50 e3bc
00000380: 0d06 473d 8d07 313d 060e 3f3d 7742 6cbd
00000390: 5a48 9a3c 76e7 b3bd b269 973d ba2c b5bd
000003a0: b5dd 1dbc 5a23 5c3c c1ca 0abc 16ae 8e3d
000003b0: f0a2 e5bb 64be 92bd b1dd 9c3c c12c 083d
000003c0: c331 b3bc bf56 4b3d d237 65bd 790e 2dbc
000003d0: 4ad9 7cbd a23c 1b3d 17be 0c3d e3c9 95bd
000003e0: 08a4 95bd be62 623d ec0d b83b 63e2 50bc
000003f0: ad93 86bd 299c 39bd 4039 48bd 4d7c 8d3c
-0.00012501839 0.020508863 0.028664667 -0.0033702487 0.072742894 0.025416449 -0.09366948 -0.0030325518
0.012513786 -0.08320762 0.021925628 -0.038745947 0.026817583 -0.034250665 0.0841042 -0.073044084
0.03426036 -0.0041357563 -0.008573575 -0.04451026 -0.04606972 0.09373724 -0.020455124 -0.026969496
0.048526786 0.014966285 -0.041699592 -0.0461601 -0.024553537 -0.012369881 0.017242944 -0.0385894
-0.052407485 -0.0020903936 -0.036545087 0.038836587 -0.012507317 -0.04360195 0.0064372844 0.050766412
0.011462267 0.082631476 -0.011290748 0.042191584 0.049573477 -0.043157402 0.0638561 -0.07037235
-0.06484605 0.04932884 -0.009478353 0.06165086 -0.040273145 -0.038039286 0.030038705 0.066400096
0.0034000808 -0.03294148 -0.04070047 0.057310253 -0.009728357 0.002440449 0.021401992 0.015716428
0.07206972 0.050239313 0.0177501 0.05019591 0.0027750502 0.0463455 -0.043219294 0.011218868
0.09305016 -0.058385614 0.0009298794 0.08593884 -0.0054158275 0.06821661 0.0036181519 -0.014134249
0.08063356 -0.027005833 -0.023916075 -0.010722175 -0.025675112 -0.0813972 -0.010881045 -0.024283431
-0.014861605 0.086322814 -0.04223627 -0.02479858 0.04976735 0.045840215 0.0377836 -0.05610915
-0.04372182 0.013152515 0.014350454 0.009756148 0.085568324 -0.06777878 -0.023426708 -0.027081434
0.052132946 -0.029320724 -0.024732253 -0.01872646 -0.00805724 -0.003307843 0.04659355 0.00058009324
0.007109444 -0.010043248 0.062881194 0.06381469 -0.054114282 0.050756 -0.0288223 -0.06909948
-0.028057376 -0.0056592887 0.05582178 0.0043993527 -0.013263398 0.10754487 0.10958409 0.023038173
0.03243618 0.04436805 -0.004666786 0.0038008133 -0.011093528 -0.08857833 0.04009357 -0.06376041
0.009480129 -0.008907327 -0.010659337 0.051952187 0.01896348 -0.059757292 -0.057206534 0.055627402
0.03873567 0.029885089 0.06523955 -0.034234244 -0.037645243 0.01770729 0.007532109 0.025206517
0.015180812 0.09496674 -0.07349274 0.024410674 -0.016638704 0.037251018 -0.07197586 -0.023719745
-0.02589326 0.032788515 -0.08011423 0.029464886 0.02452452 0.042298403 -0.02894032 0.01324748
-0.06079673 0.051373854 -0.049305152 0.04504357 0.044601463 -0.05009996 0.038819205 0.025712563
0.0045714984 -0.050498873 -0.078526124 -0.024038082 0.06016938 -0.055611603 0.029261006 0.044088654
-0.017112777 -0.050964046 0.036806628 -0.058950644 0.050616737 -0.0030990555 -0.052145626 -0.003327136
0.07335702 -0.031308256 0.0018902723 0.0856388 -0.0023230775 0.035177268 -0.014853809 -0.018306853
0.005566445 0.0001424782 -0.025720062 0.003651571 0.025205994 -0.044828873 -0.083153345 0.010042736
-0.03532017 -0.016388504 0.010531039 0.085458495 0.014799835 -0.052105445 -0.054071836 -0.01319046
0.033457566 -0.017349258 0.011001203 0.05586489 -0.05729326 -0.024079226 -0.015521823 -0.02774852
0.048589755 0.04322009 0.046644233 -0.057680573 0.018833328 -0.08784382 0.07393207 -0.088464215
-0.009635379 0.013436163 -0.008471192 0.06966798 -0.007007949 -0.071652204 0.01914868 0.033245806
-0.021874314 0.049643274 -0.055961438 -0.010562533 -0.06173066 0.03789962 0.03436097 -0.073138975
-0.07306677 0.05526995 0.005616894 -0.012749287 -0.06571136 -0.04531494 -0.048882723 0.017271185
