models/amz_movie_tv_distilgpt2_1k/adapter_model.bin (torch, 594133 bytes, 12 tensors)

base_model.model.transformer.h.0.attn.c_attn.lora_A.weight f4 [8, 768]
000000 a8 59 cc bc b5 89 01 bd 9a 93 b5 3c f2 d0 d5 bc
       -0.024945095 -0.03162547 0.022165108 -0.02610061
000010 ad fe 27 3d 69 78 19 bd dd 1a d7 3c 8f 8b 88 ba
       0.041014362 -0.037468348 0.026257927 -0.0010417568
000020 c1 b9 23 bc f3 60 08 bd d5 c4 9b 3b 3a bf 5e bb
       -0.009993018 -0.033295583 0.004753689 -0.0033988492
000030 1d a9 29 3c c3 5c f0 3c 2f d7 f4 3c 9b 94 0b 3c
       0.010355261 0.029341107 0.029887764 0.008519317
000040 c3 da da 3c 0e 6c d9 bc c4 26 58 bc 67 96 be bc
       0.026715642 -0.026540782 -0.013192836 -0.023265077
000050 08 d9 18 3d b6 54 e4 3c 3c 56 56 bb 48 df 1d 3d
       0.037316352 0.027872425 -0.0032705208 0.038543016
000060 38 5d f4 bc fd 1c 1e bc 28 d6 1e bd 81 fc df bb
       -0.029829606 -0.009650466 -0.038778454 -0.0068355207
000070 83 45 6f bc cb f8 11 3d c6 df f9 3c 6c 67 eb 3c
       -0.014603975 0.035637658 0.030502211 0.028735839
000080 cb 28 d0 bc 44 cc 96 bc f4 71 74 3b 55 f1 16 3b
       -0.025410077 -0.018407948 0.0037299367 0.0023032029
000090 0e a3 18 3d 0e 06 47 bc 5d 61 17 3d 46 89 89 3c
       0.037264876 -0.01214744 0.036958087 0.01678909
0000a0 36 bc bd 3c 89 13 da 3a 25 cd 8b 3c 92 95 e2 3c
       0.023161035 0.0016637902 0.017065594 0.027659211
0000b0 e8 30 f1 3c 81 82 ea bc 10 89 3b bc 0b 3e 25 bd
       0.029442266 -0.028626682 -0.011446252 -0.040342372
0000c0 da 72 c5 3c 61 5f 91 bb 74 d4 b0 3c e7 b6 bb bc
       0.024102617 -0.004436419 0.02158568 -0.022914363
0000d0 0d 98 b4 bb fb 26 17 bd c8 eb be bc 60 b6 19 bb
       -0.00551129 -0.03690241 -0.023305789 -0.0023454651
0000e0 19 57 8e 3c c5 61 f7 3b 30 9e e3 3c cc be b1 3b
       0.017375516 0.007549497 0.02778539 0.005424356
0000f0 89 58 5d 3c c6 77 b6 3b 92 97 cf 3c bd 8e 51 3c
       0.013509878 0.0055684773 0.025340829 0.012790379
000100 8b 6c 03 bd 5f 69 da 3c 2c 12 cd bb b0 57 ae 3c
       -0.032085937 0.026661573 -0.00625827 0.021282047
000110 7d 2f a5 bc cc 2d 26 3d 1c 59 94 bc 51 83 c3 ba
       -0.020164246 0.04057102 -0.018108897 -0.0014916455
000120 a7 2f 71 bc 1b 92 94 bc 78 a6 8d bb 38 e1 52 bc
       -0.014720834 -0.018136075 -0.004322823 -0.012871079
000130 f8 53 09 bd cc c1 fc 3b f6 c7 59 bc 14 19 ca 3c
       -0.033527344 0.007713532 -0.013292303 0.024670161
000140 12 10 88 3c 98 06 15 3d 5e fd 0d bd b7 2b c2 bc
       0.016609225 0.03638324 -0.034665458 -0.023702485
000150 aa e7 e2 bb 75 89 44 bc ac d8 07 bc bd 78 8f bc
       -0.006924589 -0.011995663 -0.008291405 -0.017513627
000160 68 b5 ad bc 14 48 4d 3c ac 89 a5 bc a4 5a c0 bb
       -0.021204665 0.012529392 -0.020207249 -0.00587018
000170 5e 07 69 3c ee 64 c2 bc 13 de c2 3c 71 1f b3 bc
       0.014222948 -0.023729768 0.023787534 -0.021865578
000180 ab 0e 8b 3c 72 63 ef bb d2 38 c7 bc 7c d4 09 3d
       0.016974768 -0.007305556 -0.024319086 0.033649907
000190 5a d9 aa bc 7d 41 e7 3c 19 e6 8b 3c ef ed fa bc
       -0.020855594 0.02822947 0.017077493 -0.030631034
0001a0 91 44 14 bd ce bc ec 3c 3f ed 8b bc d1 19 82 3c
       -0.036198203 0.028898623 -0.017080901 0.01588145
0001b0 92 c5 e9 bc d7 bb c6 3c d3 44 8d bc 33 d7 e4 3c
       -0.028536592 0.02425949 -0.017244732 0.027934646
0001c0 42 45 b1 bc 75 28 aa bc 0a 1f 23 bd 38 4c d0 bc
       -0.02163947 -0.020771245 -0.039824523 -0.025426969
0001d0 6b d8 ea 3c a4 f5 ed bc d3 24 03 bd 0e 53 90 bb
       0.02866765 -0.029047795 -0.03201754 -0.004404432
0001e0 cc cf 81 bc 9f 6f c0 bc 5d 06 b7 3b bc 93 d4 bc
       -0.015846156 -0.023490725 0.0055854754 -0.025949351
0001f0 02 25 ac 3c e1 c2 e4 3b 1a 59 82 bc b5 99 2e 3c
       0.02101374 0.006981239 -0.015911628 0.010656764
000200 71 3f d3 bb b7 08 6e 3c 06 34 48 3c 93 ec 98 3c
       -0.006446772 0.014528445 0.012219435 0.018667495
000210 96 22 e3 bb 2d d1 d8 bc 82 22 a3 bc b9 f4 e7 3a
       -0.006931613 -0.02646693 -0.019913916 0.0017696834
000220 c6 49 cc bc 6b a1 94 3c 79 0c 11 3d 82 3e cd 3c
       -0.024937522 0.018143376 0.035412285 0.02505422
000230 87 7c fb bc 56 1c 52 3c 6d 42 ec ba f4 67 84 3c
       -0.030699028 0.012824139 -0.0018025168 0.01616285
000240 69 2e df 3c 87 d1 00 3d 8f 98 0e 3d 4b 7f 9c bc
       0.02724381 0.03144982 0.03481346 -0.019103667
000250 10 90 1a 3d 62 d2 ff 3c fc 23 4e bb 05 3d df 3c
       0.037735045 0.031228248 -0.0031454554 0.027250776
000260 83 44 e4 bc ee bd e0 39 bb e4 3c 3c b6 66 d3 3c
       -0.0278647 0.00042866118 0.011529143 0.025805812
000270 e9 18 01 3d c0 cb 26 bd dc 83 01 bd 20 a3 85 3c
       0.031517897 -0.040721655 -0.03161989 0.016313136
000280 09 9f 7f bc e0 0c f6 3c af c1 25 bd 22 a5 15 bb
       -0.015601882 0.030035436 -0.040467914 -0.0022834023
000290 01 b6 aa bb 17 0a d4 bb 64 4c c4 3b 40 d5 73 bc
       -0.005209685 -0.0064709294 0.005990552 -0.014882386
0002a0 87 3f 5a bc 57 78 01 bd 1a 5e b2 3c 89 93 ae 3a
       -0.01332081 -0.031608906 0.021773387 0.0013319115
0002b0 83 81 ed bb 95 87 ca bc 83 a6 90 bc bf 54 5b 3c
       -0.007248105 -0.024722854 -0.017657524 0.013386904
0002c0 aa ca a1 bc a2 86 10 3d 02 97 fd 3c c4 32 20 bc
       -0.019749958 0.035284646 0.030955795 -0.0097777285
0002d0 91 35 08 bd 9b 43 22 bc 63 7c a1 bc db 6e 0e bd
       -0.03325421 -0.009903814 -0.019712633 -0.03477369
0002e0 02 13 4e bc 1b 2c 20 3d 7b ba e7 bc 9f d3 da bc
       -0.012577774 0.039104562 -0.028287163 -0.026712237
0002f0 9a da 7e ba f8 58 15 3d de 31 72 bc 1c 6e 39 bc
       -0.0009721905 0.0364618 -0.014782397 -0.011317756
000300 ef e4 c0 bc 81 51 4f bc 44 fe 33 3c 32 a9 3e 3c
       -0.023546664 -0.012653709 0.010985915 0.011637019
000310 c6 ec 1d 3d 18 5c af 3c c1 73 f5 3c 4c 1b de 3c
       0.038555883 0.021406218 0.029962422 0.027112626
000320 cd 49 96 ba e9 f3 1a 3c 54 fc db 3c 54 db ab 3c
       -0.0011466086 0.009457567 0.026853718 0.020978607
000330 e1 d2 23 bd 13 7b 75 bc 93 5d 04 3d a2 98 43 bc
       -0.03999603 -0.014982956 0.0323158 -0.011938246
000340 0f ca a8 bb 3a 11 18 3d 00 4c 64 3c 01 4a 99 bb
       -0.0051510404 0.037125804 0.013934135 -0.0046780114
000350 4e bc af bc eb 24 ff 3c 2d 35 95 bc 69 c0 f9 3c
       -0.021452095 0.031145534 -0.018213833 0.030487256
000360 83 30 0c 3d f0 31 2a 3b af 40 d0 bc ce 68 fe 3c
       0.034225952 0.0025969706 -0.025421469 0.031055834
000370 cf e0 77 3b 80 c4 05 3d 41 8e 00 bd fa 5d ce 3c
       0.0037823205 0.0326581 -0.031385664 0.025191296
000380 45 73 3a 3c d9 ec c4 bc 21 f2 bc bc 7e 6f 9e 3b
       0.011380021 -0.024038719 -0.023064675 0.0048350682
000390 c9 7f 74 3b c6 c7 e6 3c 9c bc 0a 3d c4 1c c5 ba
       0.0037307611 0.028171431 0.03387128 -0.001503848
0003a0 af 81 df 3c e4 e9 94 bc 6a 16 0b bc f4 ca a7 3b
       0.027283518 -0.018177934 -0.008489231 0.0051206294
0003b0 f4 35 e9 3c ee 38 c6 bc 10 3c 26 3d 0d f1 8d bb
       0.02846811 -0.024197068 0.040584624 -0.004331714
0003c0 39 da 37 bc a1 61 e2 bc 34 8e 86 bc 17 d5 17 3b
       -0.011221462 -0.027634444 -0.01642523 0.0023167783
0003d0 d8 bb 3a bc 0c 60 ca 3c 12 f8 44 3c 18 70 11 bd
       -0.0113973245 0.024704002 0.012022035 -0.03550729
0003e0 54 0c 4a bc 7c 00 a5 bc 25 12 b8 3b eb 81 a4 ba
       -0.012332041 -0.020141833 0.0056173974 -0.0012550926
0003f0 3c 55 53 bb 86 38 05 bd 5a cf c4 bc 16 6b 3d 3c
       -0.0032246849 -0.032524608 -0.024024654 0.011561176

base_model.model.transformer.h.0.attn.c_attn.lora_B.weight f4 [2304, 8]
000000 39 92 4e bb a1 67 48 3b 3c 58 4d 3b 24 72 2e 3b
       -0.003152026 0.0030579346 0.003133311 0.0026618326
000010 11 a6 60 bb 24 99 50 3b 6b 06 6b 3b be bc 27 bb
       -0.003427867 0.003182956 0.003586198 -0.0025594677
000020 ae cf 5b 3b a0 18 60 bb 71 90 7b bb c6 76 51 bb
       0.0033540535 -0.0034194365 -0.0038385654 -0.0031961664
000030 4d 46 4e 3b 15 98 83 bb aa a7 51 bb cf 62 17 3b
       0.0031475008 -0.0040159323 -0.0031990805 0.0023099666
000040 60 f3 3c 3b 11 04 1a bb c2 bf 2e bb 4d d0 49 bb
       0.0028831586 -0.002350096 -0.002666459 -0.0030794323
000050 eb 84 4a 3b 36 21 02 bb 88 3b 39 bb 59 06 79 3b
       0.003090198 -0.001985622 -0.0028264243 0.0037998168
000060 2b 96 a2 b9 c0 28 57 3a 94 84 3d 3a 77 00 44 39
       -0.00031010932 0.00082076713 0.00072295335 0.0001869219
000070 4e d7 a4 b8 16 a4 26 3b 75 fb ee 38 87 a9 29 3a
       -7.860233e-05 0.0025427393 0.00011395562 0.00064721
000080 44 bf 8c ba 25 68 12 3b a0 2b 00 3b dc 41 ae 3a
       -0.0010738154 0.0022339907 0.0019557253 0.0013294774
000090 cc 06 1f ba c0 5d 18 3b 22 16 c3 3a ea a4 96 ba
       -0.00060663815 0.0023249239 0.0014883915 -0.001149324
0000a0 fd 14 22 bb 36 cd 4c 3b b8 c6 35 3b cd 59 22 3b
       -0.0024731748 0.0031250245 0.0027736854 0.0024772764
0000b0 7d ce 2e bb 8f 05 6e 3b 76 29 29 3b 9c 9d 0a bb
       -0.002667337 0.003631923 0.0025812066 -0.0021151071
0000c0 5a 09 cc 3a 63 9a 1f bb e5 46 1a bb 62 96 d5 ba
       0.0015566752 -0.0024353496 -0.0023540792 -0.0016295428
0000d0 b0 06 bb 3a a2 6e 4c bb af 42 0a bb a2 76 e1 3a
       0.0014268961 -0.0031193872 -0.0021096875 0.0017201493
0000e0 9e 9d ee ba 22 8c 14 3b b0 44 43 3b 43 ea 0d 3b
       -0.0018204933 0.0022666533 0.002979558 0.0021654523
0000f0 19 20 b2 ba bf 24 30 3b 5b dc fc 3a aa 1d 11 bb
       -0.0013589888 0.002687737 0.0019291745 -0.0022142925
000100 be fb 05 3b 5d d5 14 bb 54 29 12 bb 27 e0 f8 ba
       0.002044424 -0.0022710182 -0.0022302466 -0.0018987701
000110 0f 54 ca 3a 03 8a 8b bb 51 1f d5 ba 33 f1 cc 3a
       0.0015436428 -0.0042583956 -0.0016259943 0.0015635848
000120 c6 4d 92 bb ad 82 96 3b 84 24 97 3b 4c 50 98 3b
       -0.0044648377 0.0045932145 0.0046125073 0.004648244
000130 46 0a 86 bb 08 f4 a0 3b 64 69 78 3b 34 25 68 bb
       -0.00409058 0.0049119033 0.0037904615 -0.0035422565
000140 c3 af 8f 3a 02 60 89 b9 12 4b 43 b6 1a 76 44 ba
       0.0010962415 -0.00026202208 -2.910096e-06 -0.0007494405
000150 d8 01 95 3a 64 ec 24 ba 48 48 88 ba 89 26 00 3a
       0.0011368347 -0.00062913285 -0.0010397518 0.00048885547
000160 15 85 58 3b be 3d 6c bb 43 3c 69 bb 40 6d 56 bb
       0.0033038307 -0.0036047543 -0.0035588897 -0.0032718927
000170 28 df 55 3b 13 ec 9a bb 59 27 48 bb e3 9d 39 3b
       0.0032634232 -0.0047278493 -0.003054103 0.0028322868
000180 5f 7a 3b bb 37 2b 19 3b 4e 9e 04 3b 8c 8f 58 3b
       -0.0028606874 0.0023371705 0.0020235959 0.0033044545
000190 9a 80 3e bb a0 d1 4f 3b 95 00 87 3a d3 17 3d bb
       -0.0029068352 0.003171064 0.0010299856 -0.0028853312
0001a0 70 c9 40 bb a9 ac 51 3b a1 e2 5e 3b 99 e7 3c 3b
       -0.002941694 0.0031993783 0.0034009593 0.0028824566
0001b0 af b8 1e bb 7c 26 82 3b d8 1a 27 3b 2f 8f 24 bb
       -0.0024218967 0.003971873 0.0025498178 -0.0025109758
0001c0 9f 9a c6 3a a8 fe e4 ba c8 42 fa ba 90 df bb ba
       0.0015152282 -0.0017470913 -0.0019093389 -0.0014333595
0001d0 ac 85 85 3a a6 d9 63 bb c6 35 72 ba 9a 8b 86 3a
       0.0010186932 -0.003476718 -0.000923958 0.0010264993
0001e0 36 b8 4e 3a 7b 70 b3 ba 77 71 ca ba 24 6c 66 ba
       0.0007885726 -0.0013690138 -0.0015445192 -0.0008789918
0001f0 f3 08 29 3a b0 24 38 bb cf bd 41 ba cf ec 7a 3a
       0.0006448172 -0.002809804 -0.00073906494 0.00095720304
000200 cb 28 8b 3b 07 4e 93 bb 02 42 90 bb 52 0d 78 bb
       0.0042468063 -0.0044953856 -0.0044024 -0.0037849736
000210 b3 2f 94 3b 26 17 95 bb 18 5c 82 bb bc e4 70 3b
       0.0045222878 -0.0045498786 -0.0039782636 0.003675743
000220 44 23 91 ba 79 0b f0 39 0e ff 5f 3a cd 2c c0 3a
       -0.0011073132 0.00045784915 0.0008544781 0.0014661789
000230 d1 31 8f ba cb 3d 16 b9 fa d0 91 3a f1 0d 1e bb
       -0.0010924881 -0.00014328134 0.0011124902 -0.0024117196
000240 b4 dd 5b bb 9e 33 78 3b 29 af 73 3b e3 96 62 3b
       -0.0033548893 0.0037872563 0.003718326 0.0034574799
000250 e9 b2 46 bb 5d 7d 9c 3b 49 15 39 3b 5c 8c 54 bb
       -0.003031904 0.0047756867 0.0028241447 -0.0032432294
000260 53 67 aa 3a 7a 3a 06 bb eb 9e c8 b9 27 26 5d ba
       0.0013000764 -0.0020481632 -0.00038265376 -0.0008436166
000270 96 09 b7 3a b1 15 44 bb df 2b bb ba c3 ec 94 b8
       0.0013964649 -0.0029920156 -0.0014280042 -7.10129e-05
000280 67 60 a0 b9 68 8b 24 3a 15 f3 f9 b7 94 23 b8 39
       -0.00030589403 0.00062768767 -2.9796307e-05 0.00035121723
000290 76 92 6d ba b4 d1 eb 39 e9 2e 29 3a ad 0d 65 ba
       -0.0009062657 0.00044978934 0.00064538285 -0.00087376946
0002a0 5e 5c 93 3a 87 f0 da ba df 07 10 bb fa 45 cc ba
       0.0011242738 -0.0016703763 -0.0021977348 -0.001558482
0002b0 49 8e 88 3a 5c e5 bc ba 83 9b c0 ba ba 78 d7 3a
       0.0010418381 -0.0014411616 -0.0014694784 0.0016439178
0002c0 52 4a 22 3b 3c 7c 21 bb a7 1c 18 bb d5 8b 11 bb
       0.0024763537 -0.00246407 -0.0023210438 -0.002220859
0002d0 32 96 04 3b 10 b6 8e bb 6a db da ba 4e b1 d4 3a
       0.0020231125 -0.0043551996 -0.001669747 0.0016227157
0002e0 02 ac cc ba 3f 4f 0b 3b c5 2b 10 3b d1 d7 c2 3a
       -0.0015615227 0.002125695 0.0021998745 0.0014865344
0002f0 0a 6c b7 ba e2 a7 60 3b 49 e0 c9 3a 24 6c 9f ba
       -0.001399399 0.0034279753 0.0015401925 -0.0012162966
000300 f5 96 67 bb b1 c3 69 3b 98 6d 53 3b 45 db 5f 3b
       -0.003533778 0.003566962 0.0032261368 0.0034157794
000310 23 0c 62 bb e4 a2 9d 3b 68 59 43 3b d3 0c 23 bb
       -0.0034492097 0.004810678 0.002980793 -0.002487947
000320 85 b2 44 3b 50 b0 26 bb b6 77 fd ba 1b ec 39 bb
       0.0030013632 -0.002543468 -0.0019338045 -0.002836949
000330 56 53 5f 3b 91 86 62 bb dc 37 27 bb 2b cf 49 3b
       0.0034076772 -0.003456507 -0.0025515473 0.0030793648
000340 90 89 29 bb f3 51 41 3b 49 64 37 3b bb 0e 1f 3b
       -0.0025869347 0.0029498308 0.0027983359 0.0024270255
000350 64 c0 05 bb 1a 84 85 3b f5 3a 1a 3b 82 3b 17 bb
       -0.0020408863 0.0040745856 0.0023533676 -0.002307624
000360 e0 a6 e5 ba 8b c9 22 3b 97 f2 1c 3b c0 6d e0 3a
       -0.0017521046 0.0024839367 0.0023948306 0.0017122552
000370 03 3b c9 ba a8 2b 68 3b bc e4 01 3b d2 b9 cb ba
       -0.001535267 0.0035426412 0.0019820174 -0.001554305
000380 ad b9 25 bb 54 f5 56 3b b4 6b 54 3b f4 7a 26 3b
       -0.0025287673 0.0032800036 0.003241283 0.0025402876
000390 b6 ec 20 bb 1f be 74 3b 09 fa 36 3b de 90 3b bb
       -0.0024555153 0.0037344766 0.0027920029 -0.0028620283
0003a0 47 4b 3a 3b 90 ab 34 bb 30 ec 02 bb 72 99 26 bb
       0.0028426216 -0.002756808 -0.0019977205 -0.002542105
0003b0 59 b7 1f 3b 0d 76 8a bb 80 89 09 bb 46 1f cf 3a
       0.0024370758 -0.0042254985 -0.0020986497 0.0015802167
0003c0 fe 19 8f 38 e7 cf ee b9 ce a9 46 3a 93 db fe 39
       6.823613e-05 -0.00045549797 0.00075784035 0.0004861025
0003d0 81 bd c6 b8 cb 92 23 b9 0d 77 c5 39 68 05 ef ba
       -9.4766736e-05 -0.00015599576 0.00037663468 -0.0018235864
0003e0 21 16 f5 3a ee 14 da ba 6d 67 a9 ba 43 46 d6 ba
       0.0018698612 -0.0016638318 -0.00129245 -0.0016347844
0003f0 83 21 ca 3a f6 e2 58 bb c1 91 95 ba 14 c2 a2 39
       0.0015421364 -0.0033094264 -0.0011411236 0.00031043647

base_model.model.transformer.h.1.attn.c_attn.lora_A.weight f4 [8, 768]
000000 8a d1 e1 bc 27 6f 17 bd 79 3a e4 bc 54 bd 05 3c
       -0.027565736 -0.036971238 -0.027859913 0.008162815
000010 4d 8d 6e 3c e8 ef 12 bd e9 d4 a5 bc f6 36 ac 3c
       0.014560056 -0.035873324 -0.020243125 0.021022301
000020 10 30 d6 bc 04 f3 76 3c 9b 18 82 bc ce cf 06 bc
       -0.026145965 0.015072588 -0.015880873 -0.008228255
000030 76 5d e3 bc 43 fe e6 bc fb 2e 1f bd 32 ca 36 bc
       -0.027754527 -0.028197413 -0.038863163 -0.011156606
000040 27 ee 3b 3c 68 2c ba 3c 17 78 22 3d 3f cd 05 3d
       0.011470354 0.022726253 0.039665308 0.03266644
000050 6d 7d 2b 3d 65 1b 05 3d 79 9d 42 3a b4 a2 79 bb
       0.041867662 0.03249683 0.0007423978 -0.0038091363
000060 53 19 44 3c 4b c5 45 3c 8d 99 a6 bb 54 44 c6 bc
       0.011968928 0.012070964 -0.0050842226 -0.024202503
000070 cd 70 d8 bc 0b 08 a0 3c f4 7d 60 3b 24 74 0c bc
       -0.026420975 0.019535085 0.0034254761 -0.008572612
000080 58 3a a7 bc d3 b0 ff 3c cd 89 cf 3a c5 2b fb bc
       -0.020413563 0.031212246 0.0015833915 -0.03066052
000090 67 19 24 3b 75 a6 54 bc db 09 16 bd e6 04 d3 3c
       0.0025039555 -0.01297914 -0.036630493 0.025759172
0000a0 0c 9a b9 3c 9a e3 c9 3c 7f cc 0f 3d 22 c9 3c bc
       0.022656463 0.024644662 0.035107132 -0.011522563
0000b0 54 2e 3d 3b 9f 5d 0f bd 17 54 0e 3b 81 a5 96 3c
       0.0028866725 -0.035001393 0.0021717602 0.018389465
0000c0 ea 44 d2 3c c4 03 c4 3c cf 17 08 3d 11 99 f0 bc
       0.025667626 0.023927577 0.03322583 -0.029369863
0000d0 21 cb 9d 3c 66 41 08 bd f8 4e e6 bb 41 4c a6 3c
       0.019261898 -0.033265494 -0.007028457 0.020300033
0000e0 a6 32 e5 bc 92 4e a8 bb 90 19 a0 3c 6e 5c b2 3c
       -0.027978253 -0.0051363194 0.01954344 0.02177259
0000f0 d8 c1 2b 3c bb b3 d0 bb d1 a8 b0 bc 26 03 27 bd
       0.010483228 -0.006369082 -0.021564873 -0.040774487
000100 f1 9b c1 bb ad b0 f6 bb 9b 55 27 bd c0 d7 e1 bc
       -0.0059084822 -0.0075283856 -0.040853124 -0.027568698
000110 f6 e0 3a 3c a8 c6 9f 3c 99 77 9c 3b a5 62 fd bc
       0.011406174 0.019503906 0.0047749993 -0.030930826
000120 37 d9 3b bc 28 b2 55 bc cc 7e 75 bc 05 c4 62 3c
       -0.011465362 -0.013042964 -0.014983844 0.01384068
000130 43 6a bc bc da 66 d9 3c ea b8 0a bc 9c 30 f2 bc
       -0.022999888 0.026538301 -0.0084669385 -0.029564194
000140 c8 c1 bd bc 6b 7d df bc 95 30 8d bc 91 94 9f 3c
       -0.023163691 -0.027281484 -0.01723508 0.019480022
000150 40 ac 0b bd a0 d2 02 bc ab 99 9a 3c 95 ea 1b bc
       -0.034099817 -0.007984787 0.018872103 -0.009516378
000160 11 6d 89 bc 12 47 b6 bc 96 74 c2 bc 27 ed 56 bc
       -0.01677564 -0.022250686 -0.023737233 -0.013118065
000170 41 c9 5c 3c 8b 46 8f 3c de 29 0d 3d 2a 02 15 bc
       0.013475717 0.017489692 0.034463756 -0.009094754
000180 15 c1 30 3b 08 fb 55 3c 2b 8b 4b bc 55 07 c4 3c
       0.0026970555 0.013060339 -0.012423317 0.023929277
000190 40 4d 26 3c 39 bf 96 bc 47 92 1d bc 9f 36 ee bc
       0.010150254 -0.018401729 -0.009617395 -0.02907878
0001a0 8f af c4 bc 35 6b 8e 3c c6 36 67 bb 01 ab a2 3c
       -0.024009494 0.017385105 -0.003528045 0.019856932
0001b0 89 8b fb 3c 79 2b 41 3b ce 98 9c bb 81 45 87 3c
       0.030706184 0.0029475375 -0.004778958 0.016512634
0001c0 dd d3 89 bb df 4c 5d 3c 2a 01 23 bd 43 cf 85 3a
       -0.0042061643 0.013507097 -0.039796032 0.0010208864
0001d0 f8 be ed bc d9 ed ff bc 5f 45 0e bd ac b8 69 bc
       -0.029021725 -0.031241344 -0.034734126 -0.014265221
0001e0 19 f3 94 3c 2d a9 c2 3c df f6 15 bc 19 d0 de bb
       0.018182324 0.02376231 -0.009153097 -0.0067997095
0001f0 0f b7 ac 3c 74 4e b1 bc 18 4f 7d 3c f5 03 0d bd
       0.021083383 -0.021643855 0.015460752 -0.0344276
000200 20 2c 74 3b bf b9 cc 3c 03 e9 4b bc 2d 3e 69 bc
       0.0037257746 0.024990914 -0.012445691 -0.014236015
000210 05 2e 6e 3b e3 88 aa 3c 16 98 b2 3b 19 04 bc 3b
       0.0036343348 0.020817226 0.005450259 0.005737793
000220 13 05 d7 bc 62 1e d6 3c 29 eb 14 bd 96 f4 5e bc
       -0.026247537 0.026137535 -0.03635708 -0.0136081185
000230 6f 2f ba bc 7d fb 95 bb 4d 09 ea bc c1 91 c2 3c
       -0.022727696 -0.004577099 -0.028568888 0.023751142
000240 6c eb ac 3c 8c 6b 88 3a 80 3a 3a bc 06 fc f5 bc
       0.021108352 0.0010408028 -0.011366487 -0.0300274
000250 c3 4d b0 ba 69 8b f7 bc a9 df 66 bc d8 f0 bc bc
       -0.0013450909 -0.030217843 -0.014091411 -0.023064062
000260 0d 30 ef bc 54 a6 f9 3c 96 24 b0 bc fe a4 8d 3c
       -0.029197717 0.03047482 -0.02150182 0.017290588
000270 66 e3 ca ba 63 d5 2a bc ef 4c 1b 3d fd 40 f1 3c
       -0.0015479147 -0.010426852 0.037915166 0.029449934
000280 9f ce 9c bc 89 42 26 3c 06 be d0 3c 51 fb c4 bc
       -0.019141493 0.010147699 0.025481235 -0.024045618
000290 0f 65 f6 bc de a5 f7 3a b3 94 1c bd 10 1a 97 3b
       -0.030077485 0.0018894037 -0.038227748 0.004611261
0002a0 28 8c 94 3b 30 8f be 3b b2 1a 5e bb 81 78 e2 bc
       0.0045333095 0.005815409 -0.0033890423 -0.027645351
0002b0 48 46 a5 3c fa 02 83 bc b7 f3 b3 3c 37 4a 0b 3c
       0.020175114 -0.01599263 0.021966798 0.008501581
0002c0 42 50 8f 3b 0a 0d f2 3c 17 3d 56 bc 53 66 91 3c
       0.004373581 0.029547233 -0.013076088 0.017748987
0002d0 79 8c 38 3c b1 2c 20 3c 21 dd 99 bc 1c 36 61 bc
       0.01126396 0.00977628 -0.0187822 -0.013745811
0002e0 47 ac 58 bc bd bc 5e bc 70 51 e3 bc 68 2b 2b 3b
       -0.013224668 -0.013594803 -0.027748793 0.0026118401
0002f0 ae 6a ee bc c2 ec 98 3c 19 43 dd bc cb 44 b3 bc
       -0.029103603 0.018667582 -0.027009534 -0.021883389
000300 19 ba cf bc f5 ce 4c 3c 75 4a e0 3c e6 27 fc bc
       -0.025357293 0.012500514 0.027379254 -0.030780744
000310 0f 59 40 3c 90 7b 49 3c af d9 bf 3c 8a 25 5f bc
       0.011739983 0.012297526 0.02341923 -0.01361979
000320 2a a6 6c 3c d9 f8 11 bd 0c ba da bc b0 17 c0 3c
       0.0144439135 -0.03563771 -0.026700042 0.023448795
000330 b8 77 52 bc c0 fc f6 3c 95 21 27 3d 47 11 55 bb
       -0.012845926 0.030149817 0.04080351 -0.0032511519
000340 ac a7 bf 3c e7 2c 1d bc 83 bf 8c 3c 30 ce f7 3b
       0.023395382 -0.009593225 0.017181164 0.0075624213
000350 60 93 d5 bc 71 15 e1 3c 77 e1 7d bc fb 98 fe bb
       -0.02607125 0.027476044 -0.01549565 -0.0077697015
000360 64 07 a6 3c 8b 84 15 bd 02 41 8f bc 24 95 09 bd
       0.020267196 -0.036503356 -0.017487053 -0.033589497
000370 29 a6 9f 3c 9e 26 b2 3b 66 3f b9 bc ea 6c 90 3c
       0.019488411 0.0054367324 -0.022613239 0.01763006
000380 e0 ab f4 3c 85 b6 a3 3b 8a b4 1a 3c e5 70 90 bc
       0.029867113 0.0049961233 0.009442458 -0.017631957
000390 45 22 ef 3a de 15 c6 3c 23 d2 1d bb 5e af d9 bc
       0.0018244466 0.024180349 -0.002408155 -0.02657288
0003a0 74 30 d9 bc fa f6 db bb d1 30 de bb d7 d1 ce bc
       -0.026512362 -0.0067127915 -0.0067807217 -0.025246544
0003b0 6b 01 ed 3c 53 96 fb 3b 13 9d e7 bc 38 bb fc bc
       0.02893134 0.007677832 -0.028273141 -0.030850992
0003c0 0e fb 0d bd d5 72 04 bd b5 20 69 bc 55 8b c0 3b
       -0.034663253 -0.032336075 -0.014228989 0.0058759847
0003d0 63 30 1c bd 35 d6 8c 3c bb f9 2e 3c 89 2b 97 3b
       -0.038132083 0.017191986 0.010679658 0.004613344
0003e0 14 8c 24 3c a0 b6 ed bb 60 2b b6 3c 26 4c b2 3b
       0.010043163 -0.0072544366 0.02223748 0.0054412065
0003f0 0d 6c c8 bb ca d8 eb bc a1 d0 a8 3c 94 76 cf 3c
       -0.0061163963 -0.028789897 0.020607295 0.025325097

base_model.model.transformer.h.1.attn.c_attn.lora_B.weight f4 [2304, 8]
000000 dc 67 c1 ba e4 5e 59 bb 0d 80 46 bb 71 e3 4b 3b
       -0.0014755684 -0.0033168131 -0.0030288727 0.0031110907
000010 20 e4 20 3b 73 7f 85 3a 7d 2f 6e 3b 7b a3 1b 3b
       0.0024550036 0.0010185078 0.0036344223 0.0023748565
000020 53 69 86 bb d7 3b 9c bb 52 84 93 bb 85 f2 98 3b
       -0.004101911 -0.0047678757 -0.004501858 0.0046675825
000030 f6 cf 7c 3b 00 5c 92 3b 80 7f 96 3b 07 f4 98 3b
       0.0038576103 0.0044665337 0.004592836 0.004667762
000040 9e a2 06 3b 6a 71 10 3a 0c 35 6c b8 de ef 21 3a
       0.0020543705 0.0005510064 -5.631619e-05 0.00061774056
000050 7e eb 2c bb f0 b6 c5 ba d7 2d 99 3a 3a bb 1b 39
       -0.0026385481 -0.0015084427 0.0011686635 0.00014851699
000060 18 30 33 bb fe 7e 89 bb cc de 89 bb ac c8 8e 3b
       -0.0027341899 -0.004196047 -0.0042074677 0.004357418
000070 51 15 35 3b a2 7c 31 3b 4d de 8d 3b 10 6f 8a 3b
       0.0027631114 0.0027082344 0.004329479 0.0042246655
000080 3c 7d 3b ba 95 72 de ba 11 59 c4 ba 9a ab 26 3b
       -0.0007152145 -0.0016971404 -0.0014980157 0.0025431872
000090 52 ff 07 3b c2 3f 18 3a 45 58 25 3b fa f8 d9 3a
       0.0020751548 0.00058078405 0.0025229615 0.0016629987
0000a0 d2 3f 2f 3b f9 37 6d 3b d5 5f 76 3b d8 7d 6e bb
       0.002674092 0.0036196692 0.0037593741 -0.0036390927
0000b0 7b d2 2a bb 77 f0 09 bb 3f c4 6f bb 64 bc 7a bb
       -0.0026065398 -0.002104787 -0.0036585478 -0.0038259262
0000c0 2a 4d 22 3a 82 a2 76 3b 20 83 82 3b 2f dc 86 bb
       0.0006191308 0.0037633483 0.0039829165 -0.0041156034
0000d0 d4 dd a6 ba 52 62 23 ba bc 40 88 bb 98 97 7f bb
       -0.0012730905 -0.00062326074 -0.0041581076 -0.003900027
0000e0 0a ad 4b bb 9e c2 67 bb d1 c2 54 bb 0c c8 3c 3b
       -0.003107848 -0.0035363804 -0.0032464752 0.002880576
0000f0 fd 5b 14 3b 86 b7 3b 3b 2d 93 42 3b 76 59 45 3b
       0.0022637837 0.0028643324 0.0029689774 0.0030113137
000100 b4 cd 87 ba 71 88 7e bb 8a 4c 84 bb 38 c7 8a 3b
       -0.0010360987 -0.003883865 -0.0040374445 0.0042351745
000110 72 bd af 3a 1e ac 8f 3a 02 c7 89 3b 84 41 85 3b
       0.00134079 0.0010961329 0.004204632 0.004066648
000120 4c 3b bb ba b6 4d 19 3a ca ce db 39 3f b0 59 ba
       -0.001428464 0.00058480666 0.00041925005 -0.0008304156
000130 16 d9 08 ba 40 76 8e 3a d8 cb b4 ba 3d 41 fc b9
       -0.00052203366 0.0010868981 -0.001379366 -0.00048113792
000140 e7 55 68 b9 4e 54 45 3a 73 79 d4 3a 15 30 d9 ba
       -0.00022157245 0.0007527516 0.0016210511 -0.0016570116
000150 bb bf b8 3a 02 7a 46 3a 86 50 ff ba f1 18 c6 ba
       0.0014095226 0.0007571281 -0.0019478954 -0.0015113634
000160 ac 9c bc ba 94 de 8c bb 6a 2e 8b bb 1c 28 8f 3b
       -0.0014389954 -0.0042989943 -0.0042474763 0.004368795
000170 a2 05 02 3b 1d cc e2 3a df 1e 93 3b 93 76 86 3b
       0.0019839783 0.0017303262 0.004489764 0.0041034906
000180 86 d8 c1 ba e5 e5 84 bb 36 b8 80 bb 43 95 87 3b
       -0.001478926 -0.004055726 -0.0039282097 0.0041376664
000190 83 fe 12 3b cb 9c 0c 3b c2 02 88 3b ca 00 80 3b
       0.0022429533 0.002145576 0.0041507194 0.003906344
0001a0 38 be 48 bb 76 c1 99 bb bf ea 95 bb 04 24 96 3b
       -0.0030630957 -0.004692252 -0.004575103 0.00458193
0001b0 a1 24 2f 3b c4 93 58 3b ed c2 99 3b 7b 40 94 3b
       0.0026724713 0.003304706 0.0046924264 0.0045242882
0001c0 4c 40 f7 3a 6e 5b 1f 3b dd 38 15 3b 52 86 42 bb
       0.0018863766 0.002431597 0.002276949 -0.0029682112
0001d0 05 7a 87 ba be e9 31 bb 8b 93 42 bb 08 ad 32 bb
       -0.0010336047 -0.0027147378 -0.0029689993 -0.002726378
0001e0 8c 28 58 ba 61 23 62 bb 12 b3 68 bb 7c 18 7f 3b
       -0.0008245788 -0.003450595 -0.0035507125 0.0038924506
0001f0 2e 80 59 3a 45 9d b4 3a 9e 25 80 3b b7 77 64 3b
       0.00082969933 0.001377978 0.0039107343 0.0034861395
000200 b3 6d 54 3b 59 13 8c 3b 58 e8 8b 3b 7a ce 8f bb
       0.0032414019 0.0042747674 0.004269641 -0.0043886276
000210 1d 38 39 bb 89 4e 55 bb 73 a3 8d bb e0 bc 8a bb
       -0.0028262206 -0.0032548031 -0.004322463 -0.0042339414
000220 fa d4 0c bb be 80 21 bb cd 8a 28 bb 87 4f 52 3b
       -0.0021489249 -0.0024643387 -0.0025717497 0.003209086
000230 ec 36 72 3a de f9 10 3b 28 e8 4c 3b b8 63 4f 3b
       0.00092397514 0.0022121589 0.0031266306 0.003164513
000240 02 ab 96 3a e0 cd 13 39 d2 0b 56 b6 3d 6a a3 3a
       0.0011495056 0.00014095707 -3.1895365e-06 0.0012467575
000250 b1 07 eb b8 04 00 13 ba bd 54 97 3a 4a 99 b6 b7
       -0.00011207106 -0.00056076073 0.001154564 -2.1767471e-05
000260 f6 a2 2f bb 08 c3 56 bb fe 8f 5f bb 30 60 81 3b
       -0.0026800013 -0.0032770056 -0.0034112926 0.003948234
000270 c1 67 0d 3b 1f e2 24 3b 21 1e 7a 3b 3f 65 6d 3b
       0.0021576735 0.0025159193 0.003816493 0.0036223677
000280 55 22 2e 3b 34 da 9e 3b 3e 7c 9c 3b 8d c7 9c bb
       0.0026570756 0.004847789 0.004775553 -0.0047845305
000290 0d a4 39 bb 43 2f 38 bb 4e af 99 bb 9f b8 9a bb
       -0.0028326542 -0.0028104342 -0.0046900874 -0.0047217156
0002a0 e0 d9 6c ba 08 2c 04 ba e3 62 59 b9 f4 e5 89 ba
       -0.00090351515 -0.00050419616 -0.00020731571 -0.0010520802
0002b0 b3 d2 b8 3a 48 c3 90 3a 32 e9 1b ba 15 ba 80 ba
       0.0014100879 0.0011044526 -0.00059475296 -0.0009821082
0002c0 8a 96 1c 3b 3e fc 61 3b 80 11 68 3b 70 44 7a bb
       0.002389344 0.0034482623 0.0035410821 -0.0038187765
0002d0 c3 10 f0 ba f2 09 29 bb 30 2e 76 bb 2f b6 68 bb
       -0.0018315542 -0.0025793281 -0.003756415 -0.003550898
0002e0 15 a3 63 3b 9b 4f 94 3b f4 17 8f 3b 7f 9e 93 bb
       0.0034734656 0.0045260913 0.004366869 -0.004504978
0002f0 26 f7 45 bb 69 bd 83 bb c6 7e 93 bb aa 4e 90 bb
       -0.0030207126 -0.004020382 -0.0045011966 -0.0044039087
000300 f0 86 a4 3a 1b 2d f8 3a 9c 7d df 3a ee 80 cd ba
       0.0012552422 0.0018934341 0.0017050984 -0.0015678683
000310 4c 5b e5 ba 70 3f 71 ba 9e c2 0f bb 26 9d a6 ba
       -0.0017498522 -0.00092028733 -0.002193607 -0.0012711629
000320 f8 f8 bc ba 11 84 8c bb 8f b5 89 bb 41 5a 90 3b
       -0.001441746 -0.0042882045 -0.0042025517 0.0044052904
000330 b3 a8 0e 3b 54 bc 0d 3b c5 db 94 3b 62 be 85 3b
       0.0021768033 0.0021627145 0.0045428 0.0040815333
000340 c0 dd d4 3a d3 06 12 3b f0 c8 11 3b 39 31 22 bb
       0.0016240403 0.00222819 0.0022245012 -0.0024748577
000350 67 5b d8 ba 48 83 2e bb 75 89 1d bb 4a 3e 29 bb
       -0.0016506732 -0.0026628543 -0.002403823 -0.002582448
000360 35 5e 4a bb 1b 7a 94 bb e1 75 92 bb 33 c4 94 3b
       -0.0030878906 -0.0045311577 -0.0044696187 0.0045399903
000370 d1 43 1b 3b 4f 22 54 3b 59 6c 99 3b 6a c1 90 3b
       0.0023691545 0.0032369082 0.0046821055 0.004417588
000380 89 c6 09 3b 2c cc 79 3a e2 ca 18 39 91 12 9a 3a
       0.0021022877 0.000952902 0.0001457143 0.0011754801
000390 c6 94 f3 ba 01 63 02 bb fb 5b 4b 3a a6 a3 07 3a
       -0.0018583767 -0.0019895437 0.00077575416 0.0005174227
0003a0 a1 d3 a8 3a de 41 62 3a 0f 49 0a 3a c5 d3 30 3a
       0.0012880453 0.0008631031 0.0005275169 0.00067454233
0003b0 f0 69 21 bb be 80 ca b9 18 9e 05 3a d4 fd e1 39
       -0.0024629794 -0.00038624363 0.0005097105 0.0004310446
0003c0 41 fd 81 3a 15 bc e5 3a 94 91 db 3a 1d e7 3b bb
       0.0009917394 0.0017527366 0.001675176 -0.002867169
0003d0 63 94 0f bb 81 b2 9d ba 49 05 2a bb a9 ed 2b bb
       -0.0021908514 -0.0012031348 -0.0025943092 -0.0026234186
0003e0 12 bd 0e 3b cf d6 b7 3a 86 5a a0 3a cf f6 25 bb
       0.0021780175 0.001402581 0.0012234009 -0.0025324111
0003f0 c5 31 f8 ba 67 0c 1f bb a8 1d 13 bb 74 1b 15 bb
       -0.0018935731 -0.0024268867 -0.0022448096 -0.002275196

base_model.model.transformer.h.2.attn.c_attn.lora_A.weight f4 [8, 768]
000000 e9 6f f7 bc fa 8b 45 3c 15 42 9e 3a f2 19 a7 bc
       -0.03020473 0.012057299 0.0012074137 -0.020398114
000010 1a 62 f9 3c 10 20 21 bd 63 04 a3 bb 17 e5 1b bb
       0.030442286 -0.039337218 -0.004974888 -0.0023787671
000020 ba ca 08 3d 61 f6 49 bb 08 36 f7 bc be f7 1b 3b
       0.03339646 -0.003081702 -0.030177131 0.002379879
000030 7d ae 22 3d cb 7e 34 3b f5 32 1e bd b4 c1 ab bc
       0.039717186 0.0027541395 -0.038622815 -0.020966388
000040 a3 5c f8 3c 27 0e b6 bc a1 59 97 3b 34 50 6f ba
       0.03031761 -0.022223545 0.004618839 -0.00091290777
000050 7a 7e e1 3b 84 20 b7 3c 30 a1 e5 3b b1 04 b9 bb
       0.0068815323 0.022354372 0.0070077404 -0.005646311
000060 89 c8 0a 3d 7a 0c 81 3c b4 33 c8 bb a1 db 03 3d
       0.03388265 0.01575302 -0.006109679 0.032191876
000070 53 2d 1b bd d8 82 0f bb 73 1e 23 bb cb 4b 74 3c
       -0.03788502 -0.0021898057 -0.0024889975 0.014910649
000080 00 bf c0 3b 6f 6b 63 bb 03 69 a2 3c 39 15 5c bc
       0.005882144 -0.0034701487 0.019825464 -0.013432794
000090 3b 3d 88 3c 99 41 0c bd 60 fd 14 3d 86 18 7e bc
       0.01663076 -0.034242246 0.03637445 -0.0155087765
0000a0 20 ce 08 3d 94 fb 8f bc 13 6e cf bc 38 f7 9b bb
       0.0333997 -0.017576016 -0.025321042 -0.0047596954
0000b0 4c 76 4f bb 7f e3 b4 3c b2 39 d1 3b 6d d9 22 3c
       -0.0031656204 0.022081135 0.0063850516 0.009939534
0000c0 db 41 14 bd 8f 7c 70 bc 47 6b 84 bc c9 eb 0d 3d
       -0.036195617 -0.014678135 -0.016164435 0.03464869
0000d0 8e a5 85 bc 52 ed 40 bc 03 96 5b 3c 83 ed 0d 3c
       -0.016314294 -0.011775332 0.013402465 0.008662584
0000e0 cd a2 c1 bc da 0e 16 bc 3a 7c a5 bc a3 92 bf bb
       -0.0236372 -0.009158814 -0.020200837 -0.005846338
0000f0 06 d9 a1 3c 58 25 0d 3d f5 fc a8 bc a5 91 02 3d
       0.019756805 0.034459442 -0.020628432 0.03187718
000100 38 5c 61 3b 76 42 a0 3c 7b 7d 0a 3c 94 3d c6 3b
       0.0034387242 0.019562941 0.008452768 0.006049821
000110 35 47 2c bc 06 56 9f 3c 82 b1 52 bb 03 a9 8b bc
       -0.010515024 0.019450199 -0.003214926 -0.017048365
000120 b9 4b b1 3b 45 7f c3 3c 55 68 01 3c 6b 52 d2 bc
       0.005410638 0.023864398 0.00789841 -0.025674066
000130 df d9 55 3c e9 a5 d3 bc 03 e5 06 3c e0 2d 82 3c
       0.013052433 -0.025835948 0.008233312 0.015891016
000140 49 1b f1 3c b7 7e 96 bb db 47 34 3c e3 3b 82 3c
       0.029431956 -0.0045927423 0.01100346 0.015897697
000150 ef 31 9b 3c 22 d7 29 bd 00 a0 d0 bc de 2b 19 3d
       0.018944709 -0.041464932 -0.025466919 0.03739535
000160 c8 87 fd 3c 11 3f 7b 3c 51 83 14 3c 82 64 23 bd
       0.030948535 0.01533486 0.009064511 -0.039890774
000170 8f da f2 bc 8a d8 4a ba fd 3c 61 bc 79 9c 11 3c
       -0.029645232 -0.00077379553 -0.013747451 0.008887404
000180 9e ce 1f 3b 77 21 98 3c 2e f8 94 bc 16 dd d7 3c
       0.0024384628 0.018570645 -0.018184748 0.02635054
000190 4e ce 9c bc 67 e9 24 bd ef 16 d3 ba b7 14 15 bc
       -0.019141342 -0.040261652 -0.0016104857 -0.009099177
0001a0 7c 1c b5 3c f9 18 06 3c 65 89 4d 3c 8d 8c b8 3c
       0.022108309 0.008184665 0.012544964 0.022527957
0001b0 56 5d 7c ba 62 7f 08 3b b9 b7 17 3d 28 69 09 bd
       -0.0009626945 0.002082788 0.037040446 -0.03354755
0001c0 95 8a 23 3d b2 d8 20 bc 0c 52 94 bb a4 ed b2 bc
       0.039927084 -0.009817289 -0.0045263823 -0.021841832
0001d0 1f eb c3 3c 10 c8 bf 3c dc d5 e1 3c d6 4b 55 bb
       0.023915825 0.023410827 0.027567796 -0.0032546422
0001e0 14 2d 38 3c de c9 97 bc 31 34 c9 bc cc 89 e8 3b
       0.011241216 -0.018528875 -0.02456102 0.007096505
0001f0 15 4d e4 bb fb fd 0f 3b 92 6b fa bc 54 07 0b 3c
       -0.0069671967 0.0021971453 -0.030568872 0.008485634
000200 12 fb 05 3c 6f df a1 3c 71 bd a1 3c 0a ae 17 bc
       0.008177536 0.019759862 0.019743653 -0.009257803
000210 0e ee 23 3d 6d c9 be 3c e6 f8 76 3c 4b 54 b1 3c
       0.04002195 0.023289407 0.01507399 0.02164664
000220 6e cf 5f 3c 41 6b aa bb ab 09 25 3c fd a3 cb bc
       0.013660295 -0.005200774 0.010073106 -0.02485847
000230 e0 c1 ed bc c6 a4 c1 3c 15 bf b4 3b 72 bb 98 bc
       -0.02902311 0.02363814 0.005515943 -0.018644068
000240 33 6f 8a bc a5 ef 63 3c 52 7d 2d bc cf ba a8 bc
       -0.016898727 0.013912116 -0.010588961 -0.02059689
000250 4f 89 bf 3c ee 56 d2 bc ff 1e d1 bc 06 4c bf 3c
       0.023380904 -0.025676217 -0.025527475 0.02335168
000260 95 bf 19 bd ed d0 4f bc 7b 6b 26 3c d0 7c 20 bb
       -0.037536222 -0.012684089 0.010157461 -0.0024488457
000270 ed a8 a4 3c b9 56 eb bc ee ca da bc 9c 79 cb 3c
       0.020100081 -0.028727876 -0.026708093 0.024838261
000280 e6 74 a5 bc fe bb 09 3d 09 80 ab bc 97 f9 48 3c
       -0.020197343 0.03362655 -0.020935075 0.012266538
000290 70 5e 0c bd 13 8d ab bc 05 e3 96 3b 25 86 1a bc
       -0.03426975 -0.020941293 0.0046046996 -0.009431397
0002a0 5d 90 50 bc ee 46 d8 bc 00 96 b4 ba b9 89 ae bc
       -0.012729731 -0.02640101 -0.0013777614 -0.021305906
0002b0 6c b3 84 3c af ff d6 bc 48 af da 3c fa dd 07 3d
       0.016198836 -0.026244966 0.026694909 0.033170678
0002c0 bf 96 06 bd fd 46 71 3c ca 13 ea 3c d1 61 d2 3b
       -0.032858606 0.014726398 0.02857389 0.006420352
0002d0 3e a7 4d 3c 65 ad f0 3a a2 ab bd bc 06 78 fe bb
       0.012552081 0.0018362222 -0.02315313 -0.0077657728
0002e0 52 ce 86 bb 16 e8 14 3c e3 12 9c 39 95 11 81 3c
       -0.0041139508 0.009088537 0.0002976871 0.015755454
0002f0 c1 9d 50 3b 96 79 05 3d 90 e5 bc 3b 35 c6 1f 3d
       0.003183231 0.032586657 0.0057646707 0.039007384
000300 67 db 37 bc ba ab 84 3c 07 8f c1 bc f6 77 a3 3c
       -0.011221743 0.016195167 -0.023627771 0.019954663
000310 2d 08 26 3d ec 5c a5 bc d8 1b 25 bb 46 e5 f6 3b
       0.04053514 -0.02018591 -0.0025193598 0.0075346557
000320 ef a2 66 3a a9 81 7f bb 86 11 85 3c b8 f6 f4 bc
       0.00087980827 -0.0038987196 0.016243707 -0.0299028
000330 b4 e7 21 3d 6e 3b 8e bc ac 9d 9f bc 51 c6 e6 3b
       0.03952761 -0.017362323 -0.019484363 0.007042684
000340 24 8c 23 3c 80 74 a3 3c 4e 22 b8 3c 7b ec 0a bc
       0.009982143 0.019953012 0.022477295 -0.008479233
000350 d9 91 d4 bc 4e 67 dc bb f9 e5 1d 3c 5f 4c d0 bc
       -0.025948452 -0.006726182 0.009637349 -0.025427042
000360 b9 37 9b bb fc 94 e9 3c 11 c4 e8 3b 24 10 ba 3c
       -0.0047368673 0.028513424 0.007103451 0.022712775
000370 15 34 bb bc ab 38 1a 3b 2e ef 16 3d 96 97 da 3c
       -0.022851983 0.0023532312 0.036849193 0.02668361
000380 2a ae 93 bb 11 ba 1c bc 57 29 07 bd 62 43 6c bc
       -0.004506846 -0.009565846 -0.03299841 -0.014420362
000390 e3 19 3a bb b4 16 ed ba 40 a5 69 bc 8e 09 54 3b
       -0.0028396777 -0.0018088431 -0.01426059 0.0032354328
0003a0 36 54 ef bc 9a 96 7d 38 c2 d6 0c bb ac 92 66 bc
       -0.02921496 6.046016e-05 -0.002149031 -0.014073055
0003b0 ab 28 61 3b b2 ea ba bc b6 01 75 bc 80 12 d8 3b
       0.0034356515 -0.02281699 -0.014954021 0.0065940022
0003c0 aa 22 e5 3c a5 f8 8a bc 33 58 86 3a 4c e7 c4 bc
       0.02797063 -0.016964266 0.0010249674 -0.024036072
0003d0 29 66 81 bc d1 d7 01 3d 5b 63 50 3b 31 fc 55 3b
       -0.015795784 0.03169996 0.0031797502 0.0032651538
0003e0 dd 4d 0b bd 42 30 09 bc c3 31 7a 3c 95 b6 19 bc
       -0.034009803 -0.008373322 0.015270653 -0.00938191
0003f0 08 5f cb 3c 15 8f 73 3c 51 91 35 bc 6a c6 0b 3d
       0.024825588 0.014865656 -0.011082009 0.03412477

base_model.model.transformer.h.2.attn.c_attn.lora_B.weight f4 [2304, 8]
000000 22 61 67 b8 53 0f 08 38 32 30 af b8 16 fa 88 b9
       -5.5165154e-05 3.24392e-05 -8.353627e-05 -0.0002612627
000010 c1 20 8d b9 c0 56 03 bb 6c e3 6d 3a 7c 25 50 bb
       -0.0002691802 -0.002004072 0.0009074721 -0.0031760624
000020 e4 1f 3c 3b 35 6d f3 3a 8c 11 a8 ba 7e ac 00 3b
       0.0028705532 0.0018571975 -0.0012822612 0.0019634063
000030 b5 07 53 3b a7 68 2a 3b ce 2e 38 3b 8e f7 b4 3a
       0.0032200639 0.002600232 0.002810407 0.0013806687
000040 4c b5 07 ba 77 c5 5f ba f0 6c a2 3a 0e 34 27 ba
       -0.00051768566 -0.00085361995 0.0012392085 -0.0006378301
000050 71 d5 16 ba cd 0d dc 3a 2f e0 4a ba 71 7c d4 3a
       -0.0005753851 0.0016788781 -0.00077390944 0.0016211403
000060 f6 e5 ee 39 eb c1 17 3a 98 5f 24 ba 3b 40 b0 39
       0.00045566232 0.0005789089 -0.0006270348 0.0003361719
000070 f2 8d ee 39 dd 26 07 3b a3 a9 57 b9 85 78 65 3b
       0.00045500655 0.002062253 -0.00020567192 0.0035014462
000080 94 77 8c 3a b9 43 32 ba 7f 50 de 36 19 86 ac 3a
       0.0010716789 -0.00068002526 6.6254865e-06 0.0013162523
000090 ff 6f 0c 3b 4e c1 29 3b a7 34 38 37 23 0e 35 3b
       0.002142906 0.0025902572 1.0979514e-05 0.0027626834
0000a0 ed 40 80 b9 a9 3e 0a ba af be 1f 3a 67 78 eb b8
       -0.00024462436 -0.00052736193 0.0006093783 -0.000112281
0000b0 ec 07 50 b9 80 ad a9 39 10 8a 6a ba ca d9 a0 3a
       -0.00019839377 0.0003236346 -0.00089469645 0.0012271937
0000c0 6f 61 1c bb 61 f3 85 ba 72 27 a9 3a 8a 3f d7 ba
       -0.0023861786 -0.0010219627 0.0012905432 -0.0016422134
0000d0 ac 02 19 bb ba 8a 46 bb 86 a8 18 bb 2d 4e 40 bb
       -0.002334754 -0.003029509 -0.0023293807 -0.0029343471
0000e0 d5 2c c1 ba 82 8b 45 ba 94 61 03 3a a0 e8 a1 ba
       -0.0014738092 -0.0007535742 0.00050117937 -0.0012352653
0000f0 fb fa ae ba 33 95 30 bb b9 53 34 ba a0 09 77 bb
       -0.0013349944 -0.0026944398 -0.0006878931 -0.0037694946
000100 3e 5e ce 39 22 c3 81 3a 15 7b bc ba 51 85 ba 39
       0.00039361598 0.0009900073 -0.0014379943 0.00035576013
000110 5b d4 51 38 7c aa 5f ba 5d 44 d1 3a 15 30 0f bb
       5.0027254e-05 -0.0008532179 0.0015965808 -0.0021848727
000120 35 4f d8 ba a3 8c e3 ba f1 97 79 3a 38 1c 33 ba
       -0.0016503098 -0.0017360639 0.0009521237 -0.0006832513
000130 f6 06 f9 ba 2e 45 96 ba a1 8b 0f bb ee 5a c3 39
       -0.0018999267 -0.0011464709 -0.0021903294 0.00037261046
000140 59 36 97 ba d5 12 ce 37 91 d8 5a 3a 98 36 dc b9
       -0.0011536583 2.4565883e-05 0.0008348311 -0.00042002345
000150 14 e3 80 ba 0a f9 4b bb df 5c 66 39 38 43 66 bb
       -0.00098333 -0.003112378 0.00021969106 -0.003513528
000160 cc 08 be ba c4 bb 99 ba 35 4f 8b 3a e8 bb 35 ba
       -0.0014498471 -0.0011728932 0.0010628464 -0.0006932602
000170 91 a0 d8 ba ca 31 86 3a 65 5b f6 ba a7 66 0b 3b
       -0.0016527345 0.0010238227 -0.0018795548 0.0021270902
000180 2a 17 74 ba fb 50 5a ba 4f 33 06 3b 89 37 d9 ba
       -0.0009311313 -0.0008328107 0.002047736 -0.0016572337
000190 ea a9 a4 b8 24 43 53 bb 5c e5 b9 b9 50 50 7c bb
       -7.851778e-05 -0.0032236064 -0.00035456836 -0.0038500018
0001a0 09 a7 36 3b 70 bf ed 3a 0a d8 57 bb be 79 41 3b
       0.0027870557 0.0018138718 -0.0032935166 0.0029522027
0001b0 17 3e 2e 3b 3f 81 a4 3b 9c cf 0e 3b 59 8c af 3b
       0.0026587301 0.00502029 0.0021791225 0.005357307
0001c0 d0 fc 00 3b 00 5d b8 3a 1a 82 e4 ba d1 10 f5 3a
       0.0019681938 0.0014065802 -0.0017433793 0.0018697028
0001d0 8b 7f 1e 3b 0b 04 64 3b e2 ff f2 3a 76 e5 74 3b
       0.0024184908 0.003479245 0.0018539394 0.0037368215
0001e0 69 8f 8d b9 be 96 a2 b9 83 91 96 b7 9c 7d 31 b9
       -0.00027000465 -0.0003101136 -1.7949153e-05 -0.00016926829
0001f0 d2 4e 51 ba 37 7c e4 3a b0 1d 1b ba f9 33 09 3b
       -0.00079844624 0.0017432038 -0.00059172045 0.002093552
000200 ed 53 4d ba c3 79 96 ba 76 95 db 3a 3f d2 c1 ba
       -0.00078326353 -0.001148038 0.0016752917 -0.001478739
000210 6a af 10 ba 26 ce fe ba 07 4d 4c ba bc 1c 0d bb
       -0.0005519303 -0.0019440099 -0.00077934604 -0.002153202
000220 2d 9d 19 ba aa c0 e6 39 d8 be 2c b9 fc c0 e5 b7
       -0.0005859908 0.00044012564 -0.00016474293 -2.7388793e-05
000230 96 66 1d ba fe ea d6 ba a2 b8 95 ba 1e 37 37 ba
       -0.0006004361 -0.0016396937 -0.0011422823 -0.0006989109
000240 0a b3 72 3a 7e d9 ba 3a c4 4d dc ba c4 e6 de 3a
       0.0009258246 0.0014255492 -0.0016807844 0.0017006029
000250 0a 89 b4 3a 24 18 95 3a ef d3 ee 39 f9 4b 04 3b
       0.0013773751 0.0011374992 0.000455528 0.0020186885
000260 13 0e eb 3a 19 72 0f 3b 80 97 a3 ba c9 21 35 3a
       0.0017933272 0.0021888076 -0.0012481064 0.00069096364
000270 3e 88 ec 3a de a7 57 3a 0a 26 17 3b 8e a8 e1 b8
       0.0018045974 0.0008226613 0.0023063445 -0.00010760232
000280 b1 a4 3d 3b ec f4 00 3b 81 ee 41 bb 3d e5 35 3b
       0.0028937275 0.0019677235 -0.0029591622 0.0027755045
000290 96 f7 22 3b d0 c8 73 3b 11 3e 1c 3b 24 e3 81 3b
       0.002486681 0.003719855 0.0023840705 0.003963845
0002a0 52 23 53 bb 75 0e 2d bb ed a6 32 3b 17 45 19 bb
       -0.0032217097 -0.0026406322 0.002726014 -0.0023387128
0002b0 f6 f1 4e bb f3 1d 1d bb 28 1f 5e bb f0 45 d8 ba
       -0.0031577325 -0.002397415 -0.0033893082 -0.0016500335
0002c0 71 44 14 bb 8a 94 06 bb a9 ed 0d 3b 2b c8 08 bb
       -0.0022623802 -0.0020535314 0.002165655 -0.0020871263
0002d0 81 b4 21 bb b6 4a 94 ba eb 5f 1e bb 61 2d f8 38
       -0.002467424 -0.001131377 -0.0024166058 0.00011834014
0002e0 f5 a9 6a 3a 32 68 b8 39 a7 0c cd b9 13 50 4d 3a
       0.0008951717 0.00035172846 -0.00039110074 0.00078320614
0002f0 76 db 9c 3a eb 6c 9a ba a6 84 1f 3a a2 cf dd ba
       0.001196726 -0.0011781728 0.0006085135 -0.0016922841
000300 10 86 4a ba bd 55 93 39 de 50 09 b8 2e 53 f9 b9
       -0.00077256653 0.00028101905 -3.273866e-05 -0.00047554955
000310 43 d3 92 ba 25 f6 df ba 68 37 46 ba e5 0a 06 ba
       -0.0011201877 -0.0017086907 -0.0007561357 -0.0005113318
000320 20 20 52 3b ff 0f 2f 3b b6 f7 1b bb cb c5 2d 3b
       0.0032062605 0.0026712415 -0.002379877 0.00265156
000330 fe 9e 57 3b 19 30 90 3b 4f b2 64 3b 23 7f 80 3b
       0.0032901163 0.004400265 0.003489632 0.003921406
000340 22 e0 5b 39 f4 89 55 39 18 db 35 b8 6e 5b f0 b9
       0.00020968964 0.00020364654 -4.335781e-05 -0.00045844488
000350 67 63 aa 39 f6 3a 9f 3a 9d ea 16 39 6f 5b 0b 3b
       0.00032498987 0.0012148309 0.00014392515 0.0021264215
000360 6e f0 46 bb f7 d5 13 bb ac 62 1c 3b b1 ac bc ba
       -0.003035571 -0.0022557953 0.0023862524 -0.0014394728
000370 fe f7 50 bb 84 5f 7f bb b5 0e 78 bb d8 55 4f bb
       -0.0031886096 -0.0038966844 -0.0037850563 -0.003163686
000380 96 a8 15 3a 20 e1 9c 38 e5 c1 6e ba f9 3d b9 3a
       0.000570902 7.4805925e-05 -0.0009107872 0.0014132849
000390 1b 22 44 39 80 85 52 3b b3 11 8c b9 2a 4a 8b 3b
       0.00018704722 0.003212303 -0.00026716068 0.0042507844
0003a0 1d 55 e6 3a 64 3e c4 3a 87 40 12 bb 5b ec d9 3a
       0.0017572973 0.0014972207 -0.0022316293 0.0016626226
0003b0 1e 7d ff 3a 7b 78 d0 3a 78 da e5 3a 40 ce b8 3a
       0.0019492244 0.0015905047 0.0017536422 0.0014099553
0003c0 8e 67 5e 3a 17 8b ad 39 e8 6c 96 ba 5d b4 9a 3a
       0.0008484059 0.0003310076 -0.0011476548 0.001180302
0003d0 fa ff e6 38 97 c9 55 3b 90 ee ee 38 06 c7 85 3b
       0.00011014934 0.0032621378 0.0001139316 0.0040825633
0003e0 44 76 3b bb 8f e8 03 bb bd 81 09 3b 9b 4a 2a bb
       -0.0028604427 -0.002012763 0.002098187 -0.002598441
0003f0 5b b5 46 bb ee 52 4f bb 33 7e 46 bb 17 fb 31 bb
       -0.0030320499 -0.0031635123 -0.0030287623 -0.0027157718
