models/amz_movie_tv_distilgpt2_1k/checkpoint-500/adapter_model.bin (torch, 594133 bytes, 12 tensors)

base_model.model.transformer.h.0.attn.c_attn.lora_A.weight f4 [8, 768]
-0.024953414 -0.03161518 0.022157144 -0.026109027 0.0410045 -0.03745836 0.02624928 -0.0010355843
-0.0099837845 -0.03328165 0.0047613224 -0.0034106213 0.010365219 0.029350547 0.029897543 0.008527786
0.026706364 -0.026553454 -0.013198416 -0.023257915 0.037307333 0.027866758 -0.0032570763 0.038538557
-0.029819269 -0.009638309 -0.038768567 -0.006823818 -0.014595226 0.03562574 0.030492567 0.028745515
-0.025423303 -0.018416991 0.0037171151 0.0022883774 0.037256636 -0.012156132 0.03695186 0.016774459
0.02316749 0.0016743614 0.017077057 0.027650215 0.02945081 -0.02861757 -0.011441171 -0.04032986
0.024091162 -0.0044297604 0.021574186 -0.022922833 -0.005521646 -0.036895096 -0.023293447 -0.0023557898
0.017366499 0.0075384234 0.027781617 0.0054344544 0.013520647 0.0055806637 0.025327006 0.012781038
-0.03207861 0.0266498 -0.0062585315 0.021295534 -0.020155082 0.040558405 -0.018113812 -0.0015015857
-0.014709384 -0.018130187 -0.0043341233 -0.012858094 -0.033513896 0.0077221747 -0.013304964 0.024657987
0.016620679 0.03637254 -0.034654982 -0.023702333 -0.0069136946 -0.012004003 -0.00828294 -0.017505923
-0.021192918 0.012520829 -0.020195829 -0.005854851 0.014232529 -0.023719676 0.023796357 -0.021879215
0.01696531 -0.007295647 -0.024325097 0.03364251 -0.02084524 0.028238187 0.017085379 -0.030641347
-0.036187716 0.02889118 -0.01709121 0.015871812 -0.028524516 0.024261225 -0.017233262 0.027944084
-0.021629672 -0.020761583 -0.039814394 -0.02542037 0.02865943 -0.029046427 -0.032015197 -0.0044075977
-0.015838828 -0.023503099 0.005597757 -0.025962496 0.021005066 0.00698503 -0.015900292 0.010673117
-0.006436304 0.014520919 0.012230417 0.018677335 -0.0069221607 -0.026454356 -0.019920487 0.001759274
-0.024925735 0.018138325 0.03540558 0.025062554 -0.03070852 0.01281795 -0.0017913416 0.016152691
0.027253563 0.031438924 0.03480229 -0.019090928 0.03772386 0.031215934 -0.0031351107 0.027239919
-0.027856963 0.00042427678 0.011531116 0.025816847 0.03150779 -0.040711567 -0.031616762 0.0163248
-0.015603721 0.030044923 -0.04046069 -0.002290962 -0.0052196123 -0.0064611402 0.0059840507 -0.01487361
-0.013318962 -0.031610142 0.0217733 0.0013353926 -0.0072567104 -0.024713133 -0.017666787 0.013394487
-0.019741114 0.03527286 0.030960273 -0.009767856 -0.033241637 -0.009919394 -0.01970171 -0.03476438
-0.012569666 0.039100137 -0.028284058 -0.026727619 -0.0009820828 0.036453687 -0.014796529 -0.011307093
-0.02353785 -0.012640146 0.010975123 0.011649416 0.038556535 0.021415535 0.0299537 0.027101664
-0.0011383748 0.009445088 0.026843434 0.020967633 -0.039991423 -0.014968796 0.032330394 -0.011941984
-0.0051397257 0.037127208 0.013942407 -0.004690644 -0.021441814 0.031136109 -0.018219458 0.030489352
0.034217745 0.0025866274 -0.025413388 0.031045549 0.0037888372 0.03264753 -0.031375688 0.025199449
0.011371954 -0.024030214 -0.023075623 0.004848257 0.0037346703 0.028159302 0.033862665 -0.0015165549
0.027273336 -0.01819148 -0.008498369 0.0051307813 0.028457932 -0.024206202 0.04057186 -0.0043188557
-0.011211927 -0.027641412 -0.016416771 0.0023251546 -0.011387429 0.02471488 0.012010431 -0.035505377
-0.012342382 -0.020131147 0.0056274724 -0.0012450808 -0.003213423 -0.032517437 -0.024030712 0.011567093
00000000: 1a6b ccbc eb7e 01bd e682 b53c 99e2 d5bc
00000010: 56f4 273d f06d 19bd bb08 d73c 71bc 87ba
00000020: 0793 23bc 5752 08bd de04 9c3b bb84 5fbb
00000030: e1d2 293c 8f70 f03c b1eb f43c 20b8 0b3c
00000040: 4ec7 da3c a186 d9bc 2b3e 58bc 6287 bebc
00000050: 93cf 183d d448 e43c ac74 55bb 9bda 1d3d
00000060: 8a47 f4bc ffe9 1dbc cacb 1ebd 569a dfbb
00000070: d120 6fbc 4cec 113d 8ccb f93c b77b eb3c
00000080: 8844 d0bc 3bdf 96bc d89a 733b 9af8 153b
00000090: 6a9a 183d 832a 47bc d55a 173d 976a 893c
000000a0: bfc9 bd3c 3f76 db3a 2fe5 8b3c b482 e23c
000000b0: d342 f13c 656f eabc c073 3bbc ec30 25bd
000000c0: d45a c53c 8627 91bb 59bc b03c aac8 bbbc
000000d0: ecee b4bb 501f 17bd e6d1 bebc 9863 1abb
000000e0: 3044 8e3c e104 f73b 4696 e33c 8213 b23b
000000f0: b485 5d3c 00de b63b 957a cf3c 8f67 513c
00000100: dc64 03bd ae50 da3c 5e14 cdbb f973 ae3c
00000110: 451c a5bc 9220 263d 6b63 94bc dbd0 c4ba
00000120: a1ff 70bc c285 94bc 4305 8ebb c1aa 52bc
00000130: de45 09bd 4c0a fd3b 10fd 59bc 8cff c93c
00000140: 1728 883c 5ffb 143d 62f2 0dbd 652b c2bc
00000150: 468c e2bb 70ac 44bc 2bb5 07bc 9568 8fbc
00000160: c59c adbc 2a24 4d3c b971 a5bc 0dda bfbb
00000170: 8e2f 693c c44f c2bc 94f0 c23c 0a3c b3bc
00000180: d5fa 8a3c 5310 efbb 6d45 c7bc bbcc 093d
00000190: a3c3 aabc c553 e73c a3f6 8b3c 9003 fbbc
000001a0: 9239 14bd 32ad ec3c dd02 8cbc 9a05 823c
000001b0: 3fac e9bc 7abf c63c c52c 8dbc feea e43c
000001c0: b630 b1bc 3214 aabc 6b14 23bd 613e d0bc
000001d0: 2ec7 ea3c c6f2 edbc 5e22 03bd 9c6d 90bb
000001e0: 6ec0 81bc 9289 c0bc 646d b73b 4daf d4bc
000001f0: d112 ac3c aee2 e43b 5441 82bc 4cde 2e3c
00000200: a2e7 d2bb 26e9 6d3c 1662 483c 3601 993c
00000210: 4bd3 e2bb ceb6 d8bc 4a30 a3bc 7197 e63a
00000220: 0e31 ccbc d396 943c 7105 113d fc4f cd3c
00000230: 6f90 fbbc 6102 523c 73cb eaba a652 843c
00000240: dd42 df3c 1ac6 003d d98c 0e3d 9464 9cbc
00000250: 5684 1a3d 8fb8 ff3c 6e76 4dbb 4026 df3c
00000260: 4934 e4bc 7771 de39 02ed 3c3c da7d d33c
00000270: 500e 013d 2cc1 26bd 9480 01bd 96bb 853c
00000280: c0a6 7fbc c520 f63c 1cba 25bd f723 16bb
00000290: 4809 abbb f9b7 d3bb db15 c43b 71b0 73bc
000002a0: c737 5abc a379 01bd eb5d b23c 5708 af3a
000002b0: b3c9 edbb 3273 cabc f0b9 90bc 8d74 5b3c
000002c0: 1eb8 a1bc 467a 103d 66a0 fd3c 5c09 20bc
000002d0: 6228 08bd f484 22bc 7b65 a1bc 1865 0ebd
000002e0: 00f1 4dbc 7727 203d f8b3 e7bc e1f3 dabc
000002f0: 3bb9 80ba 7650 153d 246d 72bc 6341 39bc
00000300: 73d2 c0bc 9d18 4fbc 01d1 333c 31dd 3e3c
00000310: 75ed 1d3d a26f af3c 7661 f53c 4f04 de3c
00000320: 8535 95ba 92bf 1a3c c3e6 db3c 50c4 ab3c
00000330: 0cce 23bd ae3f 75bc e06c 043d 50a8 43bc
00000340: 256b a8bb b312 183d b26e 643c f9b3 99bb
00000350: bea6 afbc 2711 ff3c f940 95bc cec4 f93c
00000360: e827 0c3d 6884 293b bd2f d0bc 3c53 fe3c
00000370: 244e 783b 6bb9 053d cb83 00bd 136f ce3c
00000380: 6f51 3a3c 03db c4bc 1709 bdbc 21de 9e3b
00000390: 5fc1 743b 56ae e63c 94b3 0a3d 23c7 c6ba
000003a0: 556c df3c 4c06 95bc be3c 0bbc 1d20 a83b
000003b0: 9c20 e93c 164c c6bc ae2e 263d 3085 8dbb
000003c0: 3bb2 37bc 3e70 e2bc 777c 86bc 9f61 183b
000003d0: 5792 3abc dc76 ca3c 66c7 443c 166e 11bd
000003e0: b437 4abc 13ea a4bc a966 b83b fb31 a3ba
000003f0: 4b98 52bb 0131 05bd 0edc c4bc e883 3d3c

base_model.model.transformer.h.0.attn.c_attn.lora_B.weight f4 [2304, 8]
-0.0031443385 0.0030493813 0.0031281433 0.0026542896 -0.0034196854 0.003173772 0.0035778414 -0.0025492988
0.0033495338 -0.0034166041 -0.0038367058 -0.003191239 0.0031450246 -0.0040096045 -0.0031971205 0.0023040592
0.0028760533 -0.0023416723 -0.0026576389 -0.0030715768 0.0030818598 -0.0019786386 -0.0028187667 0.003792516
-0.00031095784 0.00082368986 0.0007286368 0.00018828173 -8.191914e-05 0.0025399153 0.000116981704 0.0006492911
-0.001074617 0.0022367097 0.0019602722 0.0013297851 -0.00061051623 0.0023225097 0.0014913456 -0.0011476239
-0.0024695313 0.003121733 0.0027736754 0.0024726202 -0.0026650054 0.003625559 0.002578297 -0.00210794
0.0015522577 -0.002433531 -0.002353585 -0.0016250515 0.0014250781 -0.003111385 -0.002106942 0.0017115859
-0.0018150152 0.0022630326 0.0029752373 0.0021589757 -0.0013549976 0.0026796965 0.0019246511 -0.0022059444
0.0020408614 -0.00227054 -0.0022328736 -0.0018952325 0.0015435165 -0.004250757 -0.0016256532 0.0015557837
-0.0044572405 0.0045866803 0.0046076085 0.0046404395 -0.0040839044 0.0049026697 0.0037846954 -0.0035330376
0.0010933372 -0.0002577219 2.2049985e-06 -0.00074637856 0.0011328539 -0.00062774867 -0.0010354349 0.00048831047
0.0032975937 -0.0036002977 -0.0035578164 -0.0032652393 0.0032592693 -0.0047186264 -0.0030499399 0.002822531
-0.0028530322 0.0023295938 0.002014303 0.0032964523 -0.0028975455 0.003163737 0.001022742 -0.0028782005
-0.0029380752 0.0031983675 0.003402464 0.002879038 -0.002422042 0.003965359 0.0025500848 -0.002505559
0.0015132097 -0.0017479825 -0.0019132848 -0.0014313948 0.0010199974 -0.0034706239 -0.0009256247 0.0010209363
0.0007852721 -0.0013677215 -0.0015452628 -0.000875485 0.00064321107 -0.002802822 -0.000737368 0.0009497074
0.0042365897 -0.00448446 -0.0043927557 -0.0037735016 0.0045117214 -0.0045384844 -0.0039677746 0.0036632146
-0.0011019019 0.0004513173 0.0008457293 0.0014600437 -0.0010855045 -0.0001468521 0.0011059231 -0.0024076581
-0.0033475542 0.0037820116 0.0037154015 0.0034495422 -0.0030268421 0.0047657024 0.0028194878 -0.0032326584
0.0012934911 -0.002043446 -0.00037987184 -0.00083816913 0.0013910248 -0.002984077 -0.0014220922 -7.917208e-05
-0.00030211662 0.0006243534 -2.9603534e-05 0.00034824005 -0.0009031234 0.0004444483 0.00064293 -0.0008678388
0.0011227793 -0.0016697347 -0.0021961848 -0.0015556149 0.0010420393 -0.0014386068 -0.0014697585 0.0016407418
0.002472769 -0.0024631226 -0.0023239565 -0.0022177594 0.002022404 -0.004347817 -0.001669354 0.0016155734
-0.001559921 0.00212662 0.0022041348 0.0014849816 -0.0014009273 0.0034223385 0.0015413415 -0.0012105064
-0.0035281745 0.003563483 0.0032261787 0.0034103128 -0.0034458386 0.0048021134 0.0029775626 -0.0024792717
0.002987485 -0.0025289692 -0.0019196208 -0.002823071 0.0033925753 -0.0034422206 -0.0025371958 0.00306529
-0.0025838204 0.0029493615 0.0028015822 0.0024239803 -0.00204167 0.004067387 0.0023538142 -0.002300632
-0.0017486098 0.0024829404 0.0023972949 0.0017085267 -0.001535273 0.0035350467 0.0019809476 -0.0015461623
-0.0025217284 0.0032743746 0.003237863 0.002532479 -0.002450414 0.0037244412 0.0027864259 -0.0028510327
0.0028375676 -0.0027545155 -0.0019998634 -0.0025383008 0.0024355352 -0.0042166724 -0.0020967908 0.0015716321
7.373287e-05 -0.00046217255 0.00074876513 0.00047880108 -8.755048e-05 -0.00015987684 0.00036943547 -0.0018175655
0.0018685684 -0.001665252 -0.0012964673 -0.0016342892 0.0015436106 -0.003304988 -0.0011430631 0.0003070576
00000000: 3f11 4ebb 21d8 473b 8901 4d3b 97f3 2d3b
00000010: cd1c 60bb 0fff 4f3b 387a 6a3b 2312 27bb
00000020: da83 5b3b 1be9 5fbb 3e71 7bbb 1b24 51bb
00000030: c21c 4e3b 0063 83bb c886 51bb b3ff 163b
00000040: 2b7c 3c3b be76 19bb c82b 2ebb 824c 49bb
00000050: 07f9 493b 0cac 01bb 0fbb 38bb dc8b 783b
00000060: 0e08 a3b9 e4ec 573a fd01 3f3a 7e6d 4539
00000070: 01cc abb8 b574 263b 1354 f538 3035 2a3a
00000080: 2ada 8cba c395 123b e977 003b 2f4c ae3a
00000090: 0d0b 20ba 3f35 183b 4179 c33a de6b 96ba
000000a0: dcd7 21bb fd95 4c3b 8dc6 353b af0b 223b
000000b0: 5fa7 2ebb c99a 6d3b a5f8 283b 5d25 0abb
000000c0: 2075 cb3a e07b 1fbb 9b3e 1abb aeff d4ba
000000d0: b0c9 ba3a 61e8 4bbb 9f14 0abb 4b57 e03a
000000e0: cee5 edba 634f 143b 33fc 423b 9a7d 0d3b
000000f0: 2d9a b1ba d99d 2f3b 9344 fc3a 9b91 10bb
00000100: f9bf 053b 57cd 14bb 6755 12bb 7369 f8ba
00000110: d24f ca3a ef49 8bbb df13 d5ba 70eb cb3a
00000120: 0b0e 92bb dd4b 963b 6cfb 963b d40e 983b
00000130: 46d2 85bb 93a6 a03b a708 783b 898a 67bb
00000140: 4f4e 8f3a d91e 87b9 96f9 1336 9ea8 43ba
00000150: 457c 943a 808f 24ba 6eb7 87ba f601 003a
00000160: 711c 583b f9f2 6bbb 412a 69bb a0fd 55bb
00000170: 7799 553b b59e 9abb 80e1 47bb 36fa 383b
00000180: f0f9 3abb 19ac 183b 6602 043b 4b09 583b
00000190: bfe4 3dbb b356 4f3b 870d 863a 31a0 3cbb
000001a0: b98c 40bb b49b 513b e0fb 5e3b 3eae 3c3b
000001b0: 1fbb 1ebb d8ef 813b 531f 273b 4e34 24bb
000001c0: e456 c63a 8f1c e5ba 2fc7 faba a49d bbba
000001d0: 6fb1 853a 6873 63bb 9fa5 72ba f0d0 853a
000001e0: b8da 4d3a 1e45 b3ba 6a8a caba ce80 65ba
000001f0: 2a9d 283a 8daf 37bb ee4b 41ba c9f5 783a
00000200: 17d3 8a3b 61f2 92bb 1bf1 8fbb da4c 77bb
00000210: 10d7 933b 91b7 94bb 1b04 82bb 8b12 703b
00000220: b16d 90ba c89e ec39 efb3 5d3a f05e bf3a
00000230: 7d47 8eba 4ffc 19b9 9ff4 903a cdc9 1dbb
00000240: a462 5bbb a0db 773b 187e 733b b711 623b
00000250: fc5d 46bb 9c29 9c3b 28c7 383b 02db 53bb
00000260: 5c8a a93a 56eb 05bb 8929 c7b9 94b8 5bba
00000270: 0c53 b63a 8190 43bb 7f65 baba 3009 a6b8
00000280: 6865 9eb9 a6ab 233a 1b55 f8b7 fd93 b639
00000290: 96bf 6cba d704 e939 4d8a 283a ad7f 63ba
000002a0: 392a 933a 00db daba deed 0fbb c6e5 cbba
000002b0: 0995 883a a28f bcba e9a4 c0ba 290e d73a
000002c0: 2e0e 223b 576c 21bb 854d 18bb d457 11bb
000002d0: 4f8a 043b 2278 8ebb 3ace daba a6c1 d33a
000002e0: 4376 ccba c35e 0b3b 3f73 103b b7a3 c23a
000002f0: 529f b7ba 5049 603b d706 ca3a dba9 9eba
00000300: f238 67bb 5389 693b 4c6e 533b 8e7f 5f3b
00000310: 94d3 61bb 0c5b 9d3b 3623 433b 477b 22bb
00000320: aec9 433b 10bd 25bb c99b fbba 4603 39bb
00000330: f855 5e3b e196 61bb 1547 26bb 08e3 483b
00000340: 5055 29bb 134a 413b c09a 373b a4db 1e3b
00000350: 8acd 05bb b747 853b 7342 1a3b 33c6 16bb
00000360: 9c31 e5ba d4b8 223b ef1b 1d3b a5f0 df3a
00000370: 373b c9ba 3eac 673b c9d2 013b 99a8 caba
00000380: 9543 25bb e496 563b 5432 543b f2f7 253b
00000390: 2097 20bb c115 743b 789c 363b 64d8 3abb
000003a0: 7cf6 393b 1a85 34bb 2410 03bb 9f59 26bb
000003b0: 809d 1f3b 032c 8abb 506a 09bb 39ff cd3a
000003c0: 08a1 9a38 c04f f2b9 c748 443a 9807 fb39
000003d0: 4e9b b7b8 9da4 27b9 cab0 c139 613b eeba
000003e0: c0ea f43a 9644 daba 39ee a9ba a535 d6ba
000003f0: fa52 ca3a 7f98 58bb d5d2 95ba 93fc a039

base_model.model.transformer.h.1.attn.c_attn.lora_A.weight f4 [8, 768]
-0.027553026 -0.03696441 -0.027847772 0.00815762 0.014571996 -0.035861116 -0.02023036 0.021010488
-0.026135257 0.01506026 -0.01586955 -0.008217786 -0.027769394 -0.028199498 -0.038853966 -0.011143601
0.011478548 0.022739304 0.039652348 0.03265376 0.041855168 0.032484546 0.00074850424 -0.0038212547
0.011971918 0.012063974 -0.0050921664 -0.024191521 -0.026408939 0.019529756 0.0034378082 -0.0085851755
-0.020425556 0.0312067 0.001572605 -0.030670935 0.0025150545 -0.012967974 -0.036617987 0.025767744
0.022670865 0.024652982 0.035094123 -0.011510308 0.0028742903 -0.03498884 0.0021839414 0.018379854
0.025656043 0.02393855 0.033213716 -0.02935835 0.019249009 -0.033261713 -0.0070202234 0.020294806
-0.02796432 -0.005149111 0.019533264 0.02178581 0.010491852 -0.0063718664 -0.02155201 -0.040764593
-0.005896042 -0.0075314245 -0.040842056 -0.027580917 0.0114179235 0.019516071 0.004763823 -0.03092027
-0.01145134 -0.013052828 -0.014975151 0.01385308 -0.023012197 0.02655135 -0.008455332 -0.029574897
-0.023151567 -0.02729018 -0.017247174 0.019492615 -0.034089226 -0.007996709 0.018883387 -0.009506913
-0.01676435 -0.022259269 -0.023728143 -0.013129986 0.013487458 0.017502273 0.034455143 -0.009107778
0.0027012264 0.013072386 -0.01243479 0.023917096 0.010162164 -0.018414164 -0.009630623 -0.029084941
-0.023999518 0.017372359 -0.0035397261 0.019860623 0.030694572 0.002960661 -0.004769113 0.016522598
-0.004196205 0.01351268 -0.03978652 0.0010327088 -0.029033097 -0.031230828 -0.034737706 -0.014277532
0.018194584 0.023773436 -0.009139977 -0.006787969 0.021082267 -0.021656029 0.015472791 -0.034432482
0.0037119763 0.025002845 -0.012433262 -0.014245012 0.0036462955 0.02080626 0.005460397 0.0057386775
-0.02625974 0.026125005 -0.036351647 -0.013596944 -0.022714438 -0.0045657107 -0.028581165 0.023739
0.021118943 0.0010530521 -0.011353622 -0.030037556 -0.0013339669 -0.030206177 -0.014079794 -0.023051484
-0.029208666 0.030468082 -0.021512598 0.01729698 -0.00155972 -0.010440652 0.037903346 0.029437914
-0.01914859 0.010157403 0.025494708 -0.024057036 -0.030081516 0.0018958476 -0.03821566 0.0045984085
0.004528353 0.0058285613 -0.003393631 -0.027636468 0.02017956 -0.016005108 0.021972504 0.008514268
0.0043614735 0.02953982 -0.013088629 0.0177372 0.011249502 0.009785742 -0.018771252 -0.013733098
-0.013233589 -0.013606194 -0.027737964 0.002601129 -0.02909133 0.0186769 -0.02701108 -0.021888347
-0.025363225 0.012488595 0.027384017 -0.030770851 0.011751264 0.012306659 0.023408739 -0.01362341
0.01444697 -0.03562459 -0.026688714 0.023436759 -0.012846228 0.030138921 0.040792555 -0.0032613499
0.023382489 -0.00958245 0.017194357 0.007575173 -0.02606841 0.027463056 -0.015506621 -0.007783907
0.020276949 -0.036492143 -0.017496862 -0.03357784 0.019481977 0.005423947 -0.022602864 0.017618597
0.029878784 0.004991062 0.009427905 -0.017617889 0.0018200498 0.02416874 -0.0023962967 -0.026572691
-0.026524493 -0.00671972 -0.0067700623 -0.025235511 0.028923031 0.007686034 -0.028261779 -0.030848924
-0.03466403 -0.032323617 -0.0142171 0.0058653452 -0.03811934 0.017178722 0.010693269 0.00462541
0.010031915 -0.0072420784 0.02224915 0.005434446 -0.0061279666 -0.028778628 0.02059519 0.025316644
00000000: e2b6 e1bc fe67 17bd 0321 e4bc 8aa7 053c
00000010: 62bf 6e3c 1be3 12bd 24ba a5bc 301e ac3c
00000020: 9b19 d6bc 4fbf 763c dc00 82bc e5a3 06bc
00000030: a47c e3bc a202 e7bc 5625 1fbd a693 36bc
00000040: 8510 3c3c c747 ba3c 806a 223d f3bf 053d
00000050: 5370 2b3d 840e 053d 4537 443a 046e 7abb
00000060: dd25 443c f9a7 453c 30dc a6bb 4c2d c6bc
00000070: 8f57 d8bc defc 9f3c da4c 613b d6a8 0cbc
00000080: 7f53 a7bc 31a5 ff3c de1f ce3a 9d41 fbbc
00000090: 9dd3 243b a077 54bc befc 15bd e016 d33c
000000a0: 40b8 b93c 0df5 c93c dbbe 0f3d bb95 3cbc
000000b0: 975e 3c3b 7550 0fbd 7520 0f3b 5991 963c
000000c0: 9f2c d23c c71a c43c 1b0b 083d ec80 f0bc
000000d0: 19b0 9d3c 6f3d 08bd e709 e6bb 4b41 a63c
000000e0: 6e15 e5bc e0b9 a8bb 3904 a03c 2878 b23c
000000f0: 04e6 2b3c 17cb d0bb d78d b0bc c6f8 26bd
00000100: 9633 c1bb 2bca f6bb 004a 27bd 60f1 e1bc
00000110: 3e12 3b3c 2be0 9f3c d819 9c3b 824c fdbc
00000120: 679e 3bbc 87db 55bc 565a 75bc 07f8 623c
00000130: 1384 bcbc 3782 d93c 3c88 0abc 0e47 f2bc
00000140: 5ba8 bdbc a88f dfbc f249 8dbc faae 9f3c
00000150: 25a1 0bbd a104 03bc 55b1 9a3c e2c2 1bbc
00000160: 6455 89bc 1259 b6bc 8661 c2bc 271f 57bc
00000170: 80fa 5c3c ed60 8f3c d620 0d3d ca38 15bc
00000180: 0f07 313b 902d 563c 4abb 4bbc c9ed c33c
00000190: 357f 263c 4dd9 96bc c3c9 1dbc 8b43 eebc
000001a0: a39a c4bc 7a50 8e3c c0fa 67bb bfb2 a23c
000001b0: 2f73 fb3c a607 423b 3846 9cbb 665a 873c
000001c0: 5280 89bb 4a64 5d3c 31f7 22bd f55b 873a
000001d0: d1d6 edbc cbd7 ffbc 2049 0ebd 4fec 69bc
000001e0: cf0c 953c 82c0 c23c d8bf 15bc 9c6d debb
000001f0: b8b4 ac3c fc67 b1bc 9781 7d3c 1309 0dbd
00000200: a144 733b c4d2 cc3c e1b4 4bbc e963 69bc
00000210: b0f6 6e3b e471 aa3c 21ed b23b 840b bc3b
00000220: ab1e d7bc 1b04 d63c 77e5 14bd b7c5 5ebc
00000230: a113 babc f59b 95bb 0c23 eabc 4b78 c23c
00000240: a201 ad3c 9106 8a3a 8b04 3abc 5211 f6bc
00000250: 80d8 aeba f272 f7bc f0ae 66bc 77d6 bcbc
00000260: 0347 efbc 3398 f93c 303b b0bc 65b2 8d3c
00000270: 856f ccba 450f 2bbc 8a40 1b3d c827 f13c
00000280: 81dd 9cbc 3c6b 263c 47da d03c 4313 c5bc
00000290: 836d f6bc 177e f83a 0688 1cbd 3fae 963b
000002a0: 9462 943b 84fd be3b ae67 5ebb e065 e2bc
000002b0: 9b4f a53c 251d 83bc aeff b33c 6e7f 0b3c
000002c0: b1ea 8e3b 7efd f13c b071 56bc 9b4d 913c
000002d0: d54f 383c 6054 203c 2bc6 99bc ca00 61bc
000002e0: b2d1 58bc 84ec 5ebc ba3a e3bc b477 2a3b
000002f0: f150 eebc 4c00 993c 5746 ddbc 314f b3bc
00000300: 8ac6 cfbc f79c 4c3c 7254 e03c 2713 fcbc
00000310: 6088 403c dea1 493c afc3 bf3c b934 5fbc
00000320: fcb2 6c3c 17eb 11bd 4aa2 dabc 72fe bf3c
00000330: fc78 52bc e6e5 f63c 1816 273d 5fbc 55bb
00000340: a28c bf3c b5ff 1cbc 2edb 8c3c 2839 f83b
00000350: 6b8d d5bc 34fa e03c 7c0f 7ebc 2510 ffbb
00000360: d81b a63c c978 15bd 9455 8fbc eb88 09bd
00000370: ab98 9f3c 5dbb b13b a429 b9bc e054 903c
00000380: 5ac4 f43c 108c a33b 8077 1a3c 6453 90bc
00000390: bd8e ee3a 85fd c53c 300b 1dbb f9ae d9bc
000003a0: e549 d9bc 1931 dcbb 66d7 ddbb b4ba cebc
000003b0: feef ec3c 20db fb3b 3f85 e7bc e2b6 fcbc
000003c0: dffb 0dbd c565 04bd d7ee 68bc 1532 c03b
000003d0: 0623 1cbd 64ba 8c3c d232 2f3c c090 973b
000003e0: e75c 243c f54e edbb d943 b63c 7013 b23b
000003f0: 1ccd c8bb 28c1 ebbc 3eb7 a83c da64 cf3c

base_model.model.transformer.h.1.attn.c_attn.lora_B.weight f4 [2304, 8]
-0.0014638721 -0.003306138 -0.0030193534 0.003100921 0.0024431315 0.0010081358 0.0036252348 0.0023651945
-0.004091255 -0.004756566 -0.004490752 0.004655912 0.0038456197 0.0044545457 0.004581745 0.0046566734
0.0020431075 0.0005390529 -6.629781e-05 0.0006282569 -0.0026267003 -0.001496269 0.0011772861 0.00015805513
-0.0027251996 -0.0041894345 -0.0042003617 0.00435004 0.002753876 0.0027012858 0.004322095 0.004216735
-0.00070574123 -0.0016902725 -0.0014922952 0.0025359846 0.0020650844 0.0005738099 0.0025166094 0.0016564828
0.0026649903 0.0036119253 0.0037510379 -0.0036315627 -0.00259843 -0.0020964947 -0.0036523563 -0.0038173047
0.00060969376 0.003757962 0.0039777677 -0.004109591 -0.0012638624 -0.0006192358 -0.0041527115 -0.0038924327
-0.003101125 -0.0035275063 -0.003237912 0.0028712952 0.002255483 0.002855991 0.0029600123 0.0030028094
-0.001026488 -0.0038781906 -0.004031923 0.004228944 0.0013313709 0.0010913779 0.00419902 0.004058593
-0.0014282961 0.00058523845 0.00042067174 -0.0008305143 -0.0005202983 0.0010848856 -0.0013806726 -0.00048188132
-0.00021909756 0.0007560648 0.0016214055 -0.0016589144 0.0014056112 0.0007529078 -0.0019481999 -0.0015118599
-0.0014301311 -0.004290929 -0.0042393357 0.0043604057 0.0019737761 0.0017238447 0.0044816486 0.004094438
-0.0014715835 -0.004049195 -0.0039221966 0.004129727 0.002234655 0.0021386452 0.004143556 0.0038985088
-0.0030534023 -0.004683456 -0.004566571 0.004572938 0.002661396 0.0032955129 0.004683325 0.0045147594
0.0018869634 0.002432293 0.0022771703 -0.0029665122 -0.0010338029 -0.0027146104 -0.0029665418 -0.0027242952
-0.0008198077 -0.0034473452 -0.0035475704 0.0038879039 0.0008242658 0.0013754007 0.0039059964 0.0034805806
0.0032328872 0.0042679273 0.0042625186 -0.0043811486 -0.00281729 -0.0032478904 -0.0043150783 -0.0042260084
-0.002147173 -0.0024656535 -0.0025716084 0.0032081201 0.00092276424 0.0022120746 0.00312553 0.003162036
0.0011524024 0.00014186952 -3.976031e-06 0.0012447024 -0.000114902956 -0.000561595 0.001153074 -2.2989327e-05
-0.002672881 -0.003272966 -0.0034066427 0.0039427243 0.0021509465 0.002511538 0.0038108793 0.0036159947
0.0026441987 0.004836355 0.004764926 -0.004773492 -0.0028194173 -0.0027988667 -0.004679499 -0.004710076
-0.0008985064 -0.00049572345 -0.00020036059 -0.0010591663 0.0014025358 0.0010959568 -0.0006027344 -0.0009874839
0.00238162 0.0034437187 0.0035364232 -0.0038128383 -0.0018239944 -0.0025736755 -0.0037510206 -0.0035439145
0.0034649514 0.0045170723 0.004357901 -0.0044952463 -0.003010626 -0.004010786 -0.0044916077 -0.0043942304
0.0012443047 0.001885095 0.0016987901 -0.0015603453 -0.0017383051 -0.0009115897 -0.0021871065 -0.0012631719
-0.0014349873 -0.004279223 -0.0041933525 0.0043956353 0.0021681313 0.0021554923 0.004533361 0.004071912
0.0016242634 0.0022265941 0.0022225226 -0.0024704332 -0.0016494401 -0.0026597653 -0.0023997873 -0.002578736
-0.003076791 -0.0045215096 -0.004460636 0.0045309267 0.0023578177 0.0032263363 0.0046732933 0.004407696
0.002098023 0.000944611 0.00013932222 0.0011824929 -0.0018526128 -0.0019797042 0.0007830461 0.0005231606
0.0012793404 0.0008541588 0.0005200807 0.0006813165 -0.0024532466 -0.00037798658 0.00051535695 0.00043695705
0.0009866889 0.0017470177 0.0016686888 -0.0028612278 -0.0021844679 -0.0012006366 -0.00258903 -0.0026176178
0.0021709222 0.001398672 0.0012201555 -0.002528111 -0.0018888819 -0.0024212385 -0.0022404788 -0.002270375
00000000: 66df bfba cbab 58bb 58e0 45bb d238 4b3b
00000010: f21c 203b 6d23 843a 5995 6d3b 6101 1b3b
00000020: ef0f 86bb f8dc 9bbb 2827 93bb 9f90 983b
00000030: cb06 7c3b 70f7 913b 7622 963b 0297 983b
00000040: a8e5 053b 3a4f 0d3a 5e09 8bb8 9bb1 243a
00000050: b824 2cbb 751e c4ba 2b4f 9a3a 9abb 2539
00000060: 4399 32bb 8647 89bb 30a3 89bb c88a 8e3b
00000070: 5f7a 343b 0e08 313b 5ca0 8d3b 892c 8a3b
00000080: 7e01 39ba 228c ddba 1e99 c3ba c332 263b
00000090: 5e56 073b bb6b 163a b3ed 243b 571e d93a
000000a0: 1ea7 2e3b 0db6 6c3b f9d3 753b 83ff 6dbb
000000b0: 6c4a 2abb 5865 09bb 5f5c 6fbb bf2b 7abb
000000c0: dbd3 1f3a 2448 763b ef57 823b bfa9 86bb
000000d0: 2fa8 a5ba 3654 22ba 7813 88bb 2f18 7fbb
000000e0: 3e3c 4bbb bc2d 67bb 2633 54bb 572c 3c3b
000000f0: bad0 133b 942b 3b3b c4fc 413b c8ca 443b
00000100: 398b 86ba 3e29 7ebb 391e 84bb f492 8a3b
00000110: 6581 ae3a 910c 8f3a ef97 893b f2fd 843b
00000120: aa35 bbba b06a 193a 9b8d dc39 dfb6 59ba
00000130: a164 08ba b832 8e3a aff7 b4ba 04a5 fcb9
00000140: 8ebd 65b9 a632 463a 5785 d43a ee6f d9ba
00000150: 7c3c b83a ca5e 453a be5a ffba 9a29 c6ba
00000160: 3d73 bbba ec9a 8cbb 20ea 8abb bce1 8e3b
00000170: 785a 013b a1f2 e13a cbda 923b a32a 863b
00000180: 26e2 c0ba 1caf 84bb c585 80bb a952 873b
00000190: 4a73 123b 8328 0c3b abc6 873b 207e 7f3b
000001a0: 971b 48bb ad77 99bb 2da3 95bb 96d8 953b
000001b0: d16a 2e3b 88f9 573b 9476 993b 8cf0 933b
000001c0: fc53 f73a 1b67 1f3b 943c 153b d169 42bb
000001d0: ab80 87ba 9be7 31bb 506a 42bb 178a 32bb
000001e0: 5de8 56ba dbec 61bb 5b7e 68bb 34cc 7e3b
000001f0: 8b13 583a ca46 b43a bffb 7f3b 741a 643b
00000200: d9de 533b f8d9 8b3b 99ac 8b3b bd8f 8fbb
00000210: 48a2 38bb 8fda 54bb 8065 8dbb 547a 8abb
00000220: 96b7 0cbb cd96 21bb 6e88 28bb 533f 523b
00000230: a9e5 713a 74f8 103b b1d5 4c3b 293a 4f3b
00000240: 350c 973a cfc2 1439 d969 85b6 4825 a33a
00000250: 0ef8 f0b8 0138 13ba be22 973a 34d9 c0b7
00000260: 802b 2fbb 427f 56bb fb41 5fbb f831 813b
00000270: e5f6 0c3b 9e98 243b f2bf 793b 53fa 6c3b
00000280: 4b4a 2d3b 497a 9e3b 1923 9c3b f46a 9cbb
00000290: f9c5 38bb 316d 37bb 7c56 99bb fb56 9abb
000002a0: be89 6bba 70f3 01ba e317 52b9 b9d3 8aba
000002b0: 4bd5 b73a 35a6 8f3a d200 1eba 766e 81ba
000002c0: f414 1c3b 03b0 613b 56c3 673b d0e0 79bb
000002d0: 1913 efba 1cab 28bb afd3 75bb 0541 68bb
000002e0: 3d14 633b f303 943b b9cc 8e3b dc4c 93bb
000002f0: ec4d 45bb e96c 83bb 562e 93bb 7afd 8fbb
00000300: f017 a33a 4b15 f73a f0a9 de3a 8084 ccba
00000310: d7d7 e3ba c0f7 6eba 8f55 0fbb 0491 a5ba
00000320: 2f16 bcba b938 8cbb 6468 89bb 4309 903b
00000330: 3517 0e3b 2943 0d3b 978c 943b ac6d 853b
00000340: 3ce5 d43a 0dec 113b bea7 113b fee6 21bb
00000350: 0732 d8ba 754f 2ebb c045 1dbb 0300 29bb
00000360: fda3 49bb 2c29 94bb 872a 92bb 2b78 943b
00000370: 9e85 1a3b f170 533b 6d22 993b 6f6e 903b
00000380: fc7e 093b c59f 773a 0617 1239 e1fd 9a3a
00000390: 5fd3 f2ba edbd 01bb 5645 4d3a b724 093a
000003a0: 8aaf a73a a0e9 5f3a 0656 083a 609a 323a
000003b0: a6c6 20bb 802c c6b9 0519 073a 6217 e539
000003c0: c953 813a 30fc e43a e8b7 da3a 7083 3bbb
000003d0: 4a29 0fbb ae5e 9dba b7ac 29bb 578c 2bbb
000003e0: 0846 0e3b a553 b73a a0ed 9f3a aaae 25bb
000003f0: 5c94 f7ba a4ad 1ebb ffd4 12bb 92ca 14bb

base_model.model.transformer.h.2.attn.c_attn.lora_A.weight f4 [8, 768]
-0.030213358 0.012046715 0.0011997895 -0.020408956 0.030432144 -0.039327428 -0.0049802293 -0.0023687824
0.03338734 -0.0030721077 -0.030188018 0.0023744314 0.03970565 0.0027633375 -0.038612038 -0.020975752
0.030309726 -0.02223315 0.0046288883 -0.00090267364 0.0068851737 0.022354553 0.0070019783 -0.005636596
0.0338733 0.015757922 -0.0060997955 0.03218057 -0.03787477 -0.0021809973 -0.0024978155 0.0149204135
0.0058934055 -0.0034789476 0.019818744 -0.013442124 0.016618878 -0.034231283 0.03636376 -0.015516592
0.0333896 -0.0175868 -0.025312897 -0.00476986 -0.0031735636 0.022074705 0.0063756974 0.009929405
-0.0361873 -0.014689006 -0.016155172 0.034639094 -0.016305331 -0.011763357 0.013391512 0.008656535
-0.02362951 -0.009149663 -0.020191692 -0.005855838 0.019766556 0.034469955 -0.020638075 0.03186891
0.0034291826 0.019566363 0.008442976 0.006055575 -0.010525055 0.019441893 -0.0032141132 -0.017056901
0.0054001845 0.023863116 0.007886958 -0.025683882 0.01306105 -0.025845798 0.008227195 0.015895471
0.029422246 -0.0045826407 0.011015218 0.015889158 0.01894158 -0.041454047 -0.025476057 0.037388913
0.030950772 0.015325454 0.0090738805 -0.039881855 -0.029654179 -0.00078384863 -0.01375803 0.008896944
0.0024382717 0.018559974 -0.018175032 0.02636028 -0.01915244 -0.04025197 -0.0016077044 -0.009089104
0.022097938 0.008195018 0.01255506 0.022536967 -0.0009539658 0.0020745865 0.0370255 -0.03354081
0.039917182 -0.009812627 -0.004536712 -0.021830698 0.023926193 0.023399154 0.027577747 -0.0032448776
0.01123483 -0.018522367 -0.02457016 0.007092654 -0.006958074 0.0021876702 -0.030578295 0.008489966
0.008184149 0.019750196 0.019736785 -0.009252482 0.040012386 0.023280539 0.015065392 0.0216549
0.013648589 -0.0051914672 0.010064441 -0.02486828 -0.029033786 0.02363171 0.005522688 -0.018641198
-0.016906956 0.013903365 -0.0106000025 -0.020597214 0.0233712 -0.025686642 -0.025537346 0.023341605
-0.03752655 -0.0126946485 0.010167645 -0.0024475963 0.02010848 -0.02871771 -0.026702672 0.024846049
-0.020186476 0.03361778 -0.02094711 0.012271253 -0.034267467 -0.020951403 0.0046149376 -0.009420578
-0.012718304 -0.026411245 -0.0013898278 -0.021294253 0.01619957 -0.026234156 0.026683038 0.033165816
-0.032848857 0.01473519 0.028583324 0.006428636 0.012562245 0.0018481736 -0.023162868 -0.007775955
-0.004116484 0.009097581 0.00029447934 0.01576472 0.0031927498 0.03257962 0.005775655 0.038995553
-0.011233543 0.01620603 -0.023620153 0.019944763 0.040524747 -0.020178022 -0.0025107176 0.0075462693
0.0008718457 -0.0038974376 0.016238093 -0.029890029 0.03951767 -0.017368313 -0.0194753 0.007046197
0.0099920165 0.01994309 0.022471694 -0.008487843 -0.02595805 -0.006715685 0.009640443 -0.025415182
-0.004746563 0.02850563 0.007106693 0.022702124 -0.02284082 0.002363 0.0368395 0.02668712
-0.0045172465 -0.009574604 -0.032986537 -0.014429927 -0.0028511146 -0.001799533 -0.01427269 0.0032457917
-0.029205782 6.934705e-05 -0.0021574474 -0.014083611 0.0034297397 -0.022815397 -0.014965246 0.0065809656
0.02796389 -0.016973386 0.0010169673 -0.024026554 -0.015804462 0.031692408 0.0031701964 0.0032771092
-0.033999626 -0.008384794 0.015266006 -0.009386536 0.024836779 0.014861639 -0.011073606 0.034111977
00000000: 0182 f7bc 965f 453c 4142 9d3a af30 a7bc
00000010: d54c f93c cc15 21bd 3131 a3bb 933d 1bbb
00000020: 2ac1 083d 6a55 49bb dd4c f7bc 599c 1b3b
00000030: 64a2 223d 1c19 353b a827 1ebd 57d5 abbc
00000040: 1a4c f83c 4c22 b6bc eead 973b 67a1 6cba
00000050: 069d e13b e520 b73c da70 e53b 32b3 b8bb
00000060: bbbe 0a3d c216 813c cbe0 c7bb c6cf 033d
00000070: 9322 1bbd 10ef 0ebb 64b2 23bb c074 743c
00000080: 781d c13b 0eff 63bb eb5a a23c 5b3c 5cbc
00000090: 5024 883c 1a36 0cbd 2af2 143d 4e39 7ebc
000000a0: 89c3 083d 3112 90bc fe5c cfbc 7c4c 9cbb
000000b0: 90fb 4fbb 03d6 b43c 3aeb d03b f1ae 223c
000000c0: 2239 14bd 28aa 70bc da57 84bc b9e1 0d3d
000000d0: c292 85bc 18bb 40bc 1368 5b3c 24d4 0d3c
000000e0: ad92 c1bc 78e8 15bc 0c69 a5bc 54e2 bfbb
000000f0: 79ed a13c 5e30 0d3d 2e11 a9bc f988 023d
00000100: 23bc 603b a349 a03c 6854 0a3c d86d c63b
00000110: 4871 2cbc 9b44 9f3c dfa3 52bb eaba 8bbc
00000120: 08f4 b03b 957c c33c 4d38 013c 0167 d2bc
00000130: 04fe 553c 91ba d3bc 5bcb 063c 3837 823c
00000140: ec06 f13c fa29 96bb 2c79 343c fb29 823c
00000150: 5f2b 9b3c b8cb 29bd 2ab3 d0bc 1e25 193d
00000160: 798c fd3c 9d17 7b3c 9daa 143c 285b 23bd
00000170: 52ed f2bc 317b 4dba 5c69 61bc 7dc4 113c
00000180: 69cb 1f3b 160b 983c cee3 94bc 84f1 d73c
00000190: 94e5 9cbc 40df 24bd 9cb9 d2ba 77ea 14bc
000001a0: bc06 b53c 6644 063c bdb3 4d3c 729f b83c
000001b0: 9013 7aba c9f5 073b 0da8 173d 1762 09bd
000001c0: 3380 233d 24c5 20bc b3a8 94bb 4bd6 b2bc
000001d0: dd00 c43c 95af bf3c baea e13c 03a8 54bb
000001e0: 4b12 383c 38bc 97bc 5c47 c9bc 7e69 e83b
000001f0: 8e00 e4bb 045f 0f3b 557f fabc 8019 0b3c
00000200: cf16 063c 2acb a13c 0aaf a13c b997 17bc
00000210: 07e4 233d d4b6 be3c d5d4 763c 9e65 b13c
00000220: 559e 5f3c 2f1d aabb 53e5 243c 90b8 cbbc
00000230: 43d8 edbc 4a97 c13c aaf7 b43b 6db5 98bc
00000240: 7580 8abc f0ca 633c a2ab 2dbc 7dbb a8bc
00000250: f574 bf3c cb6c d2bc b233 d1bc e536 bf3c
00000260: 71b5 19bd 37fd 4fbc 3296 263c da67 20bb
00000270: 8aba a43c 6741 ebbc 90bf dabc f189 cb3c
00000280: 1c5e a5bc ccb2 093d 4699 abbc 5e0d 493c
00000290: 0b5c 0cbd 47a2 abbc e738 973b c558 1abc
000002a0: 6f60 50bc 655c d8bc e22a b6ba 4971 aebc
000002b0: f6b4 843c 03e9 d6bc 6396 da3c e1d8 073d
000002c0: 868c 06bd de6b 713c 9327 ea3c 4fa7 d23b
000002d0: e0d1 4d3c 6a3e f23a 0ec0 bdbc 70cd febb
000002e0: 92e3 86bb 050e 153c 5964 9a39 0425 813c
000002f0: 743d 513b 3572 053d b541 bd3b cdb9 1f3d
00000300: e50c 38bc 82c2 843c 0d7f c1bc 3363 a33c
00000310: 47fd 253d 614c a5bc da8a 24bb b246 f73b
00000320: 938c 643a 276c 7fbb c005 853c efdb f4bc
00000330: 48dd 213d fe47 8ebc aa8a 9fbc c9e3 e63b
00000340: 8eb5 233c b15f a33c 8f16 b83c 9810 0bbc
00000350: faa5 d4bc 400f dcbb f3f2 1d3c 8033 d0bc
00000360: 0e89 9bbb a484 e93c 43df e83b cef9 b93c
00000370: ac1c bbbc 90dc 1a3b 04e5 163d f29e da3c
00000380: 6905 94bb cdde 1cbc e41c 07bd 806b 6cbc
00000390: c4d9 3abb 4fde ebba 00d8 69bc 59b7 543b
000003a0: f740 efbc 6a6e 9138 f663 0dbb f2be 66bc
000003b0: 7cc5 603b 5be7 babc cb30 75bc 24a5 d73b
000003c0: 8714 e53c c50b 8bbc c34b 853a 56d3 c4bc
000003d0: 5c78 81bc e6cf 013d 12c3 4f3b c5c4 563b
000003e0: 3143 0bbd 6060 09bc 451e 7a3c fcc9 19bc
000003f0: 8076 cb3c 3b7e 733c 126e 35bc 00b9 0b3d

base_model.model.transformer.h.2.attn.c_attn.lora_B.weight f4 [2304, 8]
-5.290951e-05 3.765157e-05 -8.6658576e-05 -0.0002591222 -0.00026523683 -0.001998354 0.00090939633 -0.0031702588
0.0028699492 0.0018595326 -0.001284949 0.0019644739 0.003219605 0.0026010287 0.002810837 0.0013810751
-0.0005215288 -0.00086092215 0.0012426081 -0.00064208097 -0.000581411 0.0016731799 -0.0007791196 0.0016179627
0.0004491278 0.00057032914 -0.00061931764 0.0003311415 0.00044695154 0.002052708 -0.00021271335 0.003492176
0.0010615551 -0.00068700005 1.5608897e-05 0.0013059035 0.0021326519 0.0025786157 2.6105463e-06 0.002750021
-0.000250254 -0.0005327591 0.0006157646 -0.000117370975 -0.00020430257 0.00031563573 -0.00089967344 0.0012184102
-0.0023766072 -0.0010137402 0.0012812115 -0.0016324256 -0.0023243378 -0.0030199243 -0.0023198007 -0.0029247454
-0.0014647874 -0.0007433045 0.000491859 -0.0012272182 -0.001324659 -0.002682833 -0.00067873683 -0.0037586237
0.00039886276 0.0009957101 -0.0014419875 0.00035956554 5.658346e-05 -0.00084501575 0.001600444 -0.0021757928
-0.0016500773 -0.0017384423 0.00095398247 -0.0006847001 -0.0019011574 -0.0011471733 -0.0021913953 0.00037110815
-0.0011524569 2.649355e-05 0.0008331668 -0.0004207111 -0.0009815014 -0.003107472 0.00021997506 -0.0035077143
-0.0014561804 -0.0011815266 0.0010708857 -0.00070165703 -0.0016603976 0.0010149349 -0.0018869699 0.0021198273
-0.000921278 -0.0008209196 0.0020361752 -0.0016475886 -6.796272e-05 -0.0032113078 -0.00034377098 -0.003839017
0.0027729203 0.0017989251 -0.003278118 0.0029385027 0.0026434632 0.005003868 0.0021639038 0.00534204
0.0019605767 0.0013984716 -0.0017356767 0.0018634064 0.0024101452 0.0034694101 0.0018466692 0.0037270433
-0.00027531435 -0.0003166851 -1.1493573e-05 -0.00017550614 -0.00080491847 0.0017366766 -0.0005985302 0.0020882117
-0.000772149 -0.0011341816 0.0016624808 -0.0014679326 -0.00053977914 -0.0019310149 -0.0007672132 -0.002142748
-0.0005771638 0.00044644863 -0.00017238145 -1.9316409e-05 -0.0005919355 -0.0016303803 -0.00113355 -0.0006906727
0.000922896 0.0014212815 -0.0016767023 0.001697402 0.0013740634 0.0011329851 0.00045270807 0.002012983
0.0017903288 0.002185242 -0.0012454694 0.0006884518 0.0018016805 0.0008216709 0.0023025228 -0.00010703598
0.0028839696 0.001958023 -0.0029482453 0.0027660101 0.00247619 0.0037089074 0.0023733082 0.0039532683
-0.0032154464 -0.0026321968 0.002720481 -0.0023355142 -0.0031510866 -0.0023929598 -0.003381628 -0.0016475398
-0.0022607713 -0.0020534873 0.0021649876 -0.0020867933 -0.0024669333 -0.0011315322 -0.0024155003 0.000117541225
0.0009000599 0.00035953347 -0.00039754342 0.0007880623 0.0012033732 -0.0011722911 0.0006158196 -0.0016889963
-0.00076935865 0.00028304968 -3.5368008e-05 -0.00047121246 -0.001116679 -0.0017050029 -0.00075306423 -0.0005083701
0.003194036 0.0026581197 -0.0023673077 0.0026391742 0.003277752 0.0043872935 0.003476167 0.003909756
0.00021114973 0.00020506809 -4.504304e-05 -0.00045529072 0.00032602603 0.0012159682 0.00014470475 0.002125638
-0.003028631 -0.002247789 0.0023796188 -0.0014347691 -0.0031799101 -0.0038895553 -0.0037762607 -0.0031579153
0.000559945 6.231878e-05 -0.00089794456 0.0014015781 0.00017463627 0.0031979785 -0.0002794291 0.0042376034
0.0017505187 0.0014932269 -0.0022247105 0.0016562451 0.0019441857 0.0015821721 0.0017483521 0.0014003231
0.00083756604 0.00031925537 -0.0011355503 0.0011688217 9.820147e-05 0.0032497265 0.00010202621 0.0040706876
-0.0028524182 -0.0020043456 0.002090895 -0.002590739 -0.0030237902 -0.0031541695 -0.0030214682 -0.0027067582
00000000: 27eb 5db8 11ec 1d38 78bc b5b8 cbda 87b9
00000010: 7c0f 8bb9 d1f6 02bb 8e64 6e3a 1ec4 4fbb
00000020: c215 3c3b 8fbb f33a bc6b a8ba 67be 003b
00000030: 0200 533b 0576 2a3b 0536 383b 3105 b53a
00000040: 35b7 08ba 82af 61ba 02df a23a 5351 28ba
00000050: d569 18ba 9a4e db3a d53d 4cba d211 d43a
00000060: ea78 eb39 2482 153a b459 22ba 0f9d ad39
00000070: d254 ea39 ba86 063b ce0b 5fb9 fedc 643b
00000080: e123 8b3a cb17 34ba daef 8237 da2a ab3a
00000090: f6c3 0b3b fefd 283b d830 2f36 b239 343b
000000a0: 8634 83b9 dca8 0bba 436b 213a 1025 f6b8
000000b0: 0e3a 56b9 e97b a539 10d8 6bba 10b3 9f3a
000000c0: dac0 1bbb 7adf 84ba 53ee a73a 1df7 d5ba
000000d0: eb53 18bb ece9 45bb cc07 18bb 16ad 3fbb
000000e0: 1cfe bfba 52da 42ba 19f0 003a 9cda a0ba
000000f0: 2ea0 adba 78d2 2fbb 42ed 31ba 3e53 76bb
00000100: 741e d139 7d82 823a 1201 bdba 1284 bc39
00000110: 0754 6d38 0c84 5dba fdc5 d13a bf97 0ebb
00000120: 6847 d8ba 72dc e3ba ae14 7a3a 727d 33ba
00000130: 4230 f9ba c05c 96ba 839d 0fbb 4b91 c239
00000140: 090e 97ba 773e de37 e168 5a3a e392 dcb9
00000150: b9a5 80ba bba6 4bbb 1ba9 6639 aee1 65bb
00000160: 4edd beba 74dd 9aba f65c 8c3a 68ef 37ba
00000170: b3a1 d9ba 9007 853a 3454 f7ba cdec 0a3b
00000180: ec81 71ba fb32 57ba 5a71 053b e6f3 d7ba
00000190: 3587 8eb8 ce74 52bb 293c b4b9 0498 7bbb
000001a0: e2b9 353b e9c9 eb3a b2d5 56bb e593 403b
000001b0: f43d 2d3b 7df7 a33b 48d0 0d3b 480c af3b
000001c0: 057d 003b ec4c b73a a57f e3ba 8b3d f43a
000001d0: 87f3 1d3b 0b5f 633b f00b f23a 6941 743b
000001e0: 1158 90b9 c108 a6b9 85d4 40b7 1208 38b9
000001f0: 2a01 53ba 32a1 e33a afe6 1cba 61da 083b
00000200: 0b6a 4aba d2a8 94ba 99e7 d93a a567 c0ba
00000210: f77f 0dba 1c1a fdba ce1e 49ba 596d 0cbb
00000220: cf4c 17ba 5211 ea39 4bc1 34b9 ac09 a2b7
00000230: 1e2c 1bba 7cb2 d5ba a093 94ba 430e 35ba
00000240: 81ee 713a 4b4a ba3a cbc4 dbba 5c7b de3a
00000250: eb19 b43a ac80 943a 7359 ed39 40ec 033b
00000260: 77a9 ea3a 4736 0f3b 053f a3ba 3879 343a
00000270: 5e26 ec3a 6765 573a ece5 163b 8178 e0b8
00000280: fb00 3d3b 2d52 003b 5937 41bb f345 353b
00000290: 9347 223b 2411 733b 8189 1b3b 6b8a 813b
000002a0: 3dba 52bb ef80 2cbb 194a 323b 6d0f 19bb
000002b0: 7682 4ebb 34d3 1cbb 4e9e 5dbb 43f2 d7ba
000002c0: 7329 14bb cd93 06bb 77e2 0d3b 95c2 08bb
000002d0: 46ac 21bb ec4f 94ba 5f4d 1ebb 7780 f638
000002e0: fff1 6b3a c47f bc39 606d d0b9 f795 4e3a
000002f0: 81ba 9d3a 90a7 99ba f46e 213a 5061 ddba
00000300: c9ae 49ba 4966 9439 1c58 14b8 110d f7b9
00000310: 885d 92ba 677a dfba 4969 45ba 2444 05ba
00000320: 0853 513b d933 2e3b d524 1bbb fff5 2c3b
00000330: 8ecf 563b 49c3 8f3b 68d0 633b 691d 803b
00000340: 1368 5d39 8c07 5739 99ec 3cb8 16b4 eeb9
00000350: 79ee aa39 1f61 9f3a e3bb 1739 4a4e 0b3b
00000360: ff7b 46bb a44f 13bb 61f3 1b3b dd0e bcba
00000370: 0a66 50bb e9e7 7ebb 247b 77bb 07f5 4ebb
00000380: 46c9 123a 24b1 8238 0a64 6bba 28b5 b73a
00000390: 911e 3739 2d95 513b 5780 92b9 98db 8a3b
000003a0: a971 e53a 61b8 c33a 73cc 11bb 5d16 d93a
000003b0: 0cd4 fe3a e360 cf3a f628 e53a 0c8b b73a
000003c0: 1b90 5b3a bb61 a739 bfd6 94ba 2633 993a
000003d0: 83f1 cd38 5df9 543b e8f6 d538 6763 853b
000003e0: a3ef 3abb 575b 03bb 6607 093b 63c9 29bb
000003f0: c82a 46bb 2fb6 4ebb d303 46bb de63 31bb

base_model.model.transformer.h.3.attn.c_attn.lora_A.weight f4 [8, 768]
-0.035612594 0.007761678 -0.017054355 -0.01712564 -0.035260845 -0.017768627 0.031475335 0.022310965
0.02995235 0.0058256476 0.024081957 0.008630683 0.02373095 -0.00061987777 0.0017913734 -0.013658935
0.010798857 -0.037854597 -9.373843e-05 0.025412021 0.030628312 0.006244409 -0.021563925 0.019859908
-0.0023710418 0.0008112662 -0.008644485 0.02692267 0.025275476 0.014886661 0.018690227 -0.019956209
-0.023935556 0.020040413 -0.020695603 -0.03309453 -0.037217468 -0.025973303 0.010872236 -0.039206326
0.024672534 -0.024049075 0.016933171 0.019325126 -0.036384523 0.0008339517 -0.028173348 -0.031006651
-0.030360403 -0.0020036725 -0.0011267302 -0.0093162535 0.026956288 0.029699411 0.021927735 0.024113575
0.010279826 -0.008884053 -0.033621844 0.01988219 0.036579344 -0.022671731 0.01235947 0.005594683
-0.033155292 -0.021984188 0.016539926 -0.03381865 0.006248373 0.007853858 -0.027321687 -0.032661382
-0.0032251135 0.0005297817 0.026787607 -0.02466408 0.030648561 -0.0095255235 0.033833288 -0.02137304
0.018740974 0.013813186 -0.033858195 0.03367822 -0.01843549 0.037352014 -0.022977125 -0.033863775
-0.0038546822 -0.037034247 0.0047821254 0.03801663 -0.019571347 0.0022071411 -0.009731276 0.00980444
-0.003046432 -0.02976075 0.017119458 -0.005112343 -0.032141108 0.027203266 -0.009948971 0.012489178
-0.027796755 0.010425521 -0.010983747 0.027631525 0.024989698 -0.009787901 -0.0025845256 -0.01556563
-0.03876623 -0.020092413 0.012023471 0.033074353 0.0109968325 0.020903526 0.0061123073 0.032100543
-0.032050516 0.022317765 -0.028989859 -0.028475475 -0.019427894 -0.019100687 -0.0042654965 -0.008163764
0.03304288 -0.017426921 0.03544199 0.015810495 0.014062732 -0.025782684 -0.017368188 -0.028091975
-0.022097733 -0.0053204973 0.022424879 -0.026413623 -0.0056220978 -0.0327504 0.038621627 -0.028938724
-0.021443198 -0.032932907 -0.035047274 -0.008422218 0.0049560186 0.0029556628 0.0293886 0.02440425
0.00929017 0.023148173 -0.013168796 0.002319737 -0.021218773 -0.010573335 -0.0137294885 -0.027768394
0.020936664 -0.02385636 0.006353087 -0.022660663 -0.0104961395 -0.011161636 0.0043807165 0.015323411
-0.010834018 0.023199417 -0.006654411 -0.034320146 0.010189793 0.0029269275 0.03114425 -0.030498892
0.028477697 -0.0049338937 -0.026185628 -0.017593412 -0.034799118 -0.0033240404 -0.03416374 -0.040565565
-0.016255472 -0.017096391 -0.020733735 0.018418612 -0.03328773 0.033938695 -0.01813806 -0.0060237013
-0.007417076 0.039304096 -0.010418379 -0.0027680325 -0.020803135 0.03261035 0.023588356 0.025403393
0.006792106 -0.02310952 0.019250017 0.021696111 0.0028436226 0.035775177 -0.029452493 -0.0011260555
-0.012803737 0.021118335 0.005562928 0.027226025 -0.014110584 0.031438224 -0.0055881944 -0.0027671573
-0.038903765 0.026546104 0.039956763 -0.033679288 0.012700161 -0.008980748 0.021374667 -0.019604228
-0.033149958 -0.021087619 -0.021055011 0.029514318 -0.022658186 0.0098522995 -0.035658743 -0.0052047465
-0.0160176 -0.006828121 -0.010057396 0.011892162 -0.019636622 0.025566813 -0.004731638 0.015701964
-0.032868665 0.015853515 -0.009235389 0.028971 -0.012696397 0.0002864759 -0.023828257 -0.015191224
0.0059979646 0.02710292 0.0045035463 -0.03455794 0.021708434 0.008242341 -0.028422458 -0.020930113
00000000: 83de 11bd ad55 fe3b 93b5 8bbc 124b 8cbc
00000010: ad6d 10bd 838f 91bc 48ec 003d 7cc5 b63c
00000020: a15e f53c 13e5 be3b 8647 c53c b567 0d3c
00000030: 6967 c23c 4b7f 22ba 84cc ea3a bac9 5fbc
00000040: b0ed 303c 6c0d 1bbd 7095 c4b8 df2c d03c
00000050: 3ae8 fa3c e69d cc3b d4a6 b0bc 3fb1 a23c
00000060: 7b63 1bbb 27ab 543a 99a1 0dbc ee8c dc3c
00000070: 840e cf3c 2fe7 733c 3f1c 993c 347b a3bc
00000080: 8014 c4bc cb2b a43c d389 a9bc 218e 07bd
00000090: 5871 18bd f7c5 d4bc 7721 323c d096 20bd
000000a0: 0e1e ca3c 9102 c5bc 6fb7 8a3c ba4f 9e3c
000000b0: f007 15bd 8d9d 5a3a cbcb e6bc a901 febc
000000c0: 61b6 f8bc 0c50 03bb cbae 93ba 33a3 18bc
000000d0: 6fd3 dc3c 2e4c f33c cba1 b33c d589 c53c
000000e0: b76c 283c 6b8e 11bc 0fb7 09bd f9df a23c
000000f0: 39d4 153d 11ba b9bc 607f 4a3c 9a53 b73b
00000100: d8cd 07bd 2f18 b4bc bd7e 873c 6d85 0abd
00000110: 27bf cc3b 78ad 003c bbd1 dfbc f1c7 05bd
00000120: 6d5c 53bb 0ce1 0a3a af71 db3c 530c cabc
00000130: b112 fb3c f110 1cbc c694 0a3d 8316 afbc
00000140: ac86 993c b450 623c e4ae 0abd 2cf2 093d
00000150: 0606 97bc 6dfe 183d 863a bcbc beb4 0abd
00000160: d69e 7cbb 39b1 17bd 60b3 9c3b 53b7 1b3d
00000170: 1754 a0bc afa5 103b ee6f 1fbc cda2 203c
00000180: a6a6 47bb d1cc f3bc 1b3e 8c3c 7185 a7bb
00000190: 65a6 03bd 62d9 de3c 0201 23bc 699f 4c3c
000001a0: 05b6 e3bc cecf 2a3c 2df5 33bc 825b e23c
000001b0: 32b7 cc3c 6f5d 20bc 2561 29bb fc06 7fbc
000001c0: 57c9 1ebd d898 a4bc 18fe 443c f978 073d
000001d0: 0f2c 343c df3d ab3c c049 c83b dc7b 033d
000001e0: 6747 03bd bfd3 b63c 247c edbc 6645 e9bc
000001f0: 3f27 9fbc 0b79 9cbc 94c5 8bbb 4fc1 05bc
00000200: f957 073d e7c2 8ebc 9f2b 113d 0385 813c
00000210: 6067 663c 3536 d3bc bb47 8ebc 2421 e6bc
00000220: 4e06 b5bc 9157 aebb 61b4 b73c 6261 d8bc
00000230: 9339 b8bb 4925 06bd b631 1e3d e710 edbc
00000240: a5a9 afbc a8e4 06bd bb8d 0fbd 58fd 09bc
00000250: 1966 a23b cbb3 413b 5cc0 f03c 6ceb c73c
00000260: cc35 183c 3da1 bd3c efc1 57bc bb06 183b
00000270: fed2 adbc c83b 2dbc a6f1 60bc 8b7a e3bc
00000280: 5e83 ab3c 6a6e c3bc 8e2d d03b dba2 b9bc
00000290: 00f8 2bbc 4bdf 36bc 1d8c 8f3b 0b0f 7b3c
000002a0: 2a81 31bc b40c be3c 3f0d dabb 4893 0cbd
000002b0: 17f3 263c b2d1 3f3b 3a22 ff3c d0d8 f9bc
000002c0: 0f4a e93c 80ac a1bb 3e83 d6bc 0f20 90bc
000002d0: 8589 0ebd 25d8 59bb 47ef 0bbd 1428 26bd
000002e0: 322a 85bc bb0d 8cbc cbd9 a9bc a1e2 963c
000002f0: b758 08bd 4d03 0b3d 4596 94bc 7862 c5bb
00000300: f10a f3bb 55fd 203d d9b1 2abc e167 35bb
00000310: 566b aabc 6e92 053d 5e3c c13c c71a d03c
00000320: 5190 de3b 2d50 bdbc 36b2 9d3c 0bbc b13c
00000330: 125c 3a3b fe88 123d 5b46 f1bc 2798 93ba
00000340: c4c6 51bc 5c00 ad3c 3949 b63b 1d09 df3c
00000350: 1430 67bc 5ec5 003d 2c1d b7bb 3259 35bb
00000360: 8e59 1fbd 3777 d93c b4a9 233d 4bf3 09bd
00000370: 5614 503c fd23 13bc ed19 af3c 0c99 a0bc
00000380: 40c8 07bd f1bf acbc 8f7b acbc 03c8 f13c
00000390: a99d b9bc 8a6b 213c e70e 12bd 948c aabb
000003a0: 5837 83bc 6ebe dfbb c7c7 24bc 58d7 423c
000003b0: fbdc a0bc 7e71 d13c db0b 9bbb 68a1 803c
000003c0: 4ba1 06bd 3bdf 813c 0750 17bc 9754 ed3c
000003d0: 8c04 50bc 2532 9639 7a33 c3bc 9de4 78bc
000003e0: 938a c43b f106 de3c 7c92 933b a08c 0dbd
000003f0: e3d5 b13c e20a 073c 37d6 e8bc a175 abbc
